trained_models/model7B.pt (torch_old, 34015 bytes, 12 tensors)

weight f4 [5, 1372]
0	0xbe36976c	-0.178312
1	0xbeb67488	-0.3563578
2	0x3d7d79d2	0.061883755
3	0xbdc4cb11	-0.09609044
4	0x3b3e102d	0.002900134
5	0xbdc3500c	-0.09536752
6	0xbdecd090	-0.11563218
7	0xbd377bdb	-0.044795852
8	0xbd9618a2	-0.07328917
9	0xbd92ce69	-0.07168276
10	0xbcc4e2e2	-0.024033967
11	0xbcdfcb0e	-0.027318504
12	0xbd115325	-0.035479683
13	0x3ef3da20	0.47627354
14	0x3cbefe57	0.023314638
15	0x3c98f9a6	0.01867373
16	0xbcfbde9e	-0.0307458
17	0x3c515c4a	0.012778351
18	0x3dab8957	0.08375805
19	0x3ad0122d	0.0015874557
20	0x3d8c0f13	0.06838813
21	0x3a3b7700	0.0007151216
22	0x3c41f9ba	0.011839325
23	0x3d4487f1	0.047981206
24	0x3d872426	0.06598692
25	0x3d2621bf	0.040559527
26	0x3e187f01	0.14892198
27	0xbd907b2e	-0.07054745
28	0xbdb87774	-0.09007159
29	0xbd863e20	-0.06554818
30	0xbcaf43b0	-0.02139458
31	0x3b191e49	0.0023363999
32	0xbb2b81c9	-0.0026169887
33	0xbdc3e1b5	-0.095645346
34	0xbd8beb33	-0.0683197
35	0xbd1daaa8	-0.03849283
36	0x3defde3e	0.11712311
37	0xbe115c45	-0.14195354
38	0xbd46ebc4	-0.048564687
39	0x3cfe69ba	0.031056274
40	0xbdb923a3	-0.0904
41	0x3c884bc7	0.016637696
42	0xbe2c601c	-0.16833538
43	0xbd0564a8	-0.032566696
44	0xbc742309	-0.014900931
45	0x3cc30ba1	0.023809256
46	0xbd46d8e3	-0.048546683
47	0x3cb8715d	0.022514993
48	0xbbe1b940	-0.0068885386
49	0xbc1c61fd	-0.009544847
50	0x3da498c2	0.08036949
51	0x3dae88b8	0.08522171
52	0xbd303771	-0.043021623
53	0x3e47ea30	0.19522929
54	0xbe4d7109	-0.2006265
55	0x3c6afc0c	0.014342319
56	0xbda860f4	-0.08221617
57	0xbcda22a1	-0.02662784
58	0xbc436d28	-0.01192788
59	0xbe1226c6	-0.14272603
60	0xbd453802	-0.048149116
61	0xbbc0b7d2	-0.005881288
62	0xbc22183b	-0.009893472
63	0x3d2fca0a	0.04291729
64	0xbe7af4f1	-0.245075
65	0x3c1e1853	0.009649354
66	0x3e3d8ec5	0.18511494
67	0x3e09b58f	0.13448165
68	0xbc9cb78f	-0.019130496
69	0x3db9c525	0.090708055
70	0x3c9b4e50	0.01895824
71	0x3c52475d	0.012834397
72	0x3ccde4e6	0.025133561
73	0x3e73e5e6	0.23818168
74	0x3e0045ac	0.12526578
75	0x3d1a8bd5	0.03773101
76	0xbc241042	-0.010013642
77	0xbd3b6c9e	-0.045757882
78	0x3c0c67e1	0.008569689
79	0x3d053783	0.032523643
80	0xbd2b3e6b	-0.041807573
81	0x3c8ee8a2	0.017444912
82	0x3de78f2e	0.11306606
83	0x3d5373ba	0.051624037
84	0x3db7b907	0.08970838
85	0xb716bf00	-8.985167e-06
86	0x3d41361f	0.047170755
87	0xbe5bcf1a	-0.21465722
88	0xbd021514	-0.031758383
89	0x3cb004b7	0.021486623
90	0x3cad83d3	0.021181023
91	0x3e0802a5	0.13282259
92	0x3cc49e5f	0.024001298
93	0xbde7f433	-0.11325874
94	0x3b6427ba	0.0034813718
95	0xbc79682c	-0.01522259
96	0x3c014e1b	0.007892157
97	0x3ca540fd	0.02017259
98	0xbd35beea	-0.044371523
99	0xbd530747	-0.051520612
100	0xbd821f65	-0.06353644
101	0x3c81cd0c	0.015844844
102	0x3e34dbb8	0.17661941
103	0xbe07535e	-0.13215396
104	0xbcb680a2	-0.022278134
105	0x3df7b8f8	0.12095827
106	0x3c843070	0.016136378
107	0xbc801588	-0.015635267
108	0x3eacf691	0.33781865
109	0xbdb3a3c6	-0.08771472
110	0xbcc119c0	-0.023571849
111	0xbd0e4331	-0.034732047
112	0xbd89ee03	-0.0673485
113	0x3de0bbd8	0.10973328
114	0xbd3e5acf	-0.04647332
115	0x3dfd7206	0.12375264
116	0xbc76ef89	-0.015071758
117	0x3d10ed09	0.035382304
118	0x3b9cbd60	0.0047833174
119	0x3e1e6d9c	0.154715
120	0x3df13d4a	0.11779268
121	0x3d8f8271	0.070073016
122	0x3a6f6dd6	0.00091334933
123	0xbb5f74cf	-0.0034096723
124	0xbdeb8a1d	-0.115009524
125	0x3eb50696	0.35356587
126	0x3d05383f	0.032524344
127	0x3d252b13	0.040324282
128	0x3e32ecd1	0.17473151
129	0xbcfc35df	-0.030787406
130	0xbc88080d	-0.016605401
131	0x3ca4a618	0.02009873
132	0x3be81175	0.007082159
133	0x3d91f238	0.07126278
134	0x3bc537a5	0.0060185962
135	0x3d31a365	0.043368716
136	0x3e8d409b	0.27588353
137	0x3e011864	0.1260696
138	0x3c5682a4	0.013092671
139	0xbe1ad7b7	-0.15121351
140	0x3c28e38d	0.010308159
141	0x3ea739db	0.32661328
142	0xbd9f49e8	-0.077777684
143	0xbdf8c5ea	-0.12147124
144	0xbad29ec6	-0.0016069047
145	0xbc5fb0db	-0.0136530055
146	0xbe1dbac8	-0.15403283
147	0x3cf80e65	0.030280301
148	0x3c054698	0.008134507
149	0x3c4a9ff1	0.012367235
150	0xbde9b933	-0.11412277
151	0xbe127e8c	-0.14306086
152	0xbd22186f	-0.039574083
153	0x3d60659b	0.0547844
154	0xbdd3540e	-0.103187665
155	0x3d0bbbec	0.034114763
156	0xbc2f529a	-0.010700846
157	0x3d86d575	0.065836824
158	0x3c1c823e	0.0095525365
159	0xbd426356	-0.047458015
160	0xbc7c251c	-0.015389707
161	0xbd3f7d46	-0.04675033
162	0x3e03201b	0.12805216
163	0x3dce41d3	0.10071149
164	0x3d3f6034	0.046722606
165	0x3d43b1cc	0.047776982
166	0xbeab9e07	-0.33519003
167	0x3dad0f51	0.08450187
168	0x3cc26bd6	0.02373306
169	0xbc964ca5	-0.018347094
170	0xbcb09e64	-0.021559902
171	0xbe457a63	-0.19284968
172	0xbd951562	-0.07279469
173	0xb75357c8	-1.2597018e-05
174	0x3e1074a7	0.14107
175	0x3dc93cbe	0.09826039
176	0xbe6c744b	-0.23091237
177	0xbe0fddad	-0.14049406
178	0xbd774c8a	-0.060375728
179	0x3e5bc25d	0.21460862
180	0x3e33c64d	0.17556114
181	0xbb4929fd	-0.0030695193
182	0xbc89871c	-0.016788058
183	0x3d51a263	0.051180255
184	0xbcb3864d	-0.021914626
185	0x3d2e35e4	0.042531863
186	0xbd861e4d	-0.06548748
187	0x3d36ad5f	0.044598933
188	0xbcf60624	-0.030032225
189	0x3e9dc8d4	0.30817282
190	0x3cc5807a	0.024109114
191	0x3cb3ddec	0.021956407
192	0x3d4d546d	0.050129343
193	0xbce62705	-0.028094778
194	0x3d57592f	0.052575286
195	0x3e2f3613	0.17110471
196	0xbe12c9eb	-0.14334838
197	0xbca7231f	-0.02040249
198	0x3c3b26eb	0.011422853
199	0x3c5370f0	0.012905344
200	0x3cbef94f	0.023312239
201	0xbd86abde	-0.0657575
202	0x3d978179	0.07397742
203	0xbd90a1a8	-0.070620835
204	0x3e88f0f8	0.26746345
205	0x3d166a44	0.036722437
206	0x3c3a6140	0.011375725
207	0xbcfddee8	-0.030990079
208	0x3a9bd97c	0.0011890377
209	0xbd394977	-0.045236077
210	0x3dd3196d	0.10307584
211	0x3dab4b14	0.083639294
212	0x3d061985	0.03273918
213	0x3d0a41bc	0.033754095
214	0xbdd75a94	-0.10515323
215	0x3cee5047	0.029091014
216	0xbd8fdb1b	-0.07024213
217	0xbdb0b146	-0.08627562
218	0xbd99002c	-0.07470736
219	0x3e0eb8b9	0.13937654
220	0xbe1ebece	-0.15502474
221	0xbdbb0ef6	-0.09133713
222	0xbdbe3fe7	-0.09289532
223	0xbd812176	-0.0630521
224	0x3e095ef4	0.13415128
225	0xbd90c607	-0.07069021
226	0xbcd49af9	-0.025952803
227	0x3bd72415	0.0065655806
228	0x3ca9136b	0.020639142
229	0x3d2f1394	0.04274328
230	0xbd1300a7	-0.035889294
231	0x3cb4cf87	0.022071613
232	0xbd34585b	-0.044029575
233	0xbd26b867	-0.040703204
234	0xbb1451de	-0.0022631804
235	0x3ca31270	0.019906253
236	0x3d3df7ca	0.04637889
237	0xbdf67203	-0.12033465
238	0xbd92dfde	-0.071716055
239	0x3d06177a	0.032737233
240	0xbe6c65b4	-0.23085672
241	0x3cff89e6	0.031193685
242	0x3e2551a7	0.16144429
243	0xbde8ff8c	-0.11376867
244	0x3d58c84c	0.052925393
245	0xbd1c3e23	-0.038145196
246	0x3e413a49	0.1886989
247	0xbca5aa19	-0.02022271
248	0x3c571752	0.013128119
249	0xbce46708	-0.02788116
250	0x3cf313a5	0.029672453
251	0x3e34f1dc	0.17670387
252	0xbcd6ba33	-0.026211834
253	0xbdc54ded	-0.09634004
254	0xbdcaf51b	-0.099100314
255	0xbd31ad43	-0.043378126

bias f4 [5]
0	0xbd38c4ae	-0.045109443
1	0x3e431933	0.19052581
2	0x3e35b36e	0.17744228
3	0x3e620d0d	0.22075291
4	0xbcf20ee2	-0.029548112

weight f4 [5, 5]
0	0x3f3fcf65	0.74925834
1	0x3f75759d	0.9588259
2	0x3f3d8c57	0.74042267
3	0x3f90dd69	1.1317569
4	0x3f7cc128	0.98732233
5	0xbee4727c	-0.44618595
6	0xbe5abde5	-0.21361502
7	0x3f01c9f4	0.5069878
8	0xbe0d1327	-0.13776837
9	0xbf0fb9ab	-0.5614268
10	0xbed4cba5	-0.41561618
11	0x3d32813a	0.04358027
12	0xbf566903	-0.83753985
13	0xbf203aff	-0.6259002
14	0x3f103dfa	0.5634457
15	0xbf9fc536	-1.2482059
16	0x3c85fadb	0.016354969
17	0x3f4d3490	0.8015833
18	0xbec8673a	-0.39141256
19	0xbf789944	-0.97108865
20	0xbe074337	-0.13209234
21	0x3f571be1	0.84026915
22	0x3ec49944	0.38398182
23	0x3f4ab289	0.79178673
24	0xbf20d3e1	-0.628233

bias f4 [5]
0	0xbec9558c	-0.3932308
1	0x3ec31252	0.38099915
2	0xbe1d3aab	-0.15354411
3	0xbe2ec034	-0.17065507
4	0x3e1a1597	0.15047298

weight f4 [5, 5]
0	0x3f3ba599	0.73299557
1	0x3e63ff21	0.22265293
2	0xbe2ce241	-0.16883184
3	0x3e9e49d2	0.30915695
4	0xbf1a4aa2	-0.6027013
5	0x3ece0d97	0.40244743
6	0xbf19527b	-0.5989148
7	0xbefd17f8	-0.4943235
8	0xbec2128b	-0.37904772
9	0x3d08a613	0.033361506
10	0x3e7ee8cc	0.24893492
11	0xbe86ec36	-0.2635209
12	0x3f33d896	0.7025236
13	0xbeddde31	-0.4333358
14	0x3e8c3aec	0.27388704
15	0x3f02f3f6	0.51153505
16	0x3d871db4	0.06597462
17	0x3f0d91f1	0.55300814
18	0x3e92c873	0.28668556
19	0x3e93ce1a	0.2886818
20	0x3f71de8e	0.94480217
21	0xbf348858	-0.70520544
22	0xbf25b34c	-0.6472671
23	0xbed0348b	-0.40665087
24	0xbef065d0	-0.46952677

bias f4 [5]
0	0xbf68d69b	-0.9095246
1	0xbf4b2868	-0.7935853
2	0xbe26c69a	-0.16286698
3	0x3ef9f01e	0.48816007
4	0x3e8d051d	0.27542964

weight f4 [5, 5]
0	0xbf3b2cfe	-0.7311553
1	0xbf29a6f0	-0.6627035
2	0x3f49fed9	0.7890449
3	0xbda00f7c	-0.078154534
4	0x3f206f1a	0.6266953
5	0x3e78d16f	0.24298643
6	0xbf44a685	-0.7681659
7	0xbeab3c54	-0.33444464
8	0x3f554f60	0.8332424
9	0xbf268cae	-0.6505841
10	0x3f2d26e9	0.676375
11	0xbdb521c8	-0.08844334
12	0xbf35e068	-0.7104554
13	0xbecda49a	-0.40164644
14	0xbdc7bf70	-0.09753311
15	0xbf3ce6ce	-0.7378968
16	0xbea4f475	-0.32217756
17	0xbdded9b0	-0.10881364
18	0xbf21d0bf	-0.63209146
19	0xbf32fc8e	-0.6991662
20	0x3e21c172	0.1579645
21	0xbef77c16	-0.48336858
22	0xbf06deb2	-0.52683556
23	0x3e3c5710	0.18392587
24	0xbe877d9d	-0.26463023

bias f4 [5]
0	0x3c4ae013	0.012382525
1	0xbe414265	-0.18872984
2	0xbddb1df6	-0.10699074
3	0xbc139140	-0.009006798
4	0x3eedecaa	0.46469623

weight f4 [5, 5]
0	0xbe954a99	-0.29158476
1	0x3ea9d732	0.33171993
2	0xbf296442	-0.66168606
3	0xbf2b5c6a	-0.6693789
4	0xbe1ebe4d	-0.15502281
5	0xbcdb95b9	-0.026804792
6	0x3f755f08	0.9584813
7	0xbe8161a9	-0.2526982
8	0x3f410912	0.75404465
9	0x3d37b05a	0.044845916
10	0xbf21aa7a	-0.6315075
11	0x3f177af5	0.5917199
12	0x3efd65b9	0.4949167
13	0xbbb5c900	-0.0055476427
14	0x3f7bce47	0.9836163
15	0xbf20438f	-0.62603086
16	0x3e9c759b	0.30558476
17	0x3f319c32	0.6937896
18	0xbf142681	-0.5787125
19	0xbebc8c41	-0.36825755
20	0xbf03ea54	-0.5152943
21	0x3f7d4c84	0.9894488
22	0x3df93ef0	0.121702075
23	0xbcb816a0	-0.022471726
24	0x3f0b803a	0.54492533

bias f4 [5]
0	0xbedb9a03	-0.4289094
1	0x3ee40b98	0.44540095
2	0x3dc8adcf	0.09798776
3	0xbeda7479	-0.42666987
4	0x3f14c407	0.58111614

weight f4 [2, 5]
0	0xbf4340f3	-0.7627098
1	0xbee51a81	-0.44746783
2	0x3f2e83f2	0.6817008
3	0xbf3339c7	-0.70010036
4	0x3f52348f	0.8211145
5	0x3f3dd3a7	0.7415108
6	0xbf7d0fa1	-0.9885197
7	0xbefd3951	-0.4945779
8	0xbf1295d2	-0.5725986
9	0xbed43ab3	-0.41451034

bias f4 [2]
0	0xbac4a4b0	-0.0015002694
1	0xbd9160c1	-0.070985325
