trained_models/model7C.pt (torch_old, 37053 bytes, 22 tensors)

weight f4 [5, 1372]
0.21726966 0.16302554 0.13524255 0.14779471 0.13883609 0.24592508 0.09951659 0.11537453
0.22770129 0.22028473 0.16074735 0.19014527 0.16327749 0.43900388 0.13635322 0.06601129
0.18042609 0.10832894 -0.067263424 0.18337926 0.18643837 0.13343039 0.14047812 0.22225405
0.21390915 0.30988002 0.18698823 0.06414722 0.14575201 0.27876338 0.14580661 0.094203286
0.21642652 0.12034872 0.14712729 0.27020967 0.16911547 0.20057721 0.08989605 0.1264494
0.10229855 0.18538614 0.20505871 0.09369134 0.19711554 0.17348523 0.047484104 0.1631027
0.08676217 0.14596237 0.12346908 0.30185676 0.18153796 0.08468132 0.2761635 0.111577414
0.072612405 0.23716421 0.11833539 -0.0023020403 0.2058317 0.20880647 0.07901096 0.14366558
-0.023428036 0.17127189 0.38408342 0.2062271 0.2157213 0.14078921 0.090317436 0.17237286
0.1898317 0.17617683 0.25197262 0.09163685 0.18848966 0.03833183 0.09689309 0.049976666
0.12086775 0.024131332 0.17796235 0.3182516 0.20715092 0.21825358 0.082537115 -0.050041832
0.06521064 0.20901805 0.21721743 0.13621536 0.21613295 0.041155834 0.13699159 0.0052548875
0.058908526 0.2524131 0.14279264 0.07569765 0.13317122 0.11952006 0.15206437 0.14136449
0.16886629 0.22630632 0.12629889 0.17571835 0.21353704 0.18110548 0.13830884 0.044654362
0.24373391 0.021155596 0.13844591 0.1949329 0.07793867 0.17377374 0.16082919 0.118519515
0.19046523 0.13499856 0.09074971 0.20636652 -0.085213736 0.40486583 0.12585068 0.15751849
0.14182296 0.05517303 0.15398413 0.27457225 -0.015066525 0.18441331 0.06654253 0.1233443
0.18536067 0.12565562 0.20926712 0.17406979 0.105315104 0.14599352 0.21250159 0.12495962
0.1769542 -0.15637429 -0.0763338 0.15071388 0.20550834 0.11378008 0.060817756 0.12753573
0.16101119 0.10487359 0.21770246 0.16899516 0.14667462 0.269811 0.14684603 0.19083318
0.15258813 0.2863708 0.10953948 0.14239965 0.13007456 0.18328911 -0.35718378 0.25586393
0.14910705 0.19362359 0.27402413 0.16606271 0.14696889 0.17605437 0.18040437 -0.03646334
0.18604968 0.076228485 0.049035523 0.28501135 0.24217457 0.12551253 0.15372477 0.097598165
0.12414516 0.14419138 0.18792787 0.11652798 0.17286031 0.32026863 0.2467015 0.21537356
0.22259426 0.19514464 0.14227451 0.2106628 0.175399 0.1422272 0.11904383 0.1472337
0.28415465 0.2396816 0.13300082 0.18322666 0.31401825 0.08964554 0.4308281 0.1726137
0.14997917 0.07238737 0.1732709 0.14735083 0.23125121 0.11186526 0.20571782 0.1541857
-0.010041971 0.066979274 -0.0032154075 0.17745575 0.15112013 0.23450863 0.09628086 0.16408996
0.13306129 0.1514034 0.15499857 0.18288451 0.17193991 0.1429522 0.13382967 0.07431073
0.16826448 0.0324079 0.22797121 0.22700118 0.1799504 0.22137077 0.2588678 0.17098297
0.1428282 0.1456916 0.27160904 0.14446883 0.19121075 0.11645156 0.28243414 0.066099785
0.09392975 0.118582994 0.22559026 0.2538058 0.2169069 0.12573151 0.1326226 0.08045116
00000000: f07b 5e3e 2bf0 263e 067d 0a3e 7f57 173e
00000010: 0c2b 0e3e c9d3 7b3e 5bcf cb3d 7b49 ec3d
00000020: 872a 693e 5292 613e f49a 243e 71b5 423e
00000030: 3732 273e 1ec5 e03e 2ea0 0b3e ed30 873d
00000040: 9ec1 383e 90db dd3d 68c1 89bd c6c7 3b3e
00000050: b3e9 3e3e faa1 083e 7fd9 0f3e 9196 633e
00000060: 000b 5b3e 98a8 9e3e d879 3f3e 9e5f 833d
00000070: 0440 153e 13ba 8e3e 544e 153e a7ed c03d
00000080: ea9e 5d3e 6479 f63d 89a8 163e ec58 8a3e
00000090: 9b2c 2d3e 1d64 4d3e 6c1b b83d f47b 013e
000000a0: e781 d13d ddd5 3d3e e9fa 513e 3fe1 bf3d
000000b0: a8d8 493e 1da6 313e b17e 423d 6504 273e
000000c0: 5db0 b13d 2977 153e 5bdd fc3d f88c 9a3e
000000d0: 16e5 393e 666d ad3d 4d65 8d3e b382 e43d
000000e0: d0b5 943d 2ddb 723e d359 f23d d4dd 16bb
000000f0: 8cc5 523e 5dd1 553e 80d0 a13d 121d 133e
00000100: 27ec bfbc e661 2f3e 95a6 c43e 322d 533e
00000110: 0be6 5c3e 0c2b 103e 59f8 b83d 8382 303e
00000120: 3e63 423e b367 343e 8e02 813e 1aac bb3d
00000130: 6f03 413e d601 1d3d e26f c63d 55b4 4c3d
00000140: 8389 f73d 12af c53c c33b 363e e0f1 a23e
00000150: 5f1f 543e de7d 5f3e 3809 a93d aaf8 4cbd
00000160: 288d 853d d408 563e 3f6e 5e3e 0a7c 0b3e
00000170: f551 5d3e 0593 283d 8647 0c3e 3131 ac3b
00000180: 114a 713d 4a3c 813e 3c38 123e 5f07 9b3d
00000190: 095e 083e efc6 f43d c3b6 1b3e dac1 103e
000001a0: 49eb 2c3e d8bc 673e 7f54 013e 83ef 333e
000001b0: 74a9 5a3e b773 393e d5a0 0d3e 7ee7 363d
000001c0: 6295 793e 804e ad3c c4c4 0d3e 7d9c 473e
000001d0: 4f9e 9f3d bef1 313e 68b0 243e 5cba f23d
000001e0: 5109 433e 103d 0a3e fcda b93d bf51 533e
000001f0: 8a84 aebd 934a cf3e 00df 003e 874c 213e
00000200: 0a3a 113e 1dfd 613d 04ae 1d3e bc94 8c3e
00000210: 96d9 76bc d8d6 3c3e 7347 883d f09b fc3d
00000220: 30cf 3d3e deab 003e 1f4a 563e 5a3f 323e
00000230: 72af d73d 537f 153e 049a 593e d4ea ff3d
00000240: 7b33 353e 9520 20be e554 9cbd bd54 1a3e
00000250: c770 523e 8805 e93d 0a1c 793d ba98 023e
00000260: 1ee0 243e f7c7 d63d 65ed 5e3e 110d 2d3e
00000270: df31 163e ab24 8a3e ce5e 163e c669 433e
00000280: 1040 1c3e 329f 923e 3c56 e03d 37d1 113e
00000290: 4432 053e 24b0 3b3e cbe0 b6be 9900 833e
000002a0: 85af 183e 4345 463e e44c 8c3e 580c 2a3e
000002b0: 037f 163e 9947 343e ecbb 383e 955a 15bd
000002c0: cf83 3e3e ae1d 9c3d 79d9 483d 02ed 913e
000002d0: 9cfc 773e 5b86 003e 076a 1d3e 8ce1 c73d
000002e0: d13f fe3d e8a6 133e 2a70 403e 39a6 ee3d
000002f0: 4b02 313e 40fa a33e 519f 7c3e e38a 5c3e
00000300: c0ef 633e ffd3 473e 69b0 113e fdb7 573e
00000310: cc9b 333e 02a4 113e 40cd f33d 6ec4 163e
00000320: b87c 913e 186f 753e 5e31 083e c59f 3b3e
00000330: 00c7 a03e 1598 b73d 8095 dc3e a5c1 303e
00000340: 2494 193e d43f 943d ed6d 313e 23e3 163e
00000350: 1ecd 6c3e 9d19 e53d b1a7 523e dbe2 1d3e
00000360: 1487 24bc 6e2c 893d 96b9 52bb f6b6 353e
00000370: 3cbf 1a3e 0823 703e e62e c53d 3307 283e
00000380: 3841 083e 7e09 1b3e f2b7 1e3e 1446 3b3e
00000390: 0411 303e 1062 123e a50a 093e 3930 983d
000003a0: 864d 2c3e 25be 043d 4971 693e ff72 683e
000003b0: eb44 383e 05af 623e 528a 843e 2916 2f3e
000003c0: 8e41 123e 2e30 153e 5710 8b3e a3ef 133e
000003d0: c0cc 433e 287e ee3d 359b 903e 535f 873d
000003e0: 3e5e c03d a4db f23d 2201 673e d5f2 813e
000003f0: d81c 5e3e c3bf 003e 38ce 073e 94c3 a43d

bias f4 [5]
-0.12334584 -0.16544777 -0.13455144 0.3271166 0.33567953
00000000: be9c fcbd 246b 29be dac7 09be d47b a73e
00000010: 30de ab3e

weight f4 [5, 5]
0.508294 -0.12805426 -0.48940605 0.86899316 0.69888484 -0.7192289 -0.5524288 0.01589073
0.854069 0.76648456 0.9741179 0.7577866 0.88340557 -0.54178256 0.26399308 0.06959118
0.60732263 -1.2508696 -0.085421704 0.17574987 0.3797842 -0.59388196 -0.056813017 0.09914842
0.6546754
00000000: 8e1f 023f a820 03be 6e93 fabe 5676 5e3f
00000010: 1eea 323f 631f 38bf f96b 0dbf 472d 823c
00000020: 44a4 5a3f 5538 443f ca5f 793f 4dfe 413f
00000030: de26 623f 43b2 0abf 1a2a 873e d285 8e3d
00000040: 7f79 1b3f 7f1c a0bf 93f1 aebd c6f7 333e
00000050: 1373 c23e a608 18bf c4b4 68bd 540e cb3d
00000060: cf98 273f

bias f4 [5]
0.31150115 0.32124972 0.0886046 0.6576087 0.09238126
00000000: 147d 9f3e d87a a43e 5476 b53d 0b59 283f
00000010: 6332 bd3d

weight f4 [5, 5]
-0.29456767 0.05946953 -0.51465905 0.33893752 0.09457057 0.78383833 -0.21025792 0.38550162
-0.7435511 0.32021347 0.51770514 1.0162778 -0.48759684 0.88397485 0.8232135 -0.31295082
0.32333305 -0.72384566 0.02022487 -0.26092923 0.46509305 0.9438624 -0.40536 0.20319122
0.66307753
00000000: 93d1 96be 5296 733d b2c0 03bf 3889 ad3e
00000010: 37ae c13d a1a9 483f da4d 57be 7860 c53e
00000020: 5d59 3ebf 05f3 a33e 5388 043f 6415 823f
00000030: 4ba6 f9be 2d4c 623f 1fbe 523f 173b a0be
00000040: e98b a53e f34d 39bf a0ae a53c 8498 85be
00000050: ad20 ee3e f7a0 713f 598b cfbe 5c11 503e
00000060: 73bf 293f

bias f4 [5]
-0.07501667 -0.06874795 -0.12271411 -0.088936135 0.66041476
00000000: 57a2 99bd bacb 8cbd 8951 fbbd 2624 b6bd
00000010: f110 293f

weight f4 [5, 5]
0.07322878 0.7345299 0.34634495 -0.4966578 -0.2727505 0.763139 0.31315723 -0.18836053
-0.3121284 -0.18082884 -0.72830516 -0.4760513 0.6810682 -0.43380785 1.0265349 -0.5978812
0.2581615 -0.33091718 0.7229569 -0.49568802 0.38987136 0.5255054 -0.334612 -0.55778205
0.2901479
00000000: f8f8 953d 270a 3c3f 2054 b13e ee49 febe
00000010: f4a5 8bbe 145d 433f 2556 a03e 95e1 40be
00000020: 4bcf 9fbe 322b 39be 3572 3abf ffbc f3be
00000030: 7c5a 2e3f 101c debe 7f65 833f be0e 19bf
00000040: be2d 843e fa6d a9be b413 393f d2ca fdbe
00000050: 389d c73e 8687 063f 4452 abbe ceca 0ebf
00000060: 448e 943e

bias f4 [5]
-0.11071451 0.24977465 0.051634416 -0.43154573 0.04757532
00000000: 4abe e2bd edc4 7f3e 9c7e 533d 90f3 dcbe
00000010: 57de 423d

weight f4 [5, 5]
0.0715664 -0.5228406 -0.70682836 -0.70472574 -0.7058772 -0.7066077 -0.3428101 -0.65192354
-0.25017363 0.25001967 -0.41868007 0.09083302 -0.3616608 -0.35123786 0.4668096 -0.11997565
0.56997633 0.83075804 -0.36384797 -0.9401535 0.60478795 1.0199534 -0.84329075 -0.5162711
-0.17338061
00000000: 6891 923d e2d8 05bf b4f2 34bf e868 34bf
00000010: 5eb4 34bf 3ee4 34bf ce84 afbe 76e4 26bf
00000020: c216 80be 9402 803e 3c5d d6be aa06 ba3d
00000030: 9b2b b9be 73d5 b3be ab01 ef3e cbb5 f5bd
00000040: f8e9 113f 8fac 543f 484a babe e6ad 70bf
00000050: 62d3 1a3f d58d 823f e7e1 57bf 582a 04bf
00000060: b08a 31be

bias f4 [5]
-0.33455566 -0.38357028 -0.002522513 0.5990175 -0.120886005
00000000: e14a abbe 5363 c4be bf50 25bb 3659 193f
00000010: 1593 f7bd

weight f4 [5, 5]
-0.26037377 0.48050606 -0.7306711 0.72096944 0.011592067 0.6232939 -0.5312763 0.2887079
0.42736903 -0.18461366 -0.03626889 -0.1297226 -0.87356126 0.3565059 -0.63102895 0.7269479
0.060097992 -0.17695363 0.40962958 -0.7177014 -0.530913 -0.117455006 -0.008837373 -0.4547025
0.0271957
00000000: b64f 85be e404 f63e 430d 3bbf 7491 383f
00000010: a7ec 3d3c 3090 1f3f b901 08bf 86d1 933e
00000020: 1dd0 da3e 5d0b 3dbe b08e 14bd 00d6 04be
00000030: b6a1 5fbf f187 b63e 1d8b 21bf 4219 3a3f
00000040: 5029 763d 5533 35be f8ba d13e 47bb 37bf
00000050: eae9 07bf 408c f0bd a1ca 10bc c4ce e8be
00000060: 84c9 de3c

bias f4 [5]
-0.17559592 0.39563057 0.38688952 0.3708429 -0.5106699
00000000: 6bcf 33be 1790 ca3e 6216 c63e 1fdf bd3e
00000010: 43bb 02bf

weight f4 [5, 5]
0.36744478 0.76569897 0.9163521 0.75982744 0.40368095 0.27245474 -0.033134475 0.39607412
-0.48760593 -0.36185873 0.9919215 -0.017031442 0.30434415 -0.06727387 0.40732637 0.5540383
-0.83025455 0.22222975 0.15303501 -0.3583048 0.3461633 0.0645686 -0.375896 0.03790726
0.26990044
00000000: b921 bc3e d904 443f 0d96 6a3f 0d84 423f
00000010: 45af ce3e 307f 8b3e 04b8 07bd 3aca ca3e
00000020: 7ca7 f9be 8c45 b9be 91ee 7d3f 8685 8bbc
00000030: ffd2 9b3e e2c6 89bd 158d d03e 74d5 0d3f
00000040: 908b 54bf 3290 633e 36b5 1c3e ba73 b7be
00000050: 513c b13e 8b3c 843d 7175 c0be a544 1b3d
00000060: 6430 8a3e

bias f4 [5]
0.28043333 -0.51921046 0.049801275 -0.5774997 -0.5834385
00000000: f594 8f3e faea 04bf 6cfc 4b3d 05d7 13bf
00000010: 3a5c 15bf

weight f4 [5, 5]
0.32478687 -0.43184337 0.30347317 -0.6793145 -0.19225605 0.12191748 0.18127929 0.9442411
0.54027855 -0.18737654 -0.11424673 0.8815597 0.33111203 0.121503904 0.5044816 -0.8361231
0.30613053 -0.7426808 0.41702604 -0.38883802 -0.14384697 -0.0012882935 0.0055353185 0.87724024
0.85235566
00000000: 774a a63e 931a ddbe d660 9b3e 8ee7 2dbf
00000010: c5de 44be dfaf f93d 47a1 393e c9b9 713f
00000020: b24f 0a3f a3df 3fbe 31fa e9bd e6ad 613f
00000030: 8487 a93e 0ad7 f83d b525 013f 2a0c 56bf
00000040: 24bd 9c3e 5420 3ebf 7084 d53e c715 c7be
00000050: 9f4c 13be f5db a8ba 9e61 b53b d192 603f
00000060: fb33 5a3f

bias f4 [5]
0.4790882 0.25191954 -0.4699339 0.27120012 0.80683357
00000000: 0c4b f53e 99fb 803e 2d9b f0be beda 8a3e
00000010: a58c 4e3f

weight f4 [5, 5]
0.50965333 0.056236647 -0.68336135 0.6500759 -0.41801858 -0.36312127 -0.4180181 -0.25512004
-0.7064409 0.665964 -0.26827407 0.64565533 -0.48731887 -0.68302 -0.87642986 0.0082374485
-0.5417805 0.07468814 0.06914878 -0.20341802 0.89071786 0.46613076 -0.18210068 -0.7110489
-1.1157279
00000000: a478 023f 6658 663d c5f0 2ebf 606b 263f
00000010: 8806 d6be 08eb b9be 7806 d6be 189f 82be
00000020: 50d9 34bf 9e7c 2a3f 385b 89be ab49 253f
00000030: dc81 f9be 66da 2ebf b55d 60bf 5df6 063c
00000040: 20b2 0abf 18f6 983d e09d 8d3d d04c 50be
00000050: 1606 643f b1a8 ee3e 9a78 3abe 4d07 36bf
00000060: 2cd0 8ebf

bias f4 [5]
0.15392433 -0.37116966 0.50485456 0.15503548 0.09503776
00000000: 579e 1d3e f309 bebe 263e 013f 9fc1 1e3e
00000010: 28a3 c23d

weight f4 [5, 5]
0.82690793 -0.06751883 0.43588984 0.38318676 0.57619274 0.76841927 -0.73131484 0.12833917
0.3753127 -0.6519234 0.33106503 0.3097148 0.100811094 -0.64431363 0.27473444 -0.3057388
0.311239 -0.60869324 0.22891855 -0.038417205 -0.51740915 -0.36205587 -0.73572093 0.16421038
-0.64622056
00000000: 3db0 533f 5047 8abd f42c df3e 0e31 c43e
00000010: 5e81 133f 20b7 443f 7337 3bbf 586b 033e
00000020: fc28 c03e 74e4 26bf 5b81 a93e f092 9e3e
00000030: 0c76 ce3d bdf1 24bf fea9 8c3e cc89 9cbe
00000040: b85a 9f3e 52d3 1bbf a069 6a3e 5c5b 1dbd
00000050: ed74 04bf 635f b9be 3558 3cbf c426 283e
00000060: b66e 25bf

bias f4 [5]
0.14986573 -0.29633915 0.18642381 0.046001032 -0.39579517
00000000: 6776 193e c4b9 97be e2e5 3e3e 946b 3c3d
00000010: aaa5 cabe

weight f4 [2, 5]
0.34843564 -0.29725367 0.20619017 0.35952935 -0.34075183 0.010688365 0.44350672 -0.4361478
-0.0006866421 -0.29071146
00000000: 2866 b23e a231 98be 8423 533e 3b14 b83e
00000010: 0677 aebe 411e 2f3c 5013 e33e c44e dfbe
00000020: c5ff 33ba 22d8 94be

bias f4 [2]
0.101644084 0.006943184
00000000: c62a d03d a683 e33b
