trained_models/model7E.pt (torch_old, 373425 bytes, 6 tensors)

weight f4 [64, 1372]
0.07328154 -0.03245027 0.04469502 0.018994177 0.043199666 0.03952215 0.04609477 0.052170176
-0.0059063477 0.09219945 0.029294303 0.0013436081 0.021948464 0.010156387 0.02589973 0.030540636
0.03284469 0.056323953 -0.047599893 0.028472485 0.05348709 0.027984723 -0.0033934675 0.06804028
-0.009511179 -0.09888148 0.06773895 -0.018380966 -0.0018618887 0.021176256 0.05979659 -0.047559563
-0.036811803 0.06579718 -0.019953523 0.004921439 -0.008331512 0.052820705 0.037751593 0.032199536
0.011924028 0.03782587 0.022116106 0.06647265 0.033158068 -0.037235536 0.03244808 -0.030289004
0.06808431 0.0794589 -0.01995279 -0.15802185 0.026063763 0.040883735 0.05875755 0.018814573
-0.035032157 -0.012620151 0.019621821 0.029786881 0.07706784 0.079918966 -0.031666327 -0.045775224
0.0085208425 0.038814005 -0.11376531 0.036422357 0.021954201 -0.098013 -0.010362827 -0.007568376
-0.009346705 -0.108921416 0.045700055 0.053932764 0.027527431 -0.035260726 0.051004156 0.058323823
0.017225998 0.07270434 0.08708895 -0.07998101 -0.016523298 -0.002553929 0.022669436 -0.08547
0.07948285 0.11047124 0.07808491 -0.057358183 -0.004157139 -0.08722384 0.038550697 -0.025292847
0.044138905 -0.041707586 0.011384554 0.007810569 0.04903368 0.03970197 -0.0020572196 0.073919095
0.08134196 0.026518688 -0.0223914 0.036970414 -0.064398624 0.014793055 0.031839747 -0.021340394
-0.037113175 0.064882554 0.060320333 -0.05343555 -0.047781505 0.040694788 -0.020284882 0.06381534
0.00031667526 0.00094251253 0.051167134 -0.019201215 0.095488176 -0.05907154 -0.07283042 0.035668284
-0.05894373 0.06615826 0.051345505 0.059281368 0.0051273527 -0.0023403135 -0.040721536 0.024579518
-0.007210435 -0.0018232099 -0.061842963 -0.06145686 0.033964895 -0.02742646 0.03778376 -0.01339721
-0.03893449 0.0619296 0.08347358 0.07650858 0.0033856581 -0.023602346 0.07976561 0.0059067444
-0.060718626 0.03343078 0.044258144 -0.02621623 0.058812965 0.025202654 -0.0540744 0.033867184
0.019957708 0.07722534 0.024938643 0.050307736 -0.009768058 0.053230427 0.09868619 0.08290842
0.032066464 -0.024179688 -0.008452793 -0.063490406 0.0023387398 0.0056953826 -0.06784482 -0.0031623417
0.047711205 0.05383732 -0.010766248 -0.07463991 0.038755048 0.038086016 0.039453503 -0.03323098
-0.015244106 -0.11954153 0.033654284 0.0037989528 -0.020044645 -0.067545645 -0.0722114 0.03332247
0.079044595 -0.0707881 -0.15542623 0.05967558 -0.14667138 -0.014435783 0.034787454 -0.011982116
-0.008897485 0.01667746 -0.032439075 0.028593922 -0.022419905 -0.05224126 -0.034627944 0.04937535
-0.04894602 0.047621783 -0.031573933 0.054570016 0.07112997 -0.029689021 0.034423523 -0.067384146
0.07234663 -0.06222795 0.06922879 -0.014491112 -0.04257183 0.02692237 -0.04945607 0.009555975
-0.09021756 0.07540695 -0.13633046 0.07537612 0.00043000098 0.01914273 0.01911311 -0.0915797
-0.029750066 0.06491821 -0.01612079 0.06280744 0.012262441 -0.13112044 -0.042930316 0.038134336
0.051174935 0.022775479 0.018914083 0.026249452 0.021887159 -0.032421414 -0.040110324 0.059626
0.008937681 0.022205587 -0.042326566 0.0057661454 -0.026352342 -0.05209336 0.016593954 0.0055158306
00000000: a214 963d 93ea 04bd 2012 373d ad99 9b3c
00000010: 22f2 303d fae1 213d dfcd 3c3d 65b0 553d
00000020: 098a c1bb 11d3 bc3d 9bfa ef3c 021c b03a
00000030: 44cd b33c fa66 263c ac2b d43c 5b30 fa3c
00000040: 2788 063d f2b3 663d 1bf8 42bd 213f e93c
00000050: 4715 5b3d 3840 e53c f064 5ebb b458 8b3d
00000060: c7d4 1bbc 6082 cabd b8ba 8a3d ae93 96bc
00000070: 9e0a f4ba d479 ad3c 45ed 743d d1cd 42bd
00000080: f9c7 16bd acc0 863d 9275 a3bc 0644 a13b
00000090: e580 08bc 865a 583d 6aa1 1a3d a9e3 033d
000000a0: 005d 433c 4def 1a3d d62c b53c d022 883d
000000b0: c1d0 073d 4a84 18bd 47e8 043d a520 f8bc
000000c0: c96f 8b3d 59bb a23d 0974 a3bc 7bd0 21be
000000d0: ac83 d53c b475 273d c2ab 703d 0521 9a3c
000000e0: e17d 0fbd c0c4 4ebc f1bd a03c 9e03 f43c
000000f0: bed5 9d3d 8eac a33d 8db4 01bd cd7e 3bbd
00000100: 019b 0b3c 6ffb 1e3d c9fd e8bd 9c2f 153d
00000110: 4cd9 b33c 0abb c8bd d9c8 29bc 2400 f8bb
00000120: ec22 19bc 3112 dfbd fb2f 3b3d 9ae8 5c3d
00000130: 3581 e13c 8d6d 10bd bce9 503d f6e4 6e3d
00000140: 891d 8d3c 03e6 943d b15b b23d 15cd a3bd
00000150: de5b 87bc d25f 27bb 41b5 b93c e50a afbd
00000160: e8c7 a23d bf3e e23d fbea 9f3d 6af0 6abd
00000170: 9c38 88bb 6aa2 b2bd 56e7 1d3d f232 cfbc
00000180: ffca 343d 93d5 2abd 4886 3a3c cdef ff3b
00000190: 8ad7 483d 889e 223d 6bd2 06bb e562 973d
000001a0: 9d96 a63d b83d d93c 2b6e b7bc 4a6e 173d
000001b0: 6de3 83bd 925e 723c 656a 023d 0dd2 aebc
000001c0: fc03 18bd 25e1 843d 7412 773d 3cdf 5abd
000001d0: 8ab6 43bd 94af 263d 7b2c a6bc 9eb1 823d
000001e0: 6f07 a639 f212 773a a194 513d de4b 9dbc
000001f0: 4e8f c33d 00f5 71bd 1e28 95bd e818 123d
00000200: fb6e 71bd fb7d 873d aa4f 523d 05d1 723d
00000210: 5a03 a83b f25f 19bb a0cb 26bd fc5a c93c
00000220: 8345 ecbb c6f8 eeba 0c4f 7dbd 30ba 7bbd
00000230: c61e 0b3d 75ad e0bc 25c3 1a3d f97f 5bbc
00000240: c679 1fbd e4a9 7d3d 32f4 aa3d 88b0 9c3d
00000250: ebe1 5d3b b559 c1bc 275c a33d 5d8d c13b
00000260: 18b4 78bd b7ee 083d 0748 353d 6bc3 d6bc
00000270: dde5 703d cc75 ce3c 1e7d 5dbd 51b8 0a3d
00000280: 597e a33c 5228 9e3d 204c cc3c 7c0f 4e3d
00000290: 340a 20bc 2608 5a3d fc1b ca3d e4cb a93d
000002a0: 2058 033d 7b14 c6bc 957d 0abc 4207 82bd
000002b0: 8b45 193b 55a0 ba3b 3af2 8abd 4a3f 4fbb
000002c0: d36c 433d 8684 5c3d eb64 30bc cfdc 98bd
000002d0: 9dbd 1e3d 1500 1c3d ff99 213d 351d 08bd
000002e0: 6ac2 79bc 31d2 f4bd 13d9 093d daf7 783b
000002f0: ab34 a4bc 5f55 8abd 92e3 93bd 247d 083d
00000300: 22e2 a13d 5af9 90bd 0e28 1fbe 626e 743d
00000310: 0631 16be 1084 6cbc 4a7d 0e3d a350 44bc
00000320: c2c6 11bc 2b9f 883c d6de 04bd cd3d ea3c
00000330: f3a9 b7bc eefa 55bd 08d6 0dbd cf3d 4a3d
00000340: 9f7b 48bd 0f0f 433d ab53 01bd cf84 5f3d
00000350: 97ac 913d 6436 f3bc aeff 0c3d b300 8abd
00000360: 782a 943d bce2 7ebd d3c7 8d3d 216c 6dbc
00000370: cd5f 2ebd 4d8c dc3c 7392 4abd aa90 1c3c
00000380: fcc3 b8bd f66e 9a3d 369a 0bbe cc5e 9a3d
00000390: c171 e139 37d1 9c3c 1993 9c3c 238e bbbd
000003a0: 69b6 f3bc d7f3 843d bf0f 84bc 30a1 803d
000003b0: 68e8 483c 7044 06be b3d7 2fbd c032 1c3d
000003c0: cf9c 513d a493 ba3c b5f1 9a3c 1709 d73c
000003d0: b34c b33c 51cc 04bd b94a 24bd 643a 743d
000003e0: 5a6f 123c 7ee8 b53c 9f5e 2dbd eff1 bc3b
000003f0: dee0 d7bc d95f 55bd 0bf0 873c 24be b43b

bias f4 [64]
0.06348765 0.010433623 -0.033840325 0.04955427 0.025278699 -0.026797572 -0.003928666 0.07930149
0.052241933 -0.0242157 -0.025965065 0.076848015 0.10098655 0.056780763 -0.008622623 0.06494595
-0.012360886 -0.017108982 0.06590615 0.05617084 0.056486156 0.07209777 -0.04400559 0.04469109
-0.024285302 0.06559863 -0.079660624 0.060424566 -0.005232724 0.077012636 0.091307275 0.06775581
0.09727455 0.029700227 -0.00910839 -0.0528213 -0.035617106 -0.014548792 0.02597605 0.0646244
-0.009522632 0.10806717 0.057015315 0.086985625 0.09211796 -0.023619095 0.066151656 0.07122541
0.078833945 0.054504767 0.051218327 0.077125415 -0.019216837 0.11324714 0.09149424 0.030360214
0.05270709 0.03805769 -0.046030387 0.04105991 0.06551875 0.04934393 0.036606163 0.094518304
00000000: d005 823d c9f1 2a3c 279c 0abd 6bf9 4a3d
00000010: 4615 cf3c 9586 dbbc 0abc 80bb d268 a23d
00000020: a3fb 553d 0160 c6bc b0b4 d4bc 7e62 9d3d
00000030: 09d2 ce3d f292 683d e745 0dbc 6202 853d
00000040: 5085 4abc 2328 8cbc cef9 863d 6513 663d
00000050: 075e 673d ffa7 933d 353f 34bd 010e 373d
00000060: f8f1 c6bc 9358 863d 1c25 a3bd c07f 773d
00000070: 4577 abbb cdb8 9d3d 4fff ba3d 8fc3 8a3d
00000080: e137 c73d e44d f33c 5b3b 15bc 265b 58bd
00000090: 3ee3 11bd 0e5e 6ebc bacb d43c cc59 843d
000000a0: d004 1cbc 5252 dd3d e488 693d 8525 b23d
000000b0: 57a8 bc3d d57c c1bc 857a 873d a1de 913d
000000c0: b173 a13d 6440 5f3d 4fca 513d eef3 9d3d
000000d0: a16c 9dbc 1eee e73d 5561 bb3d fcb5 f83c
000000e0: 64e3 573d 61e2 1b3d 5c8a 3cbd 702e 283d
000000f0: b22e 863d dc1c 4a3d 58f0 153d d092 c13d

weight f4 [64, 64]
0.10829117 -0.076457955 0.09632518 0.11788124 -0.003431103 0.134816 -0.061281294 0.055472847
-0.12996982 0.09404672 0.036112644 0.020930687 -0.093597874 0.06743305 0.0004289051 -0.09059732
0.22024752 -0.054723453 -0.11365053 -0.029009262 0.18215285 0.19094367 -0.102534294 0.04708219
-0.19168486 0.24927281 0.054774895 0.06432981 -0.07398366 0.16495283 0.16203763 -0.06253243
0.20454244 0.11385166 0.14622921 -0.22360854 -0.19495411 -0.14942868 -0.10152176 0.21815398
-0.12496606 -0.09760354 -0.05337224 -0.06764935 0.06167776 0.16910756 0.22616585 -0.0014976317
-0.0770432 0.012553811 0.22546865 0.16901796 0.24077335 -0.06813077 0.24533522 0.1464998
0.023285326 -0.085827954 -0.22686438 -0.0071176505 0.13463196 0.23298134 -0.096711546 -0.091029495
-0.07450235 0.04643744 0.18810679 -0.16783546 0.001881858 -0.069961704 0.11887414 0.16250603
0.095940545 0.10627112 -0.021516139 -0.0487875 0.2392156 0.096567266 0.13213329 0.08825351
0.03310065 0.123117924 0.07725765 -0.06507862 0.11541322 0.017305167 -0.046097606 0.008860757
0.0044040536 0.20425875 0.08635485 -0.14141607 -0.17249389 0.06722178 0.1658419 0.17453127
-0.10275663 -0.1350285 -0.09493083 -0.09703272 0.1833088 0.16311315 -0.124932475 0.22381361
0.003898923 -0.15300244 -0.06624069 -0.07451489 -0.1112002 -0.06578901 -0.057833582 -0.093197264
0.14877607 -0.08710237 -0.018276984 0.11789779 -0.14620744 0.11083143 -0.12775733 0.11260298
0.20501357 0.15149459 -0.09572791 0.2401258 -0.09638442 -0.009884143 -0.037493464 0.21638936
0.17504151 0.2204818 0.18574637 -0.07952462 -0.1813665 0.024841797 0.124513716 -0.0465089
0.010208753 -0.002368138 0.10768447 0.05029544 0.08151186 0.056540143 -0.039575245 -0.016617304
0.035002165 0.20287904 0.0910542 -0.14264134 0.043511216 -0.16508386 -0.12296669 0.23612256
-0.108852275 -0.050553717 -0.019964872 0.012352214 0.11300913 -0.106606975 -0.11817691 0.02291208
0.025078911 0.13318552 0.117435895 -0.22442207 -0.23438522 0.1970223 -0.14326185 0.18649574
0.11065902 0.20564935 0.17303799 0.014707631 0.12753312 -0.13025185 0.08204046 0.24157551
-0.03005577 0.0048227557 -0.10230547 -0.13977526 0.10826326 0.16477187 0.15799457 0.07952319
-0.02208893 -0.017548827 -0.06885517 0.05908527 0.2429722 0.041654933 0.19590436 0.10941286
0.013887274 -0.11074634 -0.1684385 -0.080051504 -0.11834289 0.19132066 0.051701017 0.25451452
0.17260039 0.16264467 -0.014383962 0.16200837 0.040568557 0.0021890474 0.17763074 -0.10428822
-0.08819378 -0.14307918 -0.14980492 -0.04356267 0.070114635 0.101812206 -0.2044408 0.053048134
-0.030035833 0.21503188 -0.065903254 0.028395226 -0.08436155 -0.14766395 0.18178108 0.21313448
-0.033807166 0.040753193 0.19987316 0.061522394 0.15091385 -0.09719025 0.018860474 -0.10976066
0.2179181 -0.14017494 0.16380377 0.14456046 0.16039474 -0.14938815 0.15843491 0.14913811
0.06187961 -0.1378775 0.10061588 0.24966002 0.014558781 0.14051697 0.030616602 0.22689694
0.08200833 0.004664553 -0.14993723 0.1736268 0.11335331 0.053249538 0.17953926 0.23453169
00000000: c3c7 dd3d fd95 9cbd 2346 c53d b86b f13d
00000010: 5bdc 60bb 350d 0a3e 1802 7bbd 7f37 633d
00000020: cf16 05be 919b c03d daea 133d d576 ab3c
00000030: 3eb0 bfbd 571a 8a3d abde e039 168b b9bd
00000040: 9188 613e b325 60bd 9cc1 e8bd d5a4 edbc
00000050: 4786 3a3e bd86 433e 80fd d1bd 41d9 403d
00000060: 0949 44be 5f41 7f3e a45b 603d 59bf 833d
00000070: bf84 97bd 65e9 283e 31ed 253e 0111 80bd
00000080: 9373 513e 0f2b e93d 1cbd 153e a3f9 64be
00000090: 0da2 47be d503 19be a4ea cfbd c263 5f3e
000000a0: 35ee ffbd 5de4 c7bd da9c 5abd be8b 8abd
000000b0: d2a1 7c3d 882a 2d3e 0598 673e 2e4c c4ba
000000c0: d3c8 9dbd 80ae 4d3c 41e1 663e 0b13 2d3e
000000d0: 4a8d 763e 2588 8bbd 2839 7b3e 0b04 163e
000000e0: dec0 be3c 91c6 afbd 234f 68be 2e3b e9bb
000000f0: f6dc 093e a992 6e3e b410 c6bd ac6d babd
00000100: b094 98bd 2f35 3e3d 119f 403e 0fdd 2bbe
00000110: ada8 f63a 1548 8fbd 4974 f33d fb67 263e
00000120: 7a7c c43d aca4 d93d 9d42 b0bc 67d5 47bd
00000130: eff4 743e 0fc5 c53d f34d 073e 42be b43d
00000140: 8c94 073d 4025 fc3d 4239 9e3d f147 85bd
00000150: c45d ec3d 91c3 8d3c d8d0 3cbd b52c 113c
00000160: e14f 903b 3529 513e d0da b03d 60cf 10be
00000170: 3da2 30be 93ab 893d 76d2 293e 53b8 323e
00000180: 1172 d2bd e944 0abe 186b c2bd 17b9 c6bd
00000190: 4db5 3b3e 2207 273e 99dc ffbd 652f 653e
000001a0: 1385 7f3b acac 1cbe 33a9 87bd 439b 98bd
000001b0: eebc e3bd 63bc 86bd e8e2 6cbd 35de bebd
000001c0: c158 183e ba62 b2bd 9db9 95bc 6674 f13d
000001d0: 67b7 15be 97fb e23d d1d2 02be 649c e63d
000001e0: 14ef 513e 6621 1b3e ff0c c4bd 8ae3 753e
000001f0: 3265 c5bd 1af1 21bc bf92 19bd 2c95 5d3e
00000200: 153e 333e fbc5 613e 4c34 3e3e cedd a2bd
00000210: 24b8 39be 0681 cb3c 0c01 ff3d 1e80 3ebd
00000220: 9d42 273c c332 1bbb ad89 dc3d 9702 4e3d
00000230: b1ef a63d a396 673d a719 22bd 0321 88bc
00000240: 6e5e 0f3d 86bf 4f3e a07a ba3d 9210 12be
00000250: d138 323d be0b 29be f6d5 fbbd 1dca 713e
00000260: f1ed debd 6a11 4fbd 5f8d a3bc f160 4a3c
00000270: 5571 e73d c254 dabd bc06 f2bd 1db2 bb3c
00000280: 4a72 cd3c c961 083e 3b82 f03d e6ce 65be
00000290: ae02 70be 37c0 493e 3cb3 12be bdf8 3e3e
000002a0: 32a1 e23d be95 523e df30 313e 47f8 703c
000002b0: 0b98 023e be60 05be d404 a83d 925f 773e
000002c0: 8537 f6bc 3508 9e3b 8885 d1bd 3f21 0fbe
000002d0: 21b9 dd3d f5b9 283e 54c9 213e 0edd a23d
000002e0: d8f3 b4bc 8fc2 8fbc f003 8dbd 6503 723d
000002f0: b4cd 783e 5d9e 2a3d 279b 483e d913 e03d
00000300: 7387 633c face e2bd 247b 2cbe 0bf2 a3bd
00000310: c25d f2bd 90e9 433e 72c4 533d ba4f 823e
00000320: 28be 303e 538c 263e b6aa 6bbc 86e5 253e
00000330: 372b 263d 1f76 0f3b d5e4 353e 1095 d5bd
00000340: f19e b4bd 5983 12be 7666 19be c56e 32bd
00000350: 4398 8f3d eb82 d03d ee58 51be 0049 593d
00000360: b50d f6bc 5131 5c3e 49f8 86bd 1b9d e83c
00000370: c0c5 acbd 3835 17be d224 3a3e ed3f 5a3e
00000380: 6279 0abd d2ec 263d 8dab 4c3e e8fe 7b3d
00000390: 2989 1a3e af0b c7bd 4881 9a3c 32ca e0bd
000003a0: ec25 5f3e 058a 0fbe 2dbc 273e a807 143e
000003b0: 853e 243e 35f9 18be c33c 223e a9b7 183e
000003c0: 7975 7d3d c22f 0dbe b30f ce3d e0a6 7f3e
000003d0: f487 6e3c aee3 0f3e abcf fa3c ac57 683e
000003e0: fcf3 a73d 1bd9 983b 2589 19be 39cb 313e
000003f0: c825 e83d 301c 5a3d 24d9 373e 1329 703e

bias f4 [64]
0.02784082 0.12608503 0.025114624 0.0046640937 -0.14320469 0.058179457 -0.13729033 0.035865515
0.06616008 0.060402 0.060813215 0.11308022 0.017090455 0.15712039 0.11525668 -0.04115244
0.05488196 0.085562944 0.15369628 0.061853986 0.0736515 0.098662876 0.07518988 0.062335644
0.16832967 -0.03431669 -0.14751743 0.09674809 -0.0003237802 0.010473045 0.06965861 -0.03456371
0.07142468 -0.08878123 0.11400702 -0.07192012 0.05643139 -0.094083175 -0.006684165 -0.06406787
-0.10686666 0.09954062 0.08250731 0.09553875 0.14601448 0.058100622 0.055123594 -0.0589519
0.037454344 0.055737715 -0.035527937 0.043353267 -0.10385586 0.12238063 -0.09664316 0.01971209
-0.05872062 0.066307485 0.08704482 -0.042591803 -0.11442103 0.033093568 0.0847659 -0.10936174
00000000: 6e12 e43c 6f1c 013e 2fbd cd3c 41d5 983b
00000010: 40a4 12be 954d 6e3d d695 0cbe b8e7 123d
00000020: f07e 873d 1668 773d 4717 793d 9a96 e73d
00000030: 4801 8c3c 2be4 203e b20b ec3d 768f 28bd
00000040: e8cb 603d a03b af3d 8f62 1d3e 9b5a 7d3d
00000050: 99d6 963d c30f ca3d 27fd 993d a953 7f3d
00000060: 9d5e 2c3e a88f 0cbd cf0e 17be dd23 c63d
00000070: 0bc1 a9b9 2297 2b3c 2ca9 8e3d ad92 0dbd
00000080: 1a47 923d efd2 b5bd 837c e93d db4a 93bd
00000090: 9a24 673d aeae c0bd d706 dbbb 0436 83bd
000000a0: e8dc dabd f4db cb3d 98f9 a83d d2a9 c33d
000000b0: d284 153e ebfa 6d3d 47c9 613d 8c77 71bd
000000c0: ba69 193d 3b4d 643d be85 11bd 3293 313d
000000d0: 62b2 d4bd b2a2 fa3d d9ec c5bd 407b a13c
000000e0: 0885 70bd 38cc 873d 8e44 b23d be74 2ebd
000000f0: 9355 eabd 1f8d 073d bf99 ad3d 0cf9 dfbd

weight f4 [2, 64]
0.03356768 0.002711848 0.15714595 0.05107971 0.26123363 -0.1155067 -0.24159546 0.35120502
0.4480527 0.30652928 -0.13636386 0.30125237 0.01624729 0.25255623 0.24271853 -0.25000843
0.14172739 -0.059159357 0.29300597 0.10032229 -0.002263583 0.08534633 0.24058355 0.38349697
0.016416522 -0.25127116 -0.1857958 -0.2290516 -0.028775137 0.19533077 -0.01931438 0.16501623
0.35701057 0.17436899 0.068754286 -0.26005366 0.13256554 -0.30812502 0.3369673 -0.041203436
-0.24661435 -0.21306744 -0.2672304 0.07062295 -0.037146334 0.31782165 0.30996764 0.0021416123
-0.16752788 0.20477693 0.24446931 0.37250757 -0.09852164 0.25864846 -0.321582 -0.081966355
-0.16039504 -0.2645637 0.17989513 -0.24663004 -0.36464295 -0.0060126027 0.22703138 -0.16068237
-0.2698811 -0.21251671 -0.1286937 -0.24120554 0.041594945 0.061088838 0.02021385 0.030661792
-0.20349711 -0.26574653 -0.3041698 -0.2348752 0.27850187 0.1317327 -0.17115511 0.14140359
-0.14642623 0.22997844 0.06012528 -0.46641755 -0.41197032 0.11964821 -0.28888384 -0.32322267
-0.05739287 -0.12156259 0.06465697 0.036156695 0.21407984 -0.31285068 0.033114627 0.25700477
-0.045322053 -0.31415817 -0.016287573 0.097318985 -0.019109527 -0.19463527 0.09045919 -0.035367705
0.21933366 -0.018619686 -0.07131714 -0.21087165 -0.22966985 -0.08350166 0.006581673 0.23625149
-0.072503746 0.16109084 -0.36008313 -0.04673825 0.33186898 -0.29421148 0.35767582 -0.065578796
0.013856969 -0.07493138 -0.18082632 0.012635354 0.015052609 -0.26982212 -0.08424065 0.21767798
00000000: 437e 093d 42b9 313b deea 203e f538 513d
00000010: 6ac0 853e c78e ecbd cd64 77be 25d1 b33e
00000020: 2a67 e53e 68f1 9c3e f8a2 0bbe c03d 9a3e
00000030: 0919 853c 0d4f 813e 358b 783e 1b01 80be
00000040: fc20 113e 1551 72bd e104 963e c675 cd3d
00000050: 9f58 14bb 0fca ae3d 895b 763e b759 c43e
00000060: f17b 863c 9da6 80be 4141 3ebe 818c 6abe
00000070: d6b9 ebbc ca04 483e 3139 9ebc 04fa 283e
00000080: 17ca b63e c98d 323e 0ccf 8c3d c125 85be
00000090: 43bf 073e 90c2 9dbe fa86 ac3e efc4 28bd
000000a0: 7988 7cbe 5a2e 5abe 6cd2 88be c4a2 903d
000000b0: c126 18bd 85b9 a23e 14b4 9e3e 4b5a 0c3b
000000c0: 6e8c 2bbe 0bb1 513e 2a56 7a3e 50b9 be3e
000000d0: b7c5 c9bd 926d 843e 65a6 a4be fadd a7bd
000000e0: 993e 24be e574 87be 6e36 383e 968c 7cbe
000000f0: 7bb2 babe 5e05 c5bb ea7a 683e eb89 24be
00000100: db2d 8abe fb9d 59be 48c8 03be 96fe 76be
00000110: 765f 2a3d 4a38 7a3d 8497 a53c 702e fb3c
00000120: 8c61 50be ee0f 88be 25bc 9bbe 2083 70be
00000130: cc97 8e3e f0e4 063e 4943 2fbe 1acc 103e
00000140: c2f0 15be 787f 6b3e ed45 763d 48ce eebe
00000150: c6ed d2be 1f0a f53d 95e8 93be 717d a5be
00000160: c914 6bbd cff5 f8bd e06a 843d 0b19 143d
00000170: bf37 5b3e f72d a0be 34a3 073d 2196 833e
00000180: 9ea3 39bd 57d9 a0be 846d 85bc 2d4f c73d
00000190: 958b 9cbc 784e 47be ab42 b93d badd 10bd
000001a0: 0199 603e 5088 98bc b80e 92bd bdee 57be
000001b0: 932e 6bbe eb02 abbd 13ab d73b e9eb 713e
000001c0: d87c 94bd fff4 243e d15c b8be 9b70 3fbd
000001d0: bbea a93e e3a2 96be 4921 b73e 2d4e 86bd
000001e0: 5708 633c a075 99bd 892a 39be 8404 4f3c
000001f0: 389f 763c 2026 8abe 5d86 acbd fae6 5e3e

bias f4 [2]
0.01363284 -0.10302543
00000000: 465c 5f3c fffe d2bd
