trained_models/model6.pt (torch_old, 5053 bytes, 6 tensors)

weight f4 [5, 5]
00000000: 006a febc 3c24 1cbf b0e0 1dbf 00ef fbbc
00000010: 28e1 3a3e fc48 023f 9b30 b2be 4810 04bf
00000020: 0c88 00bf 7acd 433f c01f f33d dc0c 46be
00000030: 1aa7 a3bc 2cc0 033f 0251 aa3b 70f0 163f
00000040: 0c07 0fbe c3eb 3fbf 0ca8 c43e d0f8 243f
00000050: 820c 3c3f 4126 1c3f bc6a 383f 1a61 60be
00000060: 1c2e 16be
-0.031056404 -0.6099279 -0.6167097 -0.030753613 0.18249953 0.50892615 -0.34802708 -0.51587343
-0.5020759 0.7648541 0.1187129 -0.19340843 -0.019977141 0.51465106 0.005197645 0.5896063
-0.13967532 -0.7496912 0.3840946 0.6444216 0.73456585 0.6099587 0.72037864 -0.21912041
-0.14666027

bias f4 [5]
00000000: 2914 61be ff24 d8be 910b 343d d78c 94bc
00000010: 24c8 c63e
-0.21980347 -0.42215726 0.043956343 -0.018133564 0.3882457

weight f4 [5, 5]
00000000: 2450 ca3e 1557 a53e 7733 fb3e 4c71 d2be
00000010: e7c9 443f 2984 8fbe 1d0a 81be c8c2 443f
00000020: e00e eebd 2d76 8e3e 7ce8 803e 3d65 0e3e
00000030: c015 36bf c4e3 353f 09c9 2ebf b6fc 0fbf
00000040: 664d d5be cc13 bf3e da15 643e c21b e1be
00000050: 801c 41be 5d53 da3e a4f8 ea3e a7ed b8be
00000060: 585b 443f
0.39514267 0.32293 0.49062702 -0.41102064 0.7687058 -0.28030518 -0.25203028 0.7685971
-0.11623931 0.27824536 0.25177372 0.13905807 -0.7112694 0.7105067 -0.68275505 -0.5624498
-0.41660613 0.3731979 0.2227396 -0.4396649 -0.18858528 0.42641726 0.45892823 -0.36118814
0.7670188

bias f4 [5]
00000000: f2e9 60be 725a d93e b809 36be 1436 da3e
00000010: 4c55 3fbd
-0.21964243 0.42451817 -0.17777145 0.42619383 -0.046712205

weight f4 [2, 5]
00000000: 1f0a 2c3f 02d6 623f b517 c13e 1f32 023f
00000010: e0b7 2c3f 02b1 0c3e c24f 2cbf abe4 3c3e
00000020: eea9 943e be31 e93e
0.67202944 0.886078 0.377134 0.5085773 0.6746807 0.13739398 -0.673092 0.18446605
0.29035896 0.45545763

bias f4 [2]
00000000: bfa6 49be ae15 e4be
-0.19692515 -0.4454779
