trained_models/model7.pt (torch_old, 32406 bytes, 6 tensors)

weight f4 [5, 1372]
000000 1b ea 32 3d a9 67 b6 3b 42 94 84 3d eb 6c c0 3d
       0.04368029 0.0055665565 0.064735904 0.093957745
000010 29 97 44 3d 55 d6 37 be 11 64 1b 3e 4b 16 0c 3d
       0.04799572 -0.17952855 0.15174891 0.034200948
000020 50 76 44 bd bf aa 8b 3c 7c 7d e7 3d 09 0a ee bb
       -0.047964394 0.017049192 0.11303231 -0.00726438
000030 46 ae de bc 43 37 e5 be cd 47 61 3d 99 48 ac 3d
       -0.02718271 -0.44768724 0.055000115 0.084122844
000040 c8 0c db 3d 67 c6 a1 3c 88 4b f4 3c 2c c0 ef 3c
       0.10695797 0.019747926 0.029821172 0.02926644
000050 5c 58 1e 3c eb 3d 93 3c 58 b0 36 3d 08 ac b9 bb
       0.009664621 0.01797386 0.04460177 -0.0056662597
000060 75 88 1f bd 40 ea 84 bd 8c 9e 02 be 09 e4 d1 3d
       -0.038948495 -0.06489992 -0.12755793 0.102485724
000070 40 5f 88 bc bc 12 4b 3d f3 ac 95 bd 57 24 b5 3c
       -0.016646981 0.049578413 -0.07308378 0.022112055
000080 e9 a5 9b 3d 76 34 b9 3b 91 92 6b bd f5 eb d3 bd
       0.07600004 0.005652006 -0.057512823 -0.103477396
000090 55 95 7a bd 17 ad 09 be c5 b0 da 3d 86 67 55 3d
       -0.06117757 -0.13444935 0.10678247 0.05210068
0000a0 24 39 41 bd 9c 07 cc bc b6 14 3a bd 7a 6b 86 3d
       -0.047173634 -0.024905972 -0.045429908 0.06563468
0000b0 21 89 ed bc 9a ba 6c bd 25 8d 9f 3c 3f 9b 69 3d
       -0.028996052 -0.057795145 0.019476483 0.05703282
0000c0 3e b6 73 3d 14 53 92 3d 53 4d b1 bc 2a 6b e2 bc
       0.05949997 0.07144752 -0.021643316 -0.02763899
0000d0 46 d1 e4 3c 52 55 43 be b9 57 bd bd d4 a1 93 3c
       0.02793182 -0.19075516 -0.092452474 0.018021502
0000e0 02 50 f0 3c 6c c7 7a 3c 9b 05 01 3e e9 a3 06 3e
       0.029335026 0.015306335 0.12599795 0.13148464
0000f0 f1 1f 60 bd 84 e7 81 bd 37 21 a8 3d b3 4e 8e bc
       -0.05471796 -0.06342986 0.0820946 -0.017371511
000100 88 bb e7 3d 60 2a a6 bc 6e 2b 8b bd 17 e0 fd bd
       0.113150656 -0.020283878 -0.06795393 -0.12396257
000110 6a 3c a7 bc 2c af 13 be 98 8e 24 3c 85 3a fa bb
       -0.02041455 -0.14422292 0.010043763 -0.0076363706
000120 60 5c 03 3d 5d c9 5b be e0 87 93 3d 4a 89 d0 3c
       0.032070518 -0.21463533 0.072036505 0.02545609
000130 8d 3c 3a bc b4 00 24 3d ab a0 02 3e 67 16 d5 3d
       -0.0113669755 0.040039733 0.12756602 0.104046635
000140 11 dc 34 bb 2c 78 ed 3d d7 1f 2a bd 90 0e c4 bd
       -0.002759699 0.115951866 -0.04153427 -0.0957309
000150 14 10 17 bc 67 ea 1f 3e 61 55 4f 3d 13 41 a9 bd
       -0.009220142 0.15616761 0.050618533 -0.08264365
000160 dc ae 88 3d 30 e3 3d bc b6 80 c5 3d 47 af 98 bd
       0.06673977 -0.01158981 0.0964369 -0.074553065
000170 44 00 81 3c 1d 6b 6c 3e 14 23 d1 bc e0 a0 9e 3d
       0.015747197 0.23087735 -0.025529422 0.07745528
000180 e8 5c b9 3d 7e 21 28 bd 9f a2 d7 3d 02 a3 db 3d
       0.090509236 -0.041047566 0.105290644 0.10724451
000190 2c 35 92 3c ab 8a d7 b9 61 70 43 3e 18 ab 27 bd
       0.01784762 -0.0004111131 0.19085838 -0.040934652
0001a0 78 fd aa 3c 2a 63 9d 3a 3b 27 4b 3d 91 b6 70 3a
       0.020872816 0.0012007703 0.04959796 0.0009182478
0001b0 e7 86 85 bd 8c 89 86 3d 7e 4e 92 3c 7e b6 87 3e
       -0.06519871 0.06569204 0.017859694 0.26506418
0001c0 04 3e a4 3c 41 11 19 3e 1d 25 fa bb d5 99 96 bc
       0.020049103 0.14947988 -0.007633819 -0.0183839
0001d0 0a 39 ae bc 28 f5 a3 be 54 a6 30 bd fc 42 a1 bd
       -0.021267433 -0.32022977 -0.043127373 -0.078741044
0001e0 95 7e 05 be 74 8a b2 3b 1a e9 a8 3d 91 c2 f9 3c
       -0.13036568 0.005448634 0.082475856 0.030488284
0001f0 97 f8 5d 3d 9b be aa be c4 27 ea 3d 82 cf d9 bc
       0.054192152 -0.33348545 0.11433366 -0.026588205
000200 2f 66 db 3d 64 7d 9c 3c df 91 94 3d 06 6a 83 be
       0.10712849 0.01910276 0.07254385 -0.25666827
000210 ca 5c 29 3e 29 7c 0f be a4 7d ff 3c 74 c6 95 3c
       0.16539302 -0.14012207 0.03118784 0.018283106
000220 75 34 37 3c eb 0d 5c 3d 3d dd bf bc 2f fd 3e 3c
       0.01118194 0.05372421 -0.023420924 0.011657043
000230 c2 4b 11 3d da 06 9d be 60 fb 94 3d de ae 94 3d
       0.03547264 -0.3066929 0.072745085 0.07259916
000240 17 b0 16 3d 23 59 96 3e 1f d5 5a 3e e4 c9 8d 3d
       0.036789026 0.2936488 0.21370362 0.06923273
000250 03 91 a3 bd dc e4 68 3d e5 7c 99 3d f8 18 8c 3d
       -0.07986643 0.056858882 0.07494525 0.068407
000260 6d 52 1d 3a 6b 24 4c 3d 4d 19 04 bd b8 79 c9 3c
       0.0006001357 0.04983942 -0.03225069 0.024594173
000270 8e 54 a2 3d ff 41 0e be bc 9f 83 3c 92 52 bb 3b
       0.07926284 -0.13892363 0.016067378 0.0057166303
000280 42 77 8c 3d fa ff d7 be 34 1e 0d 3c f1 81 02 bb
       0.06858684 -0.42187482 0.008613158 -0.0019913877
000290 67 db 05 3c fc 05 fe bc 73 aa cd 3e 93 6c 10 bd
       0.008169985 -0.031008713 0.40169105 -0.035259794
0002a0 b1 a2 a4 3d 3c 6e 42 bc 0d 6b cd 3b 7c d3 3d 3b
       0.080388434 -0.011867102 0.006268865 0.0028965166
0002b0 3a 75 84 3d fd a3 43 3d 8c fc 4f bd f1 1f c9 bd
       0.06467672 0.047763813 -0.050777957 -0.098205455
0002c0 bd 6c e3 3d d9 a2 27 3b 83 4e 10 3e 6c 59 82 be
       0.111047246 0.0025579243 0.1409245 -0.25458848
0002d0 bf 34 9e be 41 10 5d bc 34 ca 3f bd ab 66 fd 3c
       -0.30899617 -0.013492645 -0.046823695 0.030932745
0002e0 ef 5b 0b 3d 2e 16 2d bd 14 32 aa bd 9e 29 5e 39
       0.03402322 -0.04225748 -0.08310333 0.00021187073
0002f0 c4 18 13 3c 83 28 3f be 66 50 ca bd 3a e4 47 bd
       0.008978073 -0.18667798 -0.09878616 -0.04880164
000300 01 8c 7c bd 96 e1 2d bb f4 df 2e be 49 35 40 3e
       -0.061656956 -0.0026532165 -0.17077619 0.18770327
000310 db 8a 91 bc f0 f2 80 3d 8c 7d 9a 3e 47 9b a2 3d
       -0.017766407 0.06296337 0.3017391 0.07939773
000320 02 37 b9 3d 35 ff 03 bd af 78 8d 3d d9 2f 7f 3d
       0.09043695 -0.032225806 0.06907784 0.06230149
000330 93 dc 8b be 69 d5 27 3c c6 56 14 3b 1a 6b 9e 3d
       -0.27316722 0.010243752 0.0022634729 0.07735272
000340 61 c1 96 bd f3 e7 d4 bc a6 4b 0f bc 56 87 6e bc
       -0.07361103 -0.025989508 -0.008746063 -0.014558634
000350 7f 44 d8 3c 7c de c6 3d a4 72 38 3d 09 7b 4c 3d
       0.026399849 0.09710404 0.045031205 0.049922023
000360 86 be b8 3c 01 e1 8a be fd 6d f8 3c b7 10 1a 3d
       0.022551786 -0.2712479 0.030325884 0.037613597
000370 5e c5 d4 bc d3 b4 a8 bd fb f4 00 3d d2 b2 4a 3d
       -0.025973018 -0.082376145 0.03148363 0.049486943
000380 22 97 81 bd d2 dd fd bc cd c1 82 bd f0 9e 7c bc
       -0.063276544 -0.030989561 -0.06384621 -0.015418753
000390 7d 54 65 3c dd 5a ef bc 56 a6 13 3d 6b 49 c0 bc
       0.013997194 -0.029218132 0.036047302 -0.023472508
0003a0 80 6e 26 3d f7 7e d5 3d 1a 86 21 3d a4 6e 19 be
       0.040632725 0.10424607 0.03943453 -0.14983612
0003b0 b3 be fc 3d c1 78 7b be 98 20 7c be e9 13 b0 bc
       0.123410605 -0.24557783 -0.24621809 -0.021493869
0003c0 de 8b 88 bb 91 88 ca bd 92 62 76 3d b8 cf 30 3d
       -0.004167064 -0.09889329 0.060152598 0.043166846
0003d0 02 33 c8 3d 8c 2a e1 ba dd 7b d2 be 46 ed 93 3d
       0.09775354 -0.0017178818 -0.41110125 0.07222991
0003e0 35 6f 7a 3d 93 7f 1d 3b d9 cf 2f bd 95 3c a6 bb
       0.06114121 0.002403234 -0.04292283 -0.00507314
0003f0 e7 12 58 bd 52 f3 57 bd 8c 76 7e 3b ba 71 34 3e
       -0.0527524 -0.052722283 0.0038827984 0.17621508

bias f4 [5]
000000 9a 08 a9 3e c5 d7 77 3e f7 24 54 3e be 69 27 3e
       0.33014375 0.24203403 0.20717226 0.16348931
000010 ad 6b 70 3e
       0.23478575

weight f4 [5, 5]
000000 56 12 73 bf 79 d0 85 be f5 6e 90 3f 91 33 88 3f
       -0.94949853 -0.26135615 1.1283861 1.0640737
000010 72 13 8b 3c b2 db 62 be 54 70 e7 3c da 8a f0 be
       0.016977046 -0.2215412 0.028251804 -0.46980935
000020 67 5b a5 bd fc f4 8b 3e f1 60 2a 3e 62 83 42 3f
       -0.08074074 0.27335346 0.16638543 0.75981724
000030 ee 7b 8d 3f 67 81 90 be d9 08 87 3f 64 a5 7b bf
       1.1053445 -0.28223726 1.0549575 -0.9829924
000040 59 40 9b 3e a7 3e 94 3f a8 83 3e 3f 67 8b ce be
       0.3032253 1.158162 0.7441964 -0.4034073
000050 e4 cf a0 3e 9e b6 06 3f 22 2a 35 3f df 8a d9 3e
       0.31408608 0.526224 0.70767415 0.42488763
000060 1a e8 6b 3f
       0.92151034

bias f4 [5]
000000 68 a2 d7 be 5d 3a 84 be b2 f5 fa 3e 46 be ad be
       -0.42116094 -0.25825778 0.49015576 -0.3393423
000010 4b 53 b8 3e
       0.36001047

weight f4 [2, 5]
000000 3c 01 f9 be 22 d7 1b bf e1 ed 3d 3f 19 20 8a bf
       -0.48633754 -0.6087514 0.741911 -1.0791045
000010 f4 1f 8e 3f 29 6c df 3e b1 5c 4c 3f 9f 9b 8e 3e
       1.1103501 0.43637207 0.79828936 0.27853104
000020 11 4f 07 3b b0 00 1b bf
       0.0020646492 -0.60547924

bias f4 [2]
000000 e4 f8 fc bb 12 5c a7 be
       -0.0077200998 -0.32687432
