trained_models/model7D.pt (torch_old, 184981 bytes, 6 tensors)

weight f4 [32, 1372]
00000000: 4bab 33bc 74e7 8cbd 16f4 c43c a5eb 9f3d
00000010: 6a7c 953d b486 e4bd 2b81 ed3c eb9a 953c
00000020: 0a1e 36bd b23c 4bbb d802 40bc 7493 33bd
00000030: 6833 a9bd 1956 f6bd 1b24 b03d da1a 68bc
00000040: d3e3 583d 3300 2b3e 51de 1fbd e0bb 633d
00000050: 957a 393d 652a 1d3d 9aaf 993c e709 45bb
00000060: 4b19 a53d dda8 133d b317 96bd 167a bf3c
00000070: b495 bcbc c00e a7bc e300 633d 33a3 233d
00000080: 6df3 ea3a b53b 213d 90fe 603e 30e4 803e
00000090: 34a4 923d ab91 54ba ed3b 4e3d e91e 32bb
000000a0: b8cb 31be 9297 a6bc e70f ca3d 305e a43d
000000b0: f019 2b3c afb1 d93d 2c7b 9d3c c94f 42bd
000000c0: e682 6e3d a37d a73c 344f 6bbd 0800 ed3b
000000d0: d4f1 853c 0702 303d e411 b83c 2c3f ab3d
000000e0: b550 ccbc 459d 883d 219e 433d 0097 b83d
000000f0: f8dc a93c e6c8 d03c 0527 553d fdc6 a33d
00000100: 75aa a23d f634 2d3c 0e02 8fbd dfc5 de3d
00000110: fa1f ffbd 11e2 57bd 58f3 26bc a91d 083d
00000120: 4553 673c 78b6 3ebe ea8f 1d3d 1de8 1ebd
00000130: 6ee3 553d 521c d6bc 34b8 673d 415d 6f3d
00000140: 3b5f 80bd d02a 273d b272 8dbd 6463 3dbe
00000150: 45f5 273d 51f4 0d3a 372e bcbd 9b88 283e
00000160: a603 a6bc 534b 2c3b 1572 2bbc c34b 03bd
00000170: 88b8 c13d 23c6 1dbc b781 c1bc 9d83 333d
00000180: 09dd cb3b 64b6 3dbe 7987 59bc 4789 853d
00000190: 2a08 883c 12b3 323d 1501 42bd ec4a 443d
000001a0: 1f5b 783d 5dae b73c fb7b b33c c6ab 80bd
000001b0: fc9d 643e fa36 3b3d 8f79 07bd a20b 70bc
000001c0: d299 973d c46c 8a3d 50fb 363d b482 18be
000001d0: fad6 dcbd f49d 08bd 3322 833c bfc8 133e
000001e0: f0be 51bd 5e2c 0c3d 6b4c bebb c262 273b
000001f0: 22ab fa3c f812 6c3d c979 9c3d 91f9 33bd
00000200: 7dc6 133d a96f 49bd 18dd 3b3a 04ee 1b3e
00000210: 6f03 59bd e7a6 35be 301c 043d 924e 373d
00000220: e5ea 85be 271c 963d 447c 4e3d cfc1 97bd
00000230: f2f7 acbc a71a 133d 0953 23be 1e53 043c
00000240: 5b12 aa3c 4de7 163e 6d05 ce3d 3d15 2e3d
00000250: b702 75bb 4653 303d edf5 1c3d 82b3 603c
00000260: 2176 1bbd 9c94 6b3d 9cd2 cebc 4bde 743d
00000270: 4674 8f3d bb35 f7bd a0ec ec3d b2fe edbc
00000280: f20c 8d3d 4919 39be c3cd f1bd 2a93 513d
00000290: 4d32 2b3d 78fc 873d fa92 703c 4138 9fba
000002a0: 9329 423d d9d5 3b3d fbc0 f2bc 4af4 773e
000002b0: 3ac8 b0bd ae3e 6f3d f8fc c9bd 68ae e43c
000002c0: 5638 bd3d f577 983c 5685 d7bd c957 f6bb
000002d0: 4188 483e 0720 a63c 180d 64bc 9c2e 553d
000002e0: b001 f2bc fd8c 7bbb d968 163d 8ce6 c9bb
000002f0: 2eff a23d 3372 7abd 9600 0b3e 7a3b fdbc
00000300: 48ef fe3c 29cc f8bd 0556 a63d d827 d9bc
00000310: a419 283d 4c99 20bd c737 b4bd 7a39 193d
00000320: 0326 36bd ad01 90bb b0c6 293d 980c d83d
00000330: aaf1 9dbc 07e6 a1bc ae5a 223d 20da dbbd
00000340: b329 fbbc 9c25 a0bd cfa6 adbc bccd a33c
00000350: c948 993d 8f1b 5dbd ecd2 833d 8443 03bc
00000360: 62cf a83d 0364 403d c0fe 8dbc 6211 ba3d
00000370: 8fac c03d 9e6c 1ebc b205 21be d5e1 ae3c
00000380: 2f8a ed3d bfbf 5f3d 8d92 8cbd 05fe 683c
00000390: 9901 903d 0924 22bb 44d2 8abc 206e 1e3d
000003a0: b8e3 553d 8cf2 62bc 5b38 bf3c a16a 2fbc
000003b0: 95a8 04be 8f15 023e 4cd2 4abc 44bc 08bd
000003c0: 8d3f a33d f3a6 02be 2dba 3dbd c3e0 533d
000003d0: cafa 1a3d 632a 3c3d c7c3 b93d 223b ea3c
000003e0: d26d f0bc 51d9 7c3c f3c4 1d3e d059 0dbe
000003f0: 9972 6f3d 8cbe 4a3c 7263 d43c cbe7 833d
-0.010966132 -0.06880084 0.02404217 0.078086175 0.07299121 -0.11158505 0.028992256 0.018262347
-0.04446224 -0.003101152 -0.011719428 -0.043841794 -0.08261758 -0.120281406 0.086006366 -0.014166558
0.052951645 0.16699295 -0.039030377 0.055599093 0.04528292 0.03837051 0.018760491 -0.0030065717
0.08061465 0.036049712 -0.07328739 0.023373645 -0.023020603 -0.020392776 0.055420768 0.03995056
0.001792533 0.03936358 0.21972108 0.25174093 0.071602255 -0.00081088644 0.05035012 -0.0027179068
-0.17362869 -0.020335946 0.098663144 0.08025777 0.010443196 0.106295936 0.019223772 -0.04743937
0.058230303 0.02044565 -0.05744858 0.0072326697 0.016350664 0.042970683 0.022469468 0.083616585
-0.024940828 0.06670622 0.047758225 0.09013176 0.020735249 0.02548642 0.052039165 0.079969384
0.07942668 0.010571709 -0.06982814 0.10877585 -0.12457271 -0.052705828 -0.010189854 0.03323141
0.014118974 -0.18624294 0.038467325 -0.03879558 0.052218847 -0.026136551 0.056572154 0.058438543
-0.06268164 0.040812314 -0.06906642 -0.18494946 0.04100539 0.0005415129 -0.09188502 0.16458361
-0.020265412 0.0026290014 -0.010464211 -0.032054674 0.09459025 -0.009629759 -0.023621423 0.043826688
0.006221418 -0.18526608 -0.013276928 0.06520324 0.016605455 0.043627806 -0.047364313 0.047923014
0.060633775 0.02242201 0.021909704 -0.06282763 0.22325891 0.045706727 -0.03307491 -0.014651211
0.07402386 0.06759027 0.044673264 -0.1489361 -0.10783191 -0.03335376 0.016007518 0.14432047
-0.051207483 0.034222 -0.0058074496 0.0025541042 0.03059918 0.057635278 0.07640416 -0.043939177
0.036077965 -0.049178753 0.00071664294 0.15227515 -0.05298179 -0.1773945 0.032253444 0.044752665
-0.26155773 0.073295884 0.050411478 -0.07410013 -0.021114323 0.03591409 -0.15949644 0.008076457
0.020760706 0.14736672 0.10059629 0.042500723 -0.0037385651 0.043048166 0.03832047 0.013714673
-0.037954453 0.05751477 -0.02524691 0.059782308 0.07004599 -0.12070795 0.1156857 -0.029052112
0.06887235 -0.18076052 -0.11806824 0.051165737 0.041796017 0.066399515 0.014683479 -0.0012147502
0.04740293 0.045858238 -0.029633036 0.24214283 -0.0863194 0.058409385 -0.09862703 0.027915195
0.09239261 0.018611887 -0.10523479 -0.007517789 0.19583227 0.020278944 -0.013919137 0.052046403
-0.02954182 -0.0038383596 0.036721084 -0.0061615165 0.07958828 -0.061144065 0.13574442 -0.03091215
0.031119958 -0.121483155 0.08121876 -0.026508257 0.041040078 -0.039208695 -0.08799701 0.03740833
-0.044469845 -0.004394731 0.04144925 0.10549277 -0.019280273 -0.019763006 0.03963726 -0.107349634
-0.030659532 -0.078196734 -0.021197705 0.019995563 0.07484586 -0.05398136 0.064367145 -0.008011702
0.0824268 0.04697038 -0.017333388 0.09085347 0.09407913 -0.009669451 -0.15724829 0.02134792
0.11598622 0.054626223 -0.0686389 0.014220719 0.07031555 -0.0024740717 -0.016945966 0.038679242
0.052219123 -0.013851773 0.023342302 -0.010706575 -0.12954934 0.12703536 -0.01237924 -0.03338267
0.07971106 -0.12758999 -0.04632013 0.05172802 0.037836827 0.04593886 0.09070545 0.02859265
-0.029349241 0.015432672 0.15407161 -0.13803792 0.0584589 0.0123745315 0.025926325 0.064406954

bias f4 [32]
00000000: 1b8c c03d f2a3 8e3d 305b 4d3d c532 e33d
00000010: 6223 e7bc dbb2 c03d f154 9e3d 6c34 eb3d
00000020: 13ce aebc 8996 ef3d d28b d73d b995 01bd
00000030: b473 cb3d d87d fdbc a939 0c3e 28f1 223e
00000040: c577 c03d 0066 bd3d 6bda 1e3e a7c5 f03d
00000050: f1fe 3abc f87e 543e bae6 b63d 7099 0c3e
00000060: 71c4 353d c2df 9e3d afa7 203e c103 21bd
00000070: b8f6 5fbd ec0b d93d c4cb c036 7bb6 e93d
0.09401723 0.06964864 0.05013579 0.11093668 -0.028215114 0.09409114 0.07731045 0.11484608
-0.021338498 0.11698634 0.105247155 -0.031636927 0.09934178 -0.030943796 0.1369387 0.15912306
0.09397844 0.092479706 0.15513007 0.11756449 -0.011413322 0.2075156 0.08930726 0.13730407
0.044376794 0.07757522 0.15688966 -0.03931022 -0.05467865 0.10597977 5.7457673e-06 0.114117585

weight f4 [32, 32]
00000000: 2275 373d ef84 f1bd f33f 12bc 5a73 4d3e
00000010: 5ae8 0e3e eede 8e3e 5c51 e3bd 621f 93be
00000020: 6bee 223c 3ce2 0bbe 4a62 1dbe 4161 7a3e
00000030: 4825 adbc cd34 69be 4538 5bbe b8e9 e1bc
00000040: f988 9bbe 5259 71be a2d6 abbd fa8f 71be
00000050: 5c62 26bd 1556 84bc dfd7 3b3e ccd3 90bd
00000060: 6317 a6bd 44fd 723e cded 613d 8193 4c3d
00000070: d9df 4ebe 5f22 073e e643 4e3e 89a5 483b
00000080: f98a aabd c7c9 863e 0469 c5bd 4f96 883e
00000090: 72c8 f83c 0009 7e3e 72f5 b53c 3829 1e3e
000000a0: 99d5 e3bd b90d 263e bac6 bb3e 078e b4be
000000b0: 1801 863e 9fe0 653e 95fa 073e 1d3e d73e
000000c0: d714 c73d dde1 963e 48ae ab3e 6fa1 813e
000000d0: 66b3 aebc 8574 203d 25bf 61bd d42d 30bb
000000e0: 367f 03be 12e3 2d3e 82b7 733e 49d5 903d
000000f0: 4d16 d4bd 154a c33e e433 7fbd 21c5 1a3d
00000100: c6aa 9d3e f8ec 39bc 5737 8c3e e781 483e
00000110: b2dd a4be 35b6 af3e 4032 b53e dc72 8e3e
00000120: 51d4 f53d 36cc 6f3e 1786 723e fb2e 9b3d
00000130: 63f5 613e c40d c33e fe0e a43e cf2d 0dbe
00000140: 702d 253e e5bd 153e c28e 4ebd 3aca 883e
00000150: d403 75be 03b6 c23e d2a1 c7bd 6ed3 6ebd
00000160: 8d26 c2bd 9692 66bc 6cac 00be 1b90 e8be
00000170: 7025 a7be c852 0e3e a193 78bd 09a4 74bd
00000180: a203 913e 0800 1e3e 3073 b9bc 76e6 23bc
00000190: 5865 50be 6f96 873e 4120 a83e 4e62 41be
000001a0: 0231 d5bd 3639 c3bd 3250 0c3c d64b 28be
000001b0: 862f c03e 1775 51be 3572 a73d a7be 943d
000001c0: 2e80 6a3e 9f01 9b3b 76c3 8c3e e409 823e
000001d0: e97c 8dbe 5c46 57be 8dfc f8bc 9fc8 233e
000001e0: 23af 583e 95c0 ab3e 0111 9e3e 6bec 71bd
000001f0: f9fe fc3d bf06 bd3d 3196 3ebd 5518 5e3d
00000200: 5f7e 9b3d a249 3ebd f384 963e 328d cc3d
00000210: 29b2 c0be 2efa 103e 9207 343c ce2a b03e
00000220: 08f6 c0be 9313 bb3e 5878 e13e a8b0 b7be
00000230: 2f69 973e 572e 7e3c eb29 893e fefa b73e
00000240: cd7a d83d 7159 973c 7b5d 37bd bbff a73e
00000250: c632 863e 8ef3 203e 63bd ee3c 9274 c63e
00000260: 0443 d2bc 0292 6c3e 5029 4d3e 5105 96be
00000270: eed4 b7be 1af6 ba3e 53b9 aabe c1bd 25be
00000280: a32d 11bd c1b0 e1bd c2e6 d33d 3620 923e
00000290: 7b5c 59be a715 81be 0a6c 7b3d cd44 a43d
000002a0: 4edd 9ebd 2bfe b03e 5ace 2cbd cd5f 79be
000002b0: 022b 9d3e 7bcd 14be 3b9c f3bb e3f4 9ebd
000002c0: 32b1 fa3a a877 133c 5472 c03e e7dc e5bc
000002d0: 9d24 febd da79 8b3e 8085 063e 31e5 a53e
000002e0: 3c18 2ebe 24ab 873e 3714 4d3d 91c5 89be
000002f0: 69ea eebd e992 2ebc e464 4e3e 395b 173c
00000300: 3092 983e 609c 7a3e ac03 da3c a851 71be
00000310: b8ae d9bd 2103 a83e e6d1 a83e f4b6 fe3d
00000320: 23f8 bc3e 9254 ecbe 2bcd b13e f75e 8d3d
00000330: 5043 963e bd34 9a3e ece8 8d3e e7e1 143d
00000340: 2488 bbb9 8e72 283d 34e7 b63d a13a 8dbe
00000350: 17d3 febe 9f01 eb3e f4e0 823e bcb2 203e
00000360: 407d a73e 4c62 41be a1a1 83be 855d d1be
00000370: b542 d83e 99ed f3ba a196 4ebe 6b55 e93d
00000380: 58e9 3c3e 5644 e13c 86a6 f9bd e375 56be
00000390: dad0 f6bc 7b35 9ebe 5cd1 2b3e 7db6 5e3e
000003a0: 694f 0abe 083e 79be ee76 61be cd78 89bd
000003b0: 9947 a73d 8f76 24bd bfbf 0a3b 3cbe 323e
000003c0: 16e0 03be c21b 8cbb c027 73be 2dca 4f3e
000003d0: ae15 d8bc dd00 a73a 132e 0abe 00cf e63d
000003e0: a700 8dbe 3f38 6f3d 9730 47be cee3 e73a
000003f0: 674f af3d 2140 3d3e 8691 97be 0458 293e
0.04478944 -0.11792933 -0.0089263795 0.20063534 0.13955823 0.27904457 -0.110995024 -0.2873488
0.009944539 -0.1366052 -0.15369526 0.24451162 -0.021135941 -0.22774048 -0.21408184 -0.027577266
-0.3037794 -0.23569229 -0.08390547 -0.23590079 -0.040621147 -0.016154328 0.18344067 -0.07071647
-0.081099294 0.23729426 0.055158425 0.04994536 -0.20202579 0.13196705 0.20143089 0.0030616245
-0.08327288 0.2632582 -0.09639171 0.26677176 0.030369017 0.2480812 0.022211764 0.15445411
-0.11124725 0.16216172 0.36675054 -0.35264608 0.2617271 0.22448967 0.13279183 0.42039576
0.09720772 0.29469195 0.33531404 0.25318477 -0.021325778 0.03917362 -0.05511393 -0.0026882784
-0.12841496 0.16981152 0.23800471 0.07071931 -0.10355816 0.38142458 -0.062305346 0.037785653
0.30794352 -0.011348002 0.2738597 0.19580804 -0.3220039 0.343187 0.353899 0.27822006
0.12003387 0.23417744 0.23683964 0.0757732 0.22066264 0.3809644 0.32042688 -0.13787006
0.16130614 0.1462322 -0.050429113 0.26716787 -0.23927242 0.3802949 -0.09747662 -0.058307104
-0.09480009 -0.014073035 -0.12565774 -0.45422444 -0.3264575 0.13898766 -0.060687665 -0.05972675
0.28323084 0.154297 -0.022637933 -0.010003677 -0.2035116 0.2648196 0.32837108 -0.18885157
-0.10409738 -0.095323965 0.008564042 -0.16435179 0.37536258 -0.20454822 0.0817608 0.072629265
0.22900459 0.004730418 0.27492875 0.2539817 -0.2763436 -0.21022934 -0.030393863 0.159945
0.2116056 0.33545366 0.30872348 -0.059063356 0.1235332 0.09229802 -0.046529952 0.054222424
0.07592463 -0.04645694 0.29398307 0.09987868 -0.37635925 0.14157936 0.010988133 0.34407657
-0.37687707 0.3653837 0.44037127 -0.35876966 0.29572436 0.015513978 0.26789793 0.3593368
0.105702974 0.018475266 -0.044766884 0.32812294 0.26210612 0.15717909 0.029143041 0.3876081
-0.025666721 0.23102573 0.2003529 -0.2930093 -0.3590464 0.36515886 -0.33344516 -0.16185667
-0.035443913 -0.11020041 0.10346748 0.285402 -0.21226685 -0.25211832 0.06138233 0.08020935
-0.07757054 0.34568915 -0.04218898 -0.24352951 0.30696875 -0.1453151 -0.0074343956 -0.07761552
0.0019126295 0.009000696 0.37587225 -0.028059436 -0.12409327 0.27241403 0.13136864 0.32401422
-0.17001432 0.26497757 0.050068107 -0.26908544 -0.11665804 -0.010655143 0.20155674 0.009238058
0.29799032 0.24473715 0.026613079 -0.23566306 -0.10629028 0.32814887 0.3297264 0.12437239
0.36908063 -0.46158272 0.34726843 0.06902879 0.2934823 0.3011836 0.27716768 0.03634825
-0.00035768852 0.041124873 0.08930817 -0.27583793 -0.49770424 0.45899674 0.2556225 0.15693182
0.32712746 -0.18885154 -0.2570925 -0.40891662 0.42238393 -0.0018610238 -0.20174648 0.11393245
0.18448389 0.027498405 -0.12189965 -0.20943408 -0.030128885 -0.30900177 0.16779083 0.21749301
-0.13506855 -0.2434007 -0.22018024 -0.06712494 0.08167953 -0.04015213 0.0021171418 0.17455381
-0.12878451 -0.00427577 -0.23745632 0.20291968 -0.026377525 0.0012741346 -0.13494138 0.11269951
-0.2753956 0.05840325 -0.1945213 0.0017691792 0.08560067 0.18481494 -0.29603213 0.16537482

bias f4 [32]
00000000: 612a c83b 215a 1e3c cd49 223c 8b95 4c3d
00000010: 7400 43bd d0f6 5e3e 6a6e 90be d305 1a3d
00000020: 355c 98bd e71d 823d c2cc f83d 1a76 083e
00000030: 11e5 29be c763 863d 5d4a b4bd 7a19 173e
00000040: 87c5 b5bc baf0 413d 6055 613e 7909 d03b
00000050: 33d0 87bd 856b 51bc 3c9a 14bd 05be 063e
00000060: 53ac 69bd 4046 f33c 8436 603d 970c 3b3e
00000070: 74b0 9e3a 669b 5f3d 8f1d 8f3d 6277 4a3d
0.0061085676 0.009665043 0.009905291 0.049947303 -0.047607854 0.21773839 -0.2820924 0.03760321
-0.07439462 0.0635336 0.121484295 0.13326302 -0.16591288 0.06562 -0.08803246 0.14755812
-0.022188915 0.047348715 0.22005224 0.0063487855 -0.06631508 -0.012781982 -0.0362799 0.13158424
-0.057049107 0.029696584 0.05473949 0.18266521 0.001210703 0.05459156 0.0698806 0.04943026

weight f4 [2, 32]
00000000: 1c5d b8be 9b9a 113f 023f 503b 4a8e 023e
00000010: 72da ba3e e434 c93e a962 2d3f 6019 18bd
00000020: 3a3d fbbd 7081 9a3e 4e06 413e b75c fd3d
00000030: fc92 47bd aaa2 723b 0c77 fcbe 00ef 5a3e
00000040: c159 c4be 66b7 083f 111f 4bbe 33c4 c33e
00000050: 8397 26be 9103 12bf 5e5e 92be d2bc 793d
00000060: 73b4 f83e 29e1 9d3e bd7d f93d 90cb 903e
00000070: 93b5 4cbe 0eb2 eabd d218 763e 393a c6be
00000080: 4230 03bd 3a9e 083e c070 c2be 7dfe 90be
00000090: bdc4 13bf 6ecc 9d3d 0d73 1bbe bcae 6c3c
000000a0: d76e 6e3d 09c4 29bf 3edf 3e3e 7bc4 c13e
000000b0: 0311 933e eab8 96be 7ca4 873e 5280 7abe
000000c0: 3594 ce3e db48 20bf bb91 dabe 1422 c0be
000000d0: b3dc ae3e d0bf 083f 34ca d23e b496 87be
000000e0: 11c6 c9bd 6358 0abc ae43 563e 5616 103d
000000f0: 779b 08be 3689 293e 2150 12bf 260c 20bd
-0.36008537 0.56876534 0.0031775837 0.12749591 0.36494786 0.39298165 0.6772867 -0.037133574
-0.122675374 0.30176878 0.18850061 0.123711996 -0.04872416 0.0037023225 -0.49309576 0.21380234
-0.38349727 0.53404844 -0.1983607 0.38235626 -0.16268735 -0.5703669 -0.2858762 0.06097109
0.48575172 0.30835846 0.12182186 0.28280306 -0.1999114 -0.114597425 0.24032906 -0.38716295
-0.032028444 0.13341609 -0.37976646 -0.2831916 -0.57722074 0.077050075 -0.15180607 0.014445957
0.058211174 -0.6631475 0.18639848 0.37845215 0.28723916 -0.29437953 0.2649268 -0.24463013
0.40347448 -0.6261117 -0.4268931 -0.37526 0.34152755 0.5341768 0.41169894 -0.26482165
-0.09852231 -0.008443925 0.20924255 0.03517755 -0.13340555 0.16556248 -0.57153517 -0.039074086

bias f4 [2]
00000000: 4bd1 ccbd e97c 0fbe
-0.10000857 -0.14012493
