trained_models/model7E.pt (torch_old, 373399 bytes, 6 tensors)

weight f4 [64, 1372]
00000000: 6270 d2bd eedf 71be 6a5e e73c 76ed 773d
00000010: 4c92 49bd a4d9 ec3d 582f 83bc bb34 743c
00000020: a884 a0bd 57e0 633d 5e5c a33d 780b 113c
00000030: 256b 26bd 9112 90be 74b5 f93c c0cb 0ebb
00000040: f77c 983c 6261 733d fd9d 84b9 6589 abbb
00000050: 64ac 5b3d 739e f23b 9149 eebb 8ac5 683c
00000060: c89d 81bd fdce 723d e549 fc3c 683a 5e3d
00000070: d2c9 fc3c 4ec0 d2bc 1999 4c3d 9e5b 05bc
00000080: d776 9c3b 4345 973c fc30 96bd f4aa a23d
00000090: d493 2ebd b4e4 8abc 2f08 1dbc 8eea f53d
000000a0: 236c 153e a52b 3dbc defc 763d fa0b ae3d
000000b0: 767a 82bc efff 8dbd d42f e1bc 34bb b73d
000000c0: 8a2b 06bb 0954 ffbc 19c1 283d 2021 093b
000000d0: d3f8 45bd 1c2a 933d b85e 45be 1bf9 a83d
000000e0: 9fe2 63bc f824 933d 1bb4 893d 465b 983d
000000f0: 57dc 0abc 4d5c 963d 7b62 55bd c9be 1e3d
00000100: 3c90 b73d 2101 4fbd 0bbc c4bc 2409 493d
00000110: fa58 89bd 7eef 8fbd e8b9 cbbc e174 623d
00000120: 0a39 cb3b 5288 a8bd fb20 063e ae24 87bd
00000130: 78c8 16bc 59b2 bd3c 0d9b 31bd 9360 08be
00000140: 9e5d 21bd ccb5 363d 08b9 923d df63 13bc
00000150: 59a4 13be b6e5 3b3e eb84 58bd 15fd 86bd
00000160: b98e dd3c 98a2 5d3d 32db bc3c 3592 74bd
00000170: d86a 6b3d 02db 0ebe 374e fcbc af3d 283d
00000180: 8658 fabb c991 b43d 5b52 f33c 42c0 b93c
00000190: 0dae a83c e9d5 db3b 669f 593d b0cb 94bd
000001a0: cd02 d03c 36ae 1f3d 9d2d 363c 387b 233d
000001b0: ce50 acbc 1187 623b 0cee 653c ed22 4bbe
000001c0: 2fd7 043e 443b f5bc f595 ebbc 5c68 803d
000001d0: ca83 873c 2630 d23d a7a7 84bd bdaf 333c
000001e0: 2889 253e a246 9ebc 6f09 0ebc cbe0 703d
000001f0: 9ced bebd c775 71bd 8399 303c 021f 843c
00000200: c309 b93c c2a1 8abb 1c19 e13c 5a9e 14be
00000210: 05cf 0dbd 3560 493d 642e cd3c 968b b13c
00000220: c542 b3bc efca e4bb 7cc5 85bb 474d 663d
00000230: 6777 403c 0197 31be 645c 893c 7fd2 823b
00000240: 99ae 293d c5d6 7d3d ef1c 8f3d 6205 703c
00000250: 2e08 2dbd 96a1 d5bc bf85 a03d 9584 143d
00000260: 1bd8 8c3d 2308 683d 394e 5d3d 28da a4bd
00000270: 27e5 c2bc e9e9 dfbd a87c 65bd 09ab b43c
00000280: 171f b53d 9327 4d3c 3de5 b9bc 4dff 18bd
00000290: 65b6 84bd 06ee 833c d672 c23d 2d59 633d
000002a0: 1669 c5bc 6091 893d e9aa 123d cad3 8dbd
000002b0: f561 82ba 64d6 28bd baba a73b b790 a1bd
000002c0: 1c43 ad3d 48b0 1b3d 122c 1f3d 9fae c6bd
000002d0: 63b0 59bc 2ba6 973d 9d2c 39bd 7fec 22bd
000002e0: ca0e a33d 08dd 963d beeb bd3a a147 923d
000002f0: 2aba 403b eec3 60be abf1 9c3d b001 d13d
00000300: 5280 283d d824 9ebd e02d aebc 9de5 8abd
00000310: e0e6 96bd 42c2 263c 0646 0bbe fdbc 1e3c
00000320: 578d 4d3d 3283 62bc a5f5 863d 374d 293d
00000330: db50 e43b 6fbb 263c f4db 0cbc dcfd 8d3d
00000340: 4723 bcbb 8ee9 8abb ceb1 4d3c c8de 84bd
00000350: a9d6 753b 23d7 e4bd 9ea6 763d 5482 753c
00000360: 1443 123c b5cc 093d c116 05bd c50f 8d3c
00000370: c36d 1ebc ed9f e03c b823 a23c 4ba0 253d
00000380: a44d c8bd 07c2 0ebd 0de9 9cbd 3ecc 823d
00000390: 85c3 f93c fba7 2d3d da07 5f3d 6485 a7bd
000003a0: 52c4 2b3c c8a4 31bd 1bed bc3c d477 f93c
000003b0: fbc4 183e 6ecd 443c 1546 cc3c 9221 b6bc
000003c0: 993a a33d a2dc 9b3a 6fdc 59be 1632 ecbc
000003d0: 6a1f f43b 769f 0c3d e8ba cebb c34c df3d
000003e0: 143a c9bb 7146 13bd ffa5 d6bd 2ea7 343d
000003f0: fe8e 6c3d c45d edbd 746f 133d 2e7c 8cbd
-0.102753416 -0.23620579 0.028243262 0.060529195 -0.049211785 0.11564949 -0.016013786 0.01490515
-0.07837802 0.05563387 0.07976602 0.008852832 -0.040629525 -0.28139165 0.030482031 -0.0021788925
0.018614275 0.059419043 -0.00025294712 -0.0052348846 0.0536312 0.0074041425 -0.0072719534 0.014207253
-0.063289225 0.05927943 0.030796954 0.05425492 0.030857954 -0.025726464 0.049950693 -0.008139519
0.004774909 0.018465644 -0.07333562 0.07942763 -0.04262145 -0.016954757 -0.009584471 0.120076284
0.14592032 -0.01154605 0.060299747 0.08498378 -0.015927535 -0.06933581 -0.027488627 0.08971253
-0.0020472729 -0.031168 0.041199777 0.0020924285 -0.048333 0.07185766 -0.19274414 0.08250638
-0.013909011 0.071847856 0.067238055 0.07439284 -0.008475385 0.07341824 -0.05209587 0.038756166
0.089630574 -0.050538186 -0.024015447 0.049080983 -0.06706424 -0.070281014 -0.02486892 0.055287246
0.006201868 -0.08229126 0.13098519 -0.06598793 -0.009203069 0.023156332 -0.04336076 -0.1331809
-0.03939592 0.04460697 0.07164198 -0.008995979 -0.14418162 0.18349347 -0.052861135 -0.0659124
0.027045595 0.05411014 0.02305374 -0.059709746 0.05747494 -0.13950732 -0.030799014 0.04107445
-0.0076399473 0.08816869 0.029702356 0.022674683 0.020590806 0.0067088497 0.05313053 -0.07265413
0.02539196 0.0389845 0.0111192735 0.039912432 -0.021034624 0.003456537 0.014033806 -0.19837542
0.12972711 -0.029935487 -0.028758029 0.06269905 0.016542334 0.1026309 -0.0647729 0.010967192
0.16165602 -0.01932079 -0.008669241 0.05880813 -0.09322664 -0.05895021 0.010778788 0.016128067
0.022587663 -0.004230709 0.027477793 -0.14513531 -0.034621257 0.049164016 0.025046535 0.021673005
-0.021882424 -0.0069821994 -0.00408238 0.05622604 0.011747218 -0.1734276 0.016767688 0.0039923782
0.041426275 0.0619724 0.069879405 0.014649721 -0.04224413 -0.026078027 0.0783801 0.036259253
0.06877156 0.056648385 0.054029677 -0.080494225 -0.023790909 -0.10933287 -0.056027085 0.022054212
0.088438205 0.012521642 -0.022692317 -0.03735285 -0.064801015 0.01610471 0.094945595 0.055504967
-0.02409796 0.06717181 0.035807524 -0.06925161 -0.0009947406 -0.041220084 0.005118695 -0.0788893
0.08460066 0.03800991 0.038860388 -0.09701275 -0.013286683 0.07404741 -0.045208562 -0.03977632
0.07961805 0.07366377 0.0014489812 0.071425684 0.0029407837 -0.21949741 0.07663282 0.102054
0.041138 -0.07721871 -0.02126211 -0.067820765 -0.07368255 0.010178151 -0.1360093 0.009688613
0.05018362 -0.013825225 0.06589822 0.041333403 0.0069676465 0.010176524 -0.008597363 0.069331855
-0.00574151 -0.0042392677 0.012554599 -0.06487805 0.003751198 -0.111738466 0.060217492 0.014984686
0.0089271255 0.03364249 -0.032492403 0.017219434 -0.009669724 0.027420009 0.019792423 0.04043607
-0.09780434 -0.034853008 -0.076616384 0.06386612 0.030488739 0.042396527 0.054450847 -0.08179739
0.010483818 -0.04337004 0.02306228 0.030452646 0.14918892 0.012011869 0.024935761 -0.022232804
0.07970161 0.0011891315 -0.21275495 -0.028832477 0.007450034 0.03433176 -0.006308902 0.10903313
-0.0061409567 -0.03595585 -0.1048088 0.044104747 0.057753555 -0.1159015 0.03599496 -0.06859623

bias f4 [64]
00000000: 4c64 d63c 1f53 713d f8ec 953d 6261 9f3d
00000010: 2f6c 143b b900 913d 910a f33d 94b3 833d
00000020: d7b6 1a3d 8a6c b63d c004 2e3d 3999 16ba
00000030: 9bf6 c13d 1c1b 2b3d 946a ae3d cea7 a33d
00000040: b5fb a0bc 6abf cd3d 06e9 cc3d d800 853c
00000050: d705 ab3d 6862 963d d8cf 9d3d dfec 8d3c
00000060: 33c0 a63c f248 063e 85cb cb3d e1e2 10bd
00000070: 9e3f f93c 9986 873d 4285 4b3c 23a9 4dbd
00000080: b9e1 d93d fb88 5a3d d787 cd3d 2160 853d
00000090: 9cc5 a13d da8f 4abd a697 563d e795 483d
000000a0: e82a b5ba 8a6a 9a3d b973 b03d 50b0 3b3c
000000b0: 972c 593d 8bfa 3abb 8e4e e43d a45f 053e
000000c0: 36f2 2b3d 7ad5 973b 0bf5 5abb 17ed bf3d
000000d0: 8529 91bc 9284 d7bc ad47 ec3c b662 983d
000000e0: 3770 d4bd 9639 fabc b7aa fe3d 8c0a 74bc
000000f0: 54c5 203d 7242 813d 68a5 8b3d a5d7 a93d
0.026170872 0.05891716 0.07320589 0.07782246 0.002264749 0.07080216 0.1186725 0.06430736
0.037772026 0.08907421 0.042485 -0.0005744878 0.094708644 0.0417739 0.08516422 0.079909906
-0.019651273 0.10046275 0.10005383 0.016235754 0.08350723 0.07342988 0.07705659 0.017324863
0.02035532 0.13113764 0.09950928 -0.03537262 0.030425843 0.06617469 0.012421908 -0.05021013
0.10638756 0.05335329 0.10035675 0.06512476 0.07899019 -0.049453594 0.052390717 0.048971083
-0.0013821991 0.07539852 0.08615822 0.01145561 0.05302104 -0.0028530683 0.111477956 0.13024765
0.041979037 0.0046336027 -0.0033410217 0.09371393 -0.017719993 -0.026308332 0.028842771 0.074407026
-0.10372966 -0.030545037 0.12434905 -0.014895093 0.039250687 0.063115016 0.06818658 0.08293084

weight f4 [64, 64]
00000000: 8d61 b43d 9d00 b6bd bd1d d53d fd60 703d
00000010: 0059 51be eff6 bf3c 178e 4e3e 130b 93b8
00000020: beac 1abe 56fa 093e 311c 1b3e a349 bbbd
00000030: b04e 333e d2ed 053d 0f7b 77bd ff95 333e
00000040: f182 a33d dda0 14be f1a9 09bd 9a59 42bd
00000050: e214 1e3e 26e5 7a3d 3957 343e 9ab6 1ebe
00000060: 338c 4b3e c2fe 8f3e 92ad 793e 0a2f ffbd
00000070: e405 7b3e 61cf 293e e251 0bbd c211 18be
00000080: 552c f23d b4ea 4c3e 3c04 853c 0284 0a3e
00000090: c570 b53d 9ba5 ddbd 4b50 eb3d 28a4 56bd
000000a0: d9f7 21bd e1bf 073d c7d0 763c 95c6 23bd
000000b0: 0dfc cb3d 3be2 393d 2452 e33c 7c0e b2bd
000000c0: e0c8 30be fbab 473c 0689 e9bc 0d7a 10be
000000d0: a0bf e9bd 9502 e93d 84b1 d9bd 3a45 d83d
000000e0: 0b31 15bd 8b46 f63d 33e8 593d 9e0f 6d3e
000000f0: a2ab 9a3d f63c 663e 4bb4 26bc 111f a33d
00000100: 1115 f33d bd76 913d 13c8 233e 608f 5fbd
00000110: 680c 493e 5d77 843e 6a85 07be e286 2a3e
00000120: 9b08 97bc 369a 123e 014e b53c fbab 083d
00000130: ca94 f23d 0f0e c5be 2c40 56bb 5847 563e
00000140: f6a9 263b 29aa 13bd 2501 893e b2a5 b5bc
00000150: ff2d c5bc 1039 d63d de70 9dbc d874 14be
00000160: 1f4f 10be eec2 1fbd 83f4 273d b9ab aabe
00000170: 8c46 593e ceaf 923d 4791 24bc b401 6e3d
00000180: fa37 8b3e ad3a 303d 870c 7ebd 19ae a03d
00000190: 0015 7c3e f74e 0a3d 4cfe a8bd 397c 9e3d
000001a0: 6832 41be 019f 413c fe77 3c3d 16ec ea3d
000001b0: d221 4e3e 269a 8abe 01b3 90bd 3515 483e
000001c0: 71f5 373e ae0e cc3b e197 f8bd 931c 92bd
000001d0: 3bd5 99be 72ba cd3d 5611 903e 08e6 b63c
000001e0: 7148 423e f097 a43d e242 8a3e 410d 913e
000001f0: 02ed 77bc 97de 85bd d5d0 61bc 4253 563e
00000200: 3465 8e3d d873 27be adbf 353e 71a9 1dbc
00000210: 11f0 413e 05f4 9abd aa30 5abe d2a9 913d
00000220: 9440 20be 5592 6dbe a06d 60be 157b dbbc
00000230: de60 16be a005 34be 7d68 60be 1d1a 153e
00000240: c65b 383e 6910 5a3d 9f84 efbd 53f8 48bc
00000250: 3e30 72be 5af7 ebbc fb22 00be cb2e 8d3d
00000260: 4f6d 4dbe 1e3b 7c3b 4da5 39be 7bea 153d
00000270: cca3 473e 516b 0bbe 9084 cc3d 0245 6cbd
00000280: 011f ddbd 3d48 59be 1529 473e ace2 f63d
00000290: 2b9f 673d 346a 403e 33e5 1abe ddb6 3ebe
000002a0: a5bc 05be 46b9 253d 62f5 08be cc0d 39be
000002b0: ea26 4e3d 287b 2e3e 3b98 103e 2531 ce3d
000002c0: 4602 3abe 683b 9ebd 7ede 103e f6be 853c
000002d0: cb7e 45be 5aca 693d b83c 57be 2301 493d
000002e0: 1f7f aabd a473 a7bd 879d 433e a8d4 073e
000002f0: 292d 63be 5694 d13d 552f 223e 78e7 a13c
00000300: eeda 243e f5b4 27bd 5f33 913d c529 603e
00000310: 8447 b9bd a14c e63d 493b 413e 5d6d 2c3e
00000320: da60 aa3d 2a64 3bbe f1fa 0b3e 3aed a83d
00000330: 99d7 f7bd 38a2 f3bd 502c 3c3e d5b5 a43d
00000340: e16e 5a3e 93e0 533e 4d03 18bd 19de 99bd
00000350: 0ad4 5dbd 2a10 293e 5d9f 2b3b bed5 9a3c
00000360: 32ac 1f3e c2f1 513e 0568 21be c3cb 67bd
00000370: 7a4b ff3c aaf5 483d cf52 a03d 57f4 aabd
00000380: 8353 9a3d 2699 d8bd 0f35 083e 143b 04bd
00000390: ba4a 283e da0b 1e3e d47c 723d 8cc9 1abe
000003a0: 46a8 1abe 9a69 f43c f309 863d 33e2 f9bd
000003b0: 42d1 223e 3f38 573e a965 f23d 6308 4e3e
000003c0: 6c42 743e 8b84 20be 9646 46be ece4 2ebe
000003d0: 8a06 21be 1675 cc3c efdd ff3d a00c f03d
000003e0: 8c4c 503d 87fa bfbd 8093 393e a6f2 48bb
000003f0: 44d9 df3b 2945 14be 3144 6d3e af59 083d
0.08807669 -0.08886836 0.10406063 0.058686245 -0.20444107 0.023433177 0.2017139 -7.011569e-05
-0.15104958 0.13474402 0.15147473 -0.091449045 0.17510486 0.032697506 -0.060420092 0.17537688
0.079839595 -0.1451449 -0.033609334 -0.047448732 0.15437654 0.06125369 0.17611398 -0.15499344
0.198777 0.28124052 0.24382618 -0.12460144 0.24513966 0.16583015 -0.034013636 -0.14850524
0.11824862 0.20011407 0.01623737 0.1352692 0.088594 -0.10822602 0.11489924 -0.052402645
-0.039543007 0.033141974 0.015064425 -0.039984304 0.09960184 0.045381766 0.027749129 -0.08694169
-0.17264128 0.012186999 -0.02850772 -0.14109059 -0.11413503 0.113774456 -0.106295615 0.10560079
-0.036423724 0.12025174 0.053199958 0.23150489 0.075522676 0.22484192 -0.010174821 0.0796491
0.118692525 0.07102726 0.15994291 -0.054580092 0.19633639 0.25872317 -0.13234487 0.16653016
-0.01843672 0.1431664 0.022131922 0.03336714 0.118447855 -0.38487288 -0.0032692058 0.20925653
0.0025430894 -0.03605095 0.26758686 -0.022173736 -0.024069784 0.104601026 -0.019218858 -0.14497697
-0.14092682 -0.03900426 0.04100467 -0.3333414 0.21218318 0.07162438 -0.010044402 0.058107093
0.27191144 0.043024708 -0.062023666 0.078457065 0.24617386 0.033766713 -0.08251628 0.07738537
-0.18866885 0.011817695 0.04601287 0.11470811 0.20130089 -0.2707073 -0.07065392 0.1953934
0.17964722 0.006227336 -0.121383436 -0.07134356 -0.30045494 0.10045327 0.28138226 0.022326484
0.18972947 0.08036792 0.27004153 0.28330424 -0.015132191 -0.06536596 -0.0137827 0.20930198
0.06952897 -0.16352785 0.177489 -0.0096229175 0.18939234 -0.07566074 -0.21307626 0.07112469
-0.15649635 -0.23200352 -0.21916819 -0.026792089 -0.1468539 -0.17580271 -0.21914859 0.14560743
0.18003759 0.053238306 -0.11695217 -0.012266236 -0.23651215 -0.02880447 -0.12513344 0.06893691
-0.20061229 0.0038487385 -0.18129463 0.03660057 0.19496077 -0.13615157 0.09986222 -0.057683
-0.10796929 -0.21218963 0.19449265 0.12054953 0.05654828 0.18790513 -0.15126495 -0.18624444
-0.13060243 0.040459894 -0.13374856 -0.1807167 0.05033008 0.17039168 0.14120571 0.10067967
-0.1816493 -0.077261746 0.14147374 0.016326409 -0.19286649 0.057077743 -0.21019256 0.04907335
-0.08325028 -0.081763536 0.1910306 0.13264716 -0.22185196 0.10233371 0.15838368 0.019763693
0.1609914 -0.04094406 0.070898764 0.21890934 -0.09046844 0.112450846 0.18870272 0.16838594
0.08319254 -0.18299928 0.13669945 0.082483724 -0.12101669 -0.11896175 0.18376279 0.08042494
0.2133136 0.20691137 -0.037112523 -0.07513065 -0.054157294 0.16510072 0.0026187517 0.018900748
0.15593031 0.2050238 -0.15762337 -0.056590807 0.03116392 0.04906241 0.078282945 -0.083473854
0.0753546 -0.10576086 0.1330149 -0.032282904 0.16434756 0.15434209 0.059201077 -0.15115947
-0.15103254 0.029835511 0.065448664 -0.12201347 0.15900138 0.2101755 0.118357964 0.20120387
0.23853463 -0.15675561 -0.19362864 -0.17079514 -0.1572515 0.024958175 0.12493502 0.11721158
0.05085425 -0.09373956 0.18122673 -0.0030662208 0.00683132 -0.14479508 0.23170544 0.033288654

bias f4 [64]
00000000: 7fd0 fc3d 0034 593d 8697 ca3d 5876 d23d
00000010: 82ae 343d e003 c53d 4af6 14bd dff9 4c3c
00000020: 7647 b2bd 0c50 b53d 3c59 313c 5139 c73c
00000030: dee8 44bd 0ebc 55bd 7a6e 113e b315 d6bd
00000040: 43df 10bd d256 87bd 5656 b93d 910a 123e
00000050: 126b 2d3d 000c 5d3d 3f51 033e 995a 6dbd
00000060: fe98 903d 7914 983d 7d0a 623c 8d7b c33b
00000070: 61f6 b8bc e22c 0b3d ab06 44bd 27f3 5dbc
00000080: ee92 973c 3207 1b3c 65f8 6fbd 3df4 b43d
00000090: bb82 51bc 8e9f 4fbc 101b 303c 8958 043d
000000a0: 70d1 6fbd 2ba4 303c 68b8 80bc a4e7 65bc
000000b0: 1bae a63d d130 0f3e 93f2 073e 614f c73d
000000c0: 07c6 c93d da9f 3abc 0911 563b b181 06bf
000000d0: e7d5 373c 1062 c73d a7ef 163d c040 a83d
000000e0: e8e6 babe fb8d ad3d c8ea a6bd b124 a63d
000000f0: e86d b2bd 69e4 963d 1849 003e b520 bd3d
0.12344455 0.053028107 0.09892182 0.102764785 0.044111736 0.0961988 -0.036367692 0.012510746
-0.08705036 0.08853158 0.010824498 0.024319323 -0.048073642 -0.052181296 0.142023 -0.104533575
-0.03536917 -0.066083565 0.090496704 0.14261843 0.04233844 0.053966522 0.12823962 -0.05794773
0.07060431 0.0742578 0.013796446 0.005965656 -0.02257842 0.03397835 -0.04785792 -0.013546742
0.018502679 0.009462165 -0.058586497 0.08835647 -0.012787516 -0.012672318 0.01074864 0.032310996
-0.058549345 0.010781328 -0.015712932 -0.014032278 0.08138677 0.13983466 0.13276128 0.09731937
0.09852224 -0.011390651 0.0032663962 -0.52541643 0.011220432 0.09735501 0.036849644 0.08215475
-0.36504292 0.08474346 -0.0815025 0.08112467 -0.08712369 0.073677845 0.12527883 0.09234754

weight f4 [2, 64]
00000000: f054 343e 5aee aa3e c110 89bc 9fb6 743e
00000010: c1eb 373c 5467 f2bd 6d1a 70be ffff 1e3e
00000020: ab54 b63d 3028 86be 68e2 033f 2cc9 d5bd
00000030: a12a 6cbe 5af4 b83e 53ca 6ebe 6ae1 3abe
00000040: af7f f83e 2181 9cbe f3df 8e3e 7ca7 623e
00000050: 1a2d 4c3e 1660 09bf bc4b a73e 1234 533e
00000060: d29c 263e 38d5 76be 1a11 9dbe a440 243e
00000070: 6aee 823e 7aa1 8c3e 88a5 41bd 749e 5abe
00000080: f443 1bbe 7d2b 52be 1457 39be 0182 a03e
00000090: 1f04 573c d865 a0be e49a c7bd 4d68 433e
000000a0: 626f b0bd a4c7 123e 23be 4c3e 08e1 c23e
000000b0: 0498 53be b5cb c8bd d364 953c ed42 fabd
000000c0: b992 54be 74b5 273e 5ee0 73bd 1661 083f
000000d0: b138 01bc ee39 8cbe f841 b93d ca7c 823e
000000e0: e2c0 293f af8e fbbd d4b9 91be 26bd 473e
000000f0: 4470 be3d 2733 5cbd 07bd 983e b1b7 10be
00000100: 044c bfbb 0066 58be b81a 883e 26b5 37be
00000110: 4b65 98be 6d38 183e 3b33 9fbd e78a ffbd
00000120: 722b 7e3e 22ff 113e 990b 10bf 2727 d83c
00000130: 92a2 aa3e ea2e 59be 5d3b b3be 29b0 593e
00000140: 20fe 0bbe 3220 c13e d611 983d 7c4c 9fbd
00000150: afd8 dfbe 98ef 923e 0f2f 8cbd 8cb2 bdbe
00000160: ada8 35be ffd4 46be e45b e33c 43a7 d6bd
00000170: 4269 babe 9e66 7f3e 4361 1f3d ecab 5c3e
00000180: 9330 d33e 0c5b 883e b835 843d cf9e 95be
00000190: 9a2a 8e3e d1fd b43d 7ac7 913e 3ca3 59be
000001a0: 7851 b83e c58d 22bd 6c46 953e 4a3e a3be
000001b0: 315f d73e 4d82 8abe a5ea 9cbe 6aa6 c0be
000001c0: 1445 a0bc 2d63 87be 0d00 ae3e 604e debe
000001d0: 9e60 2fbe b49e 1d3f d029 6f3e 8969 8ebe
000001e0: 73cc 41be 62f9 79bd eadb a83e a18b 00be
000001f0: 240c 473e 8368 8d3e 0989 dfbd 6b1f a5bd
0.17610526 0.33384973 -0.016731622 0.2389779 0.011225642 -0.118361145 -0.2344758 0.15527342
0.08902868 -0.26202536 0.51517344 -0.10438761 -0.23063137 0.36123925 -0.23319368 -0.18250051
0.48534915 -0.30567268 0.27905235 0.22134203 0.1993908 -0.5366224 0.32674968 0.20625332
0.1627076 -0.24104774 -0.3067711 0.16040283 0.2557252 0.27466947 -0.047277004 -0.21349508
-0.15162641 -0.20524402 -0.18099624 0.31349185 0.013123541 -0.313277 -0.0974634 0.19082756
-0.086149946 0.1433397 0.19994406 0.3806231 -0.20663458 -0.09804479 0.018236553 -0.12219796
-0.20759095 0.16377813 -0.059540145 0.5327314 -0.007887051 -0.27387947 0.09045786 0.25485831
0.6630994 -0.12283074 -0.28462088 0.19505748 0.09298757 -0.05375972 0.29831716 -0.14132573
-0.005837919 -0.2113266 0.26582885 -0.17940196 -0.2976478 0.14865275 -0.07773443 -0.124776654
0.2482126 0.14257482 -0.56267697 0.026385857 0.33327156 -0.21209303 -0.35006228 0.21258606
-0.1367116 0.37719876 0.07425277 -0.0777826 -0.43720004 0.2869842 -0.06844913 -0.37050283
-0.17740126 -0.19417189 0.027753778 -0.104811214 -0.3640843 0.24941489 0.038911115 0.21549958
0.41247997 0.26631963 0.064555585 -0.29222724 0.27766877 0.08837474 0.284725 -0.21253675
0.35999656 -0.039685983 0.2915529 -0.3188346 0.42064813 -0.27052537 -0.3064777 -0.37626964
-0.019564189 -0.26442853 0.33984414 -0.4341917 -0.171267 0.61570287 0.23355794 -0.27814892
-0.18925647 -0.061028846 0.3298028 -0.12553264 0.19438225 0.276188 -0.10914809 -0.08062633

bias f4 [2]
00000000: 3278 393d 8214 953b
0.045280643 0.004549564
