trained_models/model6.pt (torch_old, 5053 bytes, 6 tensors)

weight f4 [5, 5]
0.08244262 0.008327655 -0.5928181 -0.5722718 0.40179902 0.7068259 0.55962235 -0.7090398
0.517037 -0.5401088 -0.211074 0.42018557 -0.054385114 -0.2883255 0.43407804 -0.6247906
0.05597832 0.3127699 -0.26425195 -0.22614107 0.32404244 -0.38756678 -0.34803614 0.48262772
-0.6153401
00000000: add7 a83d b770 083c edc2 17bf 6880 12bf
00000010: 9ab8 cd3e 8bf2 343f 6943 0f3f a283 35bf
00000020: 895c 043f 9244 0abf c823 58be 9022 d73e
00000030: edc2 5ebd 669f 93be 7a3f de3e 47f2 1fbf
00000040: 8649 653d 6023 a03e 084c 87be 8691 67be
00000050: e4e8 a53e 276f c6be cb31 b2be fb1a f73e
00000060: ee86 1dbf

bias f4 [5]
0.09054101 0.04750477 0.2217758 0.38344747 0.060732093
00000000: 916d b93d 5d94 423d 3219 633e 3a53 c43e
00000010: 37c2 783d

weight f4 [5, 5]
-0.3739447 0.13287106 0.37311995 0.18902554 0.11379351 0.69539976 -0.74429405 -0.61737025
0.3919574 0.3883239 -0.63937044 -0.03717379 0.08069873 0.2874924 0.36166644 0.31442702
-0.6999382 -0.11619604 -0.62459445 -0.16372001 -0.53851485 0.17791106 0.62799275 -0.5082337
0.15977907
00000000: ae75 bfbe 5a0f 083e 9409 bf3e e98f 413e
00000010: 920c e93d b805 323f 0e8a 3ebf fa0b 1ebf
00000020: a4ae c83e 64d2 c63e c8ad 23bf 8b43 18bd
00000030: 6045 a53d 3432 933e 582c b93e 94fc a03e
00000040: 262f 33bf 30f8 edbd 6ce5 1fbf 38a6 27be
00000050: 1cdc 09bf 512e 363e 22c4 203f 9b1b 02bf
00000060: 209d 233e

bias f4 [5]
-0.13127442 -0.27121666 -0.07952781 -0.12246624 0.10931317
00000000: cd6c 06be e9dc 8abe 7adf a2bd 94cf fabd
00000010: 95df df3d

weight f4 [2, 5]
-0.58929014 -0.13784117 -0.861908 0.5243894 -0.049228728 0.46116713 -0.47555253 0.88303274
0.5205332 0.4623157
00000000: b8db 16bf 3c26 0dbe 01a6 5cbf 623e 063f
00000010: 10a4 49bd 191e ec3e 9f7b f3be 6f0e 623f
00000020: aa41 053f a5b4 ec3e

bias f4 [2]
0.35630155 -0.41431808
00000000: 286d b63e 8021 d4be
