trained_models/model7A.pt (torch_old, 32397 bytes, 6 tensors)

weight f4 [5, 1372]
00000000: 6055 313e d5fa 76bd 3102 a33d f4ec ee3d
00000010: b3a1 bc3d d1ff c03c 4b67 383e f1db c83d
00000020: df44 7ebd 50b7 df3d 3f94 5f3d 7db2 2d3d
00000030: 522b 793d 1867 a7be 8365 7f3d b190 3c3d
00000040: a66d 6c3d c716 053e 7017 733d 70bf dc3d
00000050: 14cf 423d 63f3 363d 86e9 233e 391a fa3d
00000060: 1550 dd3d bed1 9aba c125 dd3d daf2 6e3d
00000070: 65e6 883d 5b7c 77bc 1750 fb3d a98b 103d
00000080: 6a15 063e 392e f23d 34e8 e43d 29ef b23d
00000090: 6fc4 023e 66a2 1b3e cea5 233e 2645 323d
000000a0: a236 053e 1914 043e 0b55 1a3e e873 293e
000000b0: 6488 353e 57f9 303e 1af2 2ebd a78f bb3d
000000c0: 6167 283e a898 013e 676a fc3c e3ec 26bd
000000d0: 84eb d13d 9eb5 5dbd 68f8 bf3d b656 043e
000000e0: ddec 0dbd a913 003e 5477 0c3d 0f25 1e3e
000000f0: 9e73 9b3d 1222 a23d cc54 6d3d d90f a63d
00000100: 7268 0f3e c3b2 303e 5ebe 3cbe 457d fa3d
00000110: 7be8 173e 84eb 5bbd 70cc d63d 12d5 db3d
00000120: 82b2 f33d 9aa2 36be e90e d63d 7fe7 843d
00000130: c7ba 553d b3a3 13bc c397 fa3d a97b 613e
00000140: 2aba a13d ed69 b33d 8760 873d 94f0 453d
00000150: 748f 943d 3553 9d3d 0143 2b3c 4209 0c3d
00000160: 6a7f 603e 5781 9fbc c21a 2d3e 1b49 2bbe
00000170: 7c73 ef3d 8d7d b53d 196f 9f3d edfe 963d
00000180: 18cc ac3d 5d8d 233e a483 373e 72db 773d
00000190: a81b 303e 5257 84bb 9252 033e c32e ed3d
000001a0: 1be9 bb3d 9938 2f3d 4e87 a33d 0a48 083e
000001b0: 9af0 24be 34c7 b63d 54ab 063e 795d 3e3e
000001c0: 8758 843d a079 e53c e8fe bd3d 8f39 b33d
000001d0: 0262 843d 83a9 4fbe 0220 003e ba76 0c3e
000001e0: d388 9abd 7eb9 0b3e a92e 023d 3a9f 093e
000001f0: b7bb 9f3d 3427 8fbe d54b 893d 7d11 843d
00000200: 1954 da3c 434d ed3d bda6 013e 953b fbbd
00000210: 24f0 8f3d a7ac ddbd 1e9b 26b9 6f69 3e3e
00000220: 437d b9bd 26bc b33d afef be3d e6e6 8e3c
00000230: aef0 c03d 7697 8ebd 1735 873d 3acc 583e
00000240: bf88 a43d 568e 3a3d 0fbe 2a3e da61 8c3d
00000250: 7b62 17bc c69d 813d 5916 4b3e d411 ef3d
00000260: 83c6 bc3d 4c30 9a3d f2c2 c43d fd0c c63d
00000270: 9317 843d f668 f73d 50ff 343e 432a 2e3e
00000280: 3170 053d 622e 2d3c 71b4 6b3d 6021 b63c
00000290: c313 eb3d 373b b73d dd77 373e 2916 e93d
000002a0: 860e bb3d 9860 c63d f400 a83d bad0 8ebe
000002b0: 3b93 563b 04fb f13d d551 9f3d f521 d73d
000002c0: fa95 5e3d 091c 483e 5386 233e f0a2 1ebe
000002d0: c3ea 76bd fe59 363e 49a6 e23d 45ab ed3d
000002e0: cdaf 2f3e 0093 c93d d138 c13d d969 673d
000002f0: 956c 273e ad98 71be 6383 723c 966d b83d
00000300: 0c1e b13d 4e4f 8f3d 417e 35be afe9 b43d
00000310: e0ab 153c 8322 d03c 7010 463d 5d96 fd3c
00000320: 5922 bc3d f574 033e 98db e23d fa4e 3f3e
00000330: 5a32 3dbe 1d71 b73a 351e 873d 29e5 133e
00000340: 5c0c f4bc 67f3 fd3d cae1 ad3d 1570 4dbb
00000350: b45d 283e 34d8 d53b 61ba 233e 2fed 983d
00000360: f904 df3c bf80 8b3d e6c5 d13d bbaa 2c3c
00000370: 0400 f73d d7cd 99bd 2360 373d 9ffa 5c3e
00000380: ee27 7abb 08b6 023e 75f2 58bc 8235 ed3d
00000390: 8d91 b53c 78c8 0d3e 78c5 de3d e8aa c8bd
000003a0: b91f 943d 97b7 8c3c aba1 353e 48d0 193e
000003b0: 21a2 8e3b 0424 6e3d 82a7 043d e2be 823d
000003c0: b669 093e 87bc 2d3c b22a 433d 44b4 fe3d
000003d0: db04 ab3c c0ee a43d 057a 85bd 43a3 363e
000003e0: f722 273c 2eca a23d 66f4 e73c 493c 2fbd
000003f0: f40e 283e 51ff d33d de56 0d3e 623d d73d
0.17317724 -0.060297806 0.07959402 0.11666289 0.09210529 0.023559483 0.18008153 0.098075755
-0.0620774 0.10923636 0.054584738 0.042406548 0.06083233 -0.32695842 0.06235267 0.046036426
0.057721756 0.1299697 0.059348524 0.10778701 0.047560766 0.044665705 0.16007051 0.12212033
0.1080629 -0.0011811776 0.107982166 0.05833707 0.06684569 -0.015105332 0.12271135 0.03528944
0.13094106 0.118252225 0.11177102 0.087370224 0.12770246 0.15198669 0.15981218 0.043522976
0.13009122 0.12898292 0.15071504 0.16548121 0.1772781 0.17282616 -0.042711355 0.09158259
0.16445686 0.1265589 0.030812455 -0.040753257 0.10249999 -0.05412828 0.093735516 0.12923703
-0.03464972 0.125075 0.034293488 0.15443824 0.075904116 0.07916655 0.057942197 0.081084915
0.14004686 0.17255692 -0.18431994 0.122309245 0.14834778 -0.053691402 0.10488212 0.10733999
0.11899282 -0.17835465 0.10452063 0.06489467 0.052180078 -0.009011197 0.122359775 0.22019829
0.07896836 0.08760438 0.06610208 0.048325136 0.07253924 0.07681886 0.010452987 0.034188516
0.21923605 -0.019470854 0.16904739 -0.16727106 0.11691949 0.088618375 0.07784862 0.07372842
0.08437365 0.15971895 0.1792131 0.060512014 0.1719805 -0.0040387297 0.12824467 0.11581185
0.09175321 0.042778585 0.07984792 0.1330873 -0.16107407 0.08924714 0.13151294 0.18590344
0.06462198 0.028012097 0.09277135 0.08751213 0.06464006 -0.20279507 0.1251221 0.13717166
-0.075456284 0.13644978 0.03178278 0.13439646 0.07799476 -0.27959597 0.06703917 0.06448648
0.026651429 0.11587002 0.12661262 -0.12267224 0.07028225 -0.108239464 -0.0001588878 0.18594907
-0.09057095 0.08776121 0.0932306 0.017444085 0.09420906 -0.06962483 0.06601923 0.21171656
0.08033895 0.0455459 0.16674064 0.06854601 -0.009239788 0.06328921 0.19832744 0.11673322
0.092175506 0.07528743 0.09607495 0.09670446 0.06449809 0.120805666 0.17675519 0.17008309
0.032577697 0.010570141 0.05754513 0.022232711 0.114783786 0.08946841 0.17916818 0.1138118
0.091336295 0.096863925 0.08203307 -0.2789362 0.0032741565 0.118154556 0.0777928 0.10504524
0.054342248 0.19541945 0.1596921 -0.15491843 -0.06028248 0.17807767 0.110668726 0.11604933
0.17156906 0.09842491 0.09434665 0.05649743 0.16350015 -0.23593397 0.014801833 0.09005277
0.08648309 0.06997548 -0.17723943 0.08833634 0.0091352165 0.025407081 0.04835552 0.030955488
0.09186239 0.12837584 0.110770404 0.18682471 -0.18476239 0.0013995502 0.065975584 0.14442886
-0.02979105 0.12399941 0.084903315 -0.0031347324 0.16441995 0.0065260176 0.15989067 0.07467114
0.02722405 0.06811666 0.10242824 0.010538752 0.1206055 -0.07509964 0.044769417 0.2157998
-0.0038170773 0.12764752 -0.0132414 0.115824714 0.02216413 0.13846004 0.10877508 -0.09798223
0.07232613 0.017177386 0.17737453 0.15020859 0.0043528234 0.058139816 0.03238631 0.06384064
0.13419232 0.01060403 0.04764814 0.12436727 0.020876339 0.080533504 -0.06517414 0.17835717
0.010201207 0.07948719 0.02831478 -0.0427821 0.16411954 0.10351432 0.13802668 0.10509755

bias f4 [5]
00000000: 868a 733e 2d76 c13e fb00 aebe 7aa7 953e
00000010: 8acc 7abe
0.23783311 0.37785473 -0.33985123 0.29229337 -0.24492088

weight f4 [5, 5]
00000000: 37c0 98bd 85e6 933e 786f 303e 9f4a 003e
00000010: f82a 6ebf 2e10 bebe ae64 23bf 5249 02bf
00000020: 7168 08bf 3a4f e63e d149 9a3e 54cd ed3e
00000030: cfdf 5bbe 78a0 3d3f e949 a5bf 4dbe fd3c
00000040: b7a0 1f3f ede8 62bf 78f6 413f 196d 6a3e
00000050: bda3 2e3f 3360 c63e d5ed 64bf d654 313f
00000060: fcac 8cbe
-0.07458537 0.2888681 0.17230022 0.12528466 -0.93034315 -0.3712172 -0.638255 -0.5089313
-0.53284365 0.4498232 0.30134442 0.46445715 -0.21472095 0.7407298 -1.291318 0.030974532
0.62354606 -0.88636667 0.75766706 0.2289318 0.68218595 0.3874527 -0.894254 0.69270074
-0.27475727

bias f4 [5]
00000000: fdf7 593e 8123 c9be 5572 2f3e a79c a93e
00000010: 29b2 5c3e
0.21286006 -0.392849 0.17133458 0.3312733 0.21552338

weight f4 [2, 5]
00000000: 3bbc 2d3f d767 a6be 40bd 033d 8b93 2abe
00000010: 0052 8a3e 6902 87bf d55a 043f 7d4f 05bf
00000020: d120 04bf d347 8dbf
0.6786534 -0.325011 0.032162905 -0.16657846 0.27015686 -1.054761 0.517011 -0.52074414
-0.51612574 -1.1037544

bias f4 [2]
00000000: 565b 4d3c aeac aa3c
0.012533983 0.020834293
