trained_models/model7D.pt (torch_old, 185007 bytes, 6 tensors)

weight f4 [32, 1372]
0	0x3d1fafb7	0.038985934
1	0xbdc3d436	-0.095619604
2	0xbc852510	-0.016253024
3	0x3ccd66a7	0.025073363
4	0x3c926cfd	0.017874235
5	0xbe31ac11	-0.17350794
6	0x3cc83ad6	0.024442118
7	0x3d0e7a5c	0.03478466
8	0xbd63461e	-0.05548679
9	0x3ce33fac	0.027740322
10	0xbdac9686	-0.084271476
11	0xbcb3a758	-0.021930382
12	0xbcf69a73	-0.030102944
13	0x3d9c6175	0.07635776
14	0x3c046c4f	0.008082463
15	0x3d24b820	0.040214658
16	0xbdd03f7a	-0.10168357
17	0xbd7f6467	-0.06235161
18	0xbd58263b	-0.052770834
19	0x3d3cd821	0.046104554
20	0xbd3fe930	-0.046853244
21	0xbc9888a2	-0.01861984
22	0x3d07037c	0.032962307
23	0x3d440dd5	0.047864754
24	0xbd62dced	-0.055386472
25	0xbaf9699b	-0.0019028665
26	0xbc79c5ed	-0.015244943
27	0xbd543782	-0.05181075
28	0xbae6b965	-0.0017602859
29	0xbd9252d8	-0.071447074
30	0x3d4fd495	0.050739843
31	0x3d06523f	0.03279328
32	0xbdb3a815	-0.087722935
33	0xbc1448b3	-0.009050536
34	0xbd896411	-0.06708539
35	0xbd806b4a	-0.06270464
36	0xbc42c19b	-0.011886979
37	0x3d40dfb3	0.047088336
38	0x3c970a9c	0.018437676
39	0xbc59e602	-0.013299467
40	0xbe02bc2a	-0.12767091
41	0x3d08f002	0.033432014
42	0xbb5ae287	-0.003339918
43	0x3ce843de	0.028352674
44	0x3d070dde	0.03297221
45	0xbdb5fe61	-0.088864096
46	0x3d33384f	0.043754872
47	0xbd564ce7	-0.052319434
48	0xbc9e443b	-0.019319644
49	0x3c0437ab	0.008069913
50	0xbd677034	-0.05650349
51	0xbe216499	-0.15761031
52	0xbd472373	-0.04861779
53	0x3c141406	0.009037977
54	0xbca6d1d5	-0.020363728
55	0xbc3dce79	-0.011584871
56	0xbc40d431	-0.01176934
57	0x3c20b6f4	0.009809244
58	0xbd1bf6ab	-0.038077038
59	0xbc334372	-0.010941373
60	0x3cd872ae	0.026421871
61	0xbd9761ee	-0.073917255
62	0x3b038080	0.0020065606
63	0x3c9681b0	0.018372387
64	0x3d8f8c04	0.07009128
65	0x3cf7801a	0.03021245
66	0x3d0d3c6b	0.034481447
67	0x3d1ad13b	0.037797194
68	0x3cc25096	0.023720067
69	0x3d007791	0.031364027
70	0xbd844695	-0.06458775
71	0xbb85d415	-0.00408412
72	0xbc704a01	-0.014666081
73	0x3c77bd84	0.015120868
74	0x3d52dabc	0.051478133
75	0xbda3463e	-0.07972382
76	0x3c023bba	0.00794881
77	0x3e29815d	0.16553254
78	0xbd3e0fec	-0.046401903
79	0xbd54196e	-0.051782064
80	0x3a9cb084	0.0011954461
81	0xbcf40db2	-0.029791687
82	0xbb0dafd2	-0.002161969
83	0x3d335137	0.043778624
84	0xbd7c317c	-0.06157063
85	0x3d141a64	0.03615798
86	0x3c2892cb	0.010288904
87	0xbc26ca82	-0.010180118
88	0x3c59e74b	0.013299773
89	0xbc26ff0e	-0.010192646
90	0xbdc53c27	-0.09630614
91	0x3d934456	0.071907684
92	0xbd5ac84b	-0.05341367
93	0x3d341aa2	0.04397071
94	0xbd14b80a	-0.036308326
95	0xbdbbc651	-0.09168685
96	0xbd0e80a6	-0.034790657
97	0x3c5a3de5	0.013320421
98	0x3c039c52	0.008032875
99	0xbc2352bd	-0.009968457
100	0x3b66b8ed	0.003520544
101	0xbc92e208	-0.017930046
102	0x3de4d007	0.111724906
103	0x3b0c694d	0.002142507
104	0x3cd8b22d	0.026452148
105	0xbc3049cf	-0.010759785
106	0xbd56eb8d	-0.052470732
107	0xbc7feced	-0.015620452
108	0xbd85f900	-0.065416336
109	0xbd5c0cee	-0.05372327
110	0x3cd3fec3	0.025878316
111	0x3c076008	0.008262642
112	0xbd968956	-0.073504135
113	0xbcd7b57d	-0.026331658
114	0xbc9e62d5	-0.019334236
115	0xbe4234b1	-0.18965413
116	0x3d3c7f81	0.046020035
117	0xbd2c7c32	-0.04211063
118	0x3d385b1f	0.045008775
119	0x3cf3ba05	0.029751787
120	0xbe4c17dd	-0.19930978
121	0xbd5f47a4	-0.05451168
122	0xbd01ebfa	-0.031719185
123	0xbd39ff25	-0.04540934
124	0x3d18ea6f	0.03733295
125	0x3deeb37c	0.11655328
126	0x3d172548	0.03690079
127	0x3d85431e	0.06506942
128	0x3b199c8f	0.0023439263
129	0xbcbaf5e4	-0.022822328
130	0xbd2abb02	-0.04168225
131	0x3dc575c2	0.09641601
132	0x3ccfde28	0.025374487
133	0xbd71c34b	-0.059024137
134	0xbd8ace5c	-0.06777641
135	0xbc97552e	-0.018473234
136	0x3d87b1f3	0.06625738
137	0x3d301517	0.042988863
138	0xbd6e174d	-0.05812769
139	0x3b9ffca8	0.004882414
140	0xbc85b691	-0.016322406
141	0x3d901d2f	0.07036816
142	0x3d2cf490	0.04222542
143	0xbd02fa77	-0.031977143
144	0xbd77d35d	-0.060504306
145	0x3bb658b9	0.005564776
146	0xbcd9d933	-0.026592826
147	0xbcf94d48	-0.030432358
148	0xbd8b98a0	-0.0681622
149	0x3d18ed92	0.03733594
150	0xbccbaf37	-0.024863822
151	0x3c988085	0.01861597
152	0xbd7f4490	-0.062321246
153	0xbdb6cd34	-0.08925858
154	0xbd825e4f	-0.06365644
155	0xbcb40b14	-0.021977939
156	0x3cbda331	0.023149105
157	0xbd286789	-0.041114364
158	0x3d85cd1c	0.06533262
159	0xbcf8c03e	-0.030365106
160	0xbd54a7c1	-0.051917795
161	0xbda8a227	-0.08234053
162	0x3ca4adb5	0.020102361
163	0x3c034104	0.008011106
164	0xbdc09d01	-0.09404946
165	0xbdd05b3a	-0.1017365
166	0xbd07c638	-0.03314802
167	0xbd1963fb	-0.037448864
168	0xbd6e2426	-0.058139943
169	0xbd1a5049	-0.037674222
170	0xbd52191a	-0.05129347
171	0x3e70b10f	0.23505042
172	0x3c35a5db	0.011086906
173	0x3ccd3951	0.025051745
174	0x3d8c1be0	0.06841254
175	0x3d86db2a	0.06584771
176	0x3ac4fd5d	0.0015029121
177	0xbbe6cf28	-0.007043738
178	0x3c52bb77	0.012862078
179	0x3c9c4198	0.019074246
180	0x3e8c5383	0.27407464
181	0xbbb2e859	-0.005459827
182	0x3d2df4ac	0.042469665
183	0x3d0b584a	0.034019746
184	0xbcd80e22	-0.026373927
185	0xbc4a03c0	-0.012329996
186	0xbc1ae51a	-0.009454036
187	0xbc268f7d	-0.010166046
188	0x3c72c5e3	0.014817688
189	0xbb569f27	-0.003274867
190	0x3d8ea981	0.06965924
191	0xbd8a3cc2	-0.0674987
192	0xbc987d8e	-0.018614557
193	0x3d67bba6	0.05657544
194	0x3d987684	0.0744448
195	0x3e22131c	0.15827602
196	0xbca1e342	-0.019761685
197	0xbc8f2625	-0.017474243
198	0x3da49b91	0.080374844
199	0xbc42dfcc	-0.011894178
200	0xbc76d185	-0.015064602
201	0x3d21aac3	0.03946949
202	0x3c4582ee	0.012055142
203	0xbc29166d	-0.010320288
204	0x3dd4788d	0.10374556
205	0xbd8778d4	-0.06614843
206	0x3d067401	0.032825474
207	0xbdf13430	-0.11777532
208	0xbc6353cd	-0.01387496
209	0xbd3793a7	-0.044818547
210	0xbd8acf58	-0.06777829
211	0xbc1e160a	-0.009648809
212	0x3d08658b	0.033299964
213	0x3c8501f9	0.016236292
214	0xbc8a2344	-0.01686252
215	0x3d18076e	0.03711646
216	0xbe322907	-0.17398463
217	0xbdb1ca9c	-0.08681223
218	0xbda6dbb7	-0.08147376
219	0xbe0658b0	-0.13119769
220	0xbdda121c	-0.10647985
221	0xbd80cd7c	-0.06289193
222	0xbd083d96	-0.033261858
223	0xbdd9c5d5	-0.106334366
224	0x3d444d88	0.047925502
225	0x3c7fa3cb	0.015603016
226	0xbe195baf	-0.14976381
227	0x3cb68469	0.022279935
228	0xbb8b9191	-0.004259296
229	0x3d5c7b5a	0.053828575
230	0xbbdf3f56	-0.00681297
231	0x3e142b05	0.14469536
232	0xbc80a7b8	-0.015704975
233	0x3b603ab2	0.0034214673
234	0x3ca9375f	0.020656286
235	0x3d61f40c	0.05516438
236	0x3d2e159f	0.04250109
237	0x3dc2d2eb	0.09512886
238	0xbddb9395	-0.107215084
239	0xbc1f04ca	-0.009705732
240	0xbdc44986	-0.09584336
241	0x3cdf0038	0.027221784
242	0xbe25b535	-0.16182406
243	0x3b826f1c	0.0039805304
244	0x3d5335d3	0.051565003
245	0xbd31caee	-0.04340642
246	0xbdc3b954	-0.09556833
247	0xbda18774	-0.07887164
248	0xbd05e0cf	-0.032685097
249	0xbc3d9b3d	-0.011572656
250	0xbdc8022a	-0.09766038
251	0xbcf63298	-0.030053422
252	0xbca40a9b	-0.020024588
253	0x3c03d51d	0.008046416
254	0xbc67fffa	-0.014160151
255	0xbce2874e	-0.027652409

bias f4 [32]
0	0xbd01f6f3	-0.03172965
1	0x3e18f9a5	0.14938982
2	0x3da597e5	0.08085612
3	0x3dfa6bc5	0.12227587
4	0xbda3398b	-0.0796996
5	0xbdc1b738	-0.09458774
6	0x3d96341f	0.0733416
7	0x3e176320	0.14783907
8	0x3e249682	0.16073039
9	0x3d87efd2	0.06637539
10	0x3da462b0	0.08026636
11	0x3d8c32cf	0.068456285
12	0x3e28f13a	0.1649827
13	0x3dba27dd	0.090896346
14	0x3da20ee1	0.07912994
15	0xbcfe644c	-0.031053685
16	0x3df83fca	0.12121542
17	0x3dc1e700	0.09467888
18	0xbdbcc329	-0.09216911
19	0x3e19ca4a	0.15018573
20	0x3d9bcc24	0.07607296
21	0x3e241b77	0.16026102
22	0xbc2296da	-0.009923661
23	0x3df840e8	0.12121755
24	0xbcf968ac	-0.03044542
25	0x3d9b5e9f	0.07586407
26	0x3da2e9a7	0.07954722
27	0xbd5fb93f	-0.054620024
28	0xbcc5f55b	-0.024164846
29	0x3e021d2f	0.12706445
30	0x3d60280b	0.054725688
31	0x3e0bf136	0.13666233

weight f4 [32, 32]
0	0xbe1090d5	-0.14117749
1	0x3eb7dff8	0.35913062
2	0xbcc647e1	-0.024204196
3	0xbe2458a4	-0.16049439
4	0x3e44b61c	0.19210094
5	0x3ea18300	0.31545258
6	0xbe304672	-0.17214373
7	0x3d585f9c	0.052825555
8	0xbdc8e9cf	-0.098102205
9	0x3e8aff02	0.2714768
10	0x3df2228a	0.11822994
11	0x3e64770d	0.2231104
12	0x3e9fe138	0.31226516
13	0xbc4aa2a5	-0.012367879
14	0x3e427318	0.18989217
15	0x3e6f3e47	0.233636
16	0x3c2337c9	0.009962031
17	0x3e37c086	0.17944536
18	0x3eb0481f	0.34430024
19	0x3e71e64e	0.2362301
20	0xbe18eb8e	-0.14933607
21	0x3e8a1c7f	0.26974866
22	0xbea6a041	-0.3254414
23	0x3ea95b61	0.3307753
24	0x395f0b89	0.00021271234
25	0xbddfe9b7	-0.109332494
26	0x3d2573d4	0.040393665
27	0x3ecf828a	0.4052928
28	0xbedf0344	-0.4355718
29	0xbe652b49	-0.22379793
30	0xbe5b3b53	-0.21409349
31	0xbe94c870	-0.29059172
32	0x3e26ea8b	0.16300409
33	0x3c598d7d	0.013278362
34	0x3e490c9e	0.1963372
35	0xbe6b3d5a	-0.22972623
36	0x3d8ae119	0.06781215
37	0x3e13fd3f	0.14452074
38	0xbe4690f4	-0.19391233
39	0xbe6a0827	-0.22854672
40	0x3e9cd5b4	0.30631793
41	0x3c94969d	0.018138224
42	0xbe9daf13	-0.30797634
43	0x3e2ef8fa	0.17087165
44	0xbf07f27f	-0.53104395
45	0xbdabece0	-0.0839479
46	0xbdb46d3f	-0.088098995
47	0xbe85f22d	-0.26161328
48	0xbeb960d5	-0.3620669
49	0x3dd86a5c	0.105671614
50	0x3eb79afe	0.35860437
51	0x3ebc681d	0.36798182
52	0xbda5d48d	-0.080971815
53	0x3e4aecd4	0.19816905
54	0x3e38101a	0.17974892
55	0xbe263954	-0.16232806
56	0xbe656ccd	-0.22404785
57	0xbeb11847	-0.34588835
58	0x3e0442fa	0.12916175
59	0x3f00a895	0.50257236
60	0x3e6e0aae	0.23246261
61	0xbcd225a9	-0.025652723
62	0x3dc6fd50	0.09716284
63	0xbe84101f	-0.2579355
64	0x3d80fb5b	0.06297942
65	0xbe4c567f	-0.1995487
66	0x3e351169	0.17682423
67	0xbcfba541	-0.030718448
68	0x3e3eabaa	0.18620172
69	0x3e448184	0.19190031
70	0xbd7ad48a	-0.06123785
71	0x3e92e0d7	0.28687164
72	0xbdbda04e	-0.09259091
73	0xbd3d836e	-0.04626792
74	0x3eab8008	0.33496118
75	0xbe53cf18	-0.20684469
76	0xbcf3f2b3	-0.029778814
77	0x3dac3453	0.084084176
78	0x3dc4fb41	0.096182354
79	0xbd4befa1	-0.049789075
80	0x3e4501ac	0.19238919
81	0x3e9dba9c	0.30806434
82	0xbe90b580	-0.28263474
83	0xbddb18c7	-0.10698085
84	0x3e1a0244	0.15039927
85	0xbdb537fe	-0.0884857
86	0x3e24a0e7	0.16077004
87	0x3e0e4ed0	0.13897252
88	0x3e9f0920	0.3106165
89	0x3d1e60a8	0.038666397
90	0x3db08e1a	0.08620854
91	0x3e40a786	0.18813905
92	0x3e2f76a7	0.17135106
93	0x3e3e74a7	0.18599187
94	0x3e36585e	0.17807147
95	0x3e2f305c	0.17108291
96	0xbe9751eb	-0.29554686
97	0x3e7181ea	0.23584715
98	0x3ea0e8e6	0.31427687
99	0x3df1dd39	0.11809773
100	0xbea38758	-0.31939197
101	0xbe239ad9	-0.15977038
102	0x3eccb32b	0.39980444
103	0x3e7f3247	0.24921523
104	0x3e807d74	0.25095713
105	0x3e5dec9b	0.21672289
106	0x3e929a9e	0.2863359
107	0x3eabcbed	0.3355402
108	0x3da197cb	0.0789028
109	0x3e8ed090	0.27893496
110	0x3dded628	0.10880691
111	0xbea390d0	-0.3194642
112	0x3e21447f	0.15748785
113	0xbe171982	-0.14755824
114	0xbea313c6	-0.31851023
115	0x3ea1a1cf	0.31568763
116	0xbd2d76d2	-0.042349644
117	0x3e883a33	0.26606902
118	0x3eba4f38	0.36388564
119	0x3c2057e8	0.0097865835
120	0x3dbc5eaf	0.09197747
121	0x3d0f902c	0.035049602
122	0xbde4eaae	-0.11177574
123	0xbeaa6944	-0.33283436
124	0xbdd1b54d	-0.102396585
125	0x3e90b26c	0.28261125
126	0x3ecbb1ba	0.39784032
127	0x3e96cade	0.2945165
128	0xbca7212c	-0.02040156
129	0xbe768e28	-0.24077666
130	0xbdfb86cd	-0.122815706
131	0x3de0d934	0.10978928
132	0xbe853a85	-0.2602121
133	0x3e7e1ce1	0.24815704
134	0x3e948ec5	0.29015175
135	0x3d6168ae	0.05503147
136	0x3ec69e7d	0.38792792
137	0x3deeeaa7	0.1166585
138	0xbe271fb8	-0.16320693
139	0x3e64d4ce	0.22346804
140	0x3e3d22c3	0.18470292
141	0x3eb65e63	0.35618886
142	0x3d83712c	0.0641807
143	0x3d648dda	0.055799343
144	0x3e219e51	0.15783049
145	0x3dfad24a	0.12247141
146	0x3bbf589c	0.0058394205
147	0x3e1c907b	0.1528949
148	0x3e085161	0.13312294
149	0x3ebafabe	0.36519426
150	0x3e4c0090	0.1992209
151	0xbcaea268	-0.021317676
152	0x3e56d7be	0.20980737
153	0x3eb3437c	0.35012424
154	0x3e73168c	0.2373907
155	0xbe3099a8	-0.17246115
156	0x3ea5ec6e	0.32406944
157	0x3ea7745b	0.3270596
158	0x3e5e1b3d	0.21690078
159	0x3e3161a6	0.17322406
160	0xbd29bfcc	-0.041442677
161	0xbe1538f2	-0.14572504
162	0x3dd757da	0.10514803
163	0x3db7eaf2	0.08980359
164	0x3ded3a50	0.11583388
165	0x3d90bb6f	0.07067
166	0x3e8c2ded	0.2737879
167	0xbd45649d	-0.048191655
168	0xbe9434b4	-0.2894646
169	0xbdb7e409	-0.08979041
170	0xbe469b43	-0.19395165
171	0x3e9158a4	0.2838794
172	0x3d8ad920	0.067796946
173	0x3ca1f523	0.01977021
174	0xbe9286a9	-0.28618363
175	0xbe9caa36	-0.3059861
176	0x3e3a45b7	0.18190657
177	0x3bb61d74	0.0055577103
178	0x3e079b18	0.13242757
179	0xbe5907f3	-0.21194439
180	0x3e885bc5	0.26632515
181	0xbe87534a	-0.26430732
182	0x3cc6b717	0.024257226
183	0x3e809900	0.2511673
184	0xbb26178a	-0.002534362
185	0x3e80ba08	0.2514193
186	0x3e461313	0.19343214
187	0x3b53b2b1	0.0032302553
188	0x3d3c3d43	0.04595686
189	0x3e855fcc	0.2604965
190	0xbdf91bf6	-0.12163536
191	0xbe7e8617	-0.24855839
192	0x3d2de3db	0.042453628
193	0x3f001447	0.5003094
194	0x3ed312d7	0.4122531
195	0x3dfbcb56	0.122946426
196	0x3e2f7a21	0.17136432
197	0xbe493f69	-0.19653095
198	0x3eb9c6ac	0.36284387
199	0x3edf2b16	0.4358756
200	0x3d06a356	0.032870613
201	0x3e015ea1	0.12633754
202	0xbc4ce7f6	-0.012506476
203	0x3dcbde84	0.09954551
204	0x3dda2b1d	0.106527545
205	0x3e645ebb	0.22301762
206	0x3e0abcc3	0.1354857
207	0xbee82c61	-0.45346358
208	0x3ecc769d	0.39934245
209	0x3ea90220	0.33009434
210	0xbed87b21	-0.4228144
211	0x3ee3dcb0	0.4450431
212	0x3df47675	0.119366564
213	0x3d03f99e	0.032220475
214	0x3ef27418	0.47354198
215	0x3ebe000d	0.37109414
216	0xbdc74368	-0.097296536
217	0x3d9909d3	0.07472577
218	0xbc81a521	-0.01582581
219	0xbec10871	-0.37701753
220	0x3d21536f	0.03938621
221	0x3da11cdf	0.07866835
222	0xbda370b4	-0.07980481
223	0x3c8a94a8	0.016916588
224	0x3e338106	0.17529687
225	0xbcf1ebf3	-0.029531455
226	0xbe1a6d45	-0.15080746
227	0x3dbedcd1	0.09319461
228	0xbe9b062a	-0.3027814
229	0xbe76b754	-0.24093372
230	0x3e96429c	0.29347694
231	0x3de739ca	0.11290319
232	0xbe11988c	-0.14218348
233	0x3e0781e2	0.1323314
234	0x3e1fe54b	0.15614812
235	0xbe34d01a	-0.1765751
236	0x3e1c7bdc	0.15281624
237	0x3ddee9b8	0.10884422
238	0x3eb6d7b7	0.35711452
239	0x3cb1a359	0.021684336
240	0x3e4ec117	0.20190845
241	0x3e332a4a	0.17496601
242	0xbea48dd2	-0.3213945
243	0x3ea45976	0.32099503
244	0x3da7e92e	0.08198772
245	0x3e48586a	0.19564977
246	0xbd408919	-0.047005747
247	0x3ea0dbac	0.31417596
248	0xbe8a6629	-0.27031067
249	0x3e0b0a60	0.13578176
250	0x3ea43206	0.32069415
251	0xbd1c99f2	-0.03823275
252	0xbe2dd941	-0.16977407
253	0x3e9614da	0.29312783
254	0x3eb7f499	0.359288
255	0x3dad4fb5	0.084624685

bias f4 [32]
0	0xbe414bee	-0.18876621
1	0xbe80d280	-0.251606
2	0x3d7abc96	0.061215006
3	0xbd4a2b6f	-0.049357828
4	0x3e148582	0.14504054
5	0xbcf05ce9	-0.029341178
6	0x3d5fcf8d	0.054641295
7	0x3df466c3	0.11933663
8	0xbbf99a21	-0.0076172506
9	0x3dde18ed	0.10844598
10	0xbe1dd4c1	-0.1541319
11	0x3d551b45	0.05202796
12	0x3d4fb92f	0.050713714
13	0x3dc5d3e2	0.09659554
14	0x3df7e08a	0.12103374
15	0x3dd2469c	0.10267374
16	0x3dae270c	0.08503541
17	0xbd40c8d3	-0.04706652
18	0xbe2f72c2	-0.1713362
19	0x3db6e1b1	0.08929766
20	0x3e0efff1	0.13964821
21	0x3e3537c5	0.17697056
22	0xbd3ad1d6	-0.04561027
23	0x3d94cb41	0.0726533
24	0x3daf66bb	0.08564516
25	0x3ba99514	0.005175242
26	0xbddb56bc	-0.10709903
27	0xbe1a2296	-0.15052256
28	0xbe53d7bb	-0.20687763
29	0x3d5a5018	0.05329904
30	0x3e2e0a1c	0.16996044
31	0xbe59397a	-0.21213332

weight f4 [2, 32]
0	0xbf03b05a	-0.51440966
1	0x3f3c4aba	0.73551524
2	0x3eb55d7e	0.3542289
3	0x3f036207	0.5132145
4	0x3e4dad55	0.20085652
5	0xbe55f31a	-0.20893517
6	0x3ee8d7ed	0.45477238
7	0xbc826847	-0.015918864
8	0x3e5cbf61	0.2155738
9	0xbe072d74	-0.13200933
10	0x3ec21a3c	0.3791064
11	0x3e6ef537	0.2333573
12	0x3ea003c2	0.31252867
13	0x3dbfac96	0.0935909
14	0x3eed7f82	0.46386343
15	0x3ea33603	0.31877145
16	0xbe392b31	-0.18082882
17	0xbde5bec9	-0.1121803
18	0x3ea81475	0.32828107
19	0x3d5b5204	0.053545013
20	0xbd2497dd	-0.04018389
21	0xbd7960ed	-0.06088345
22	0xbe5bec1e	-0.2147679
23	0xbeb4e8eb	-0.35333952
24	0x3df3e76c	0.119093746
25	0x3e9207c9	0.28521565
26	0xbea8b4d0	-0.3295045
27	0xbde5e8dc	-0.11226055
28	0xbf0a6ed8	-0.54075384
29	0x3de7dba7	0.11321192
30	0x3e52ce6e	0.20586559
31	0xbe3123fd	-0.17298885
32	0xbe4721ab	-0.19446437
33	0xbf28bbe2	-0.65911686
34	0xbe43fc25	-0.19139154
35	0x3d40c1ab	0.047059696
36	0xbeb489da	-0.35261422
37	0xbe26265d	-0.16225572
38	0xbdcb7020	-0.099334955
39	0xbe9aadea	-0.3021081
40	0xbee095f0	-0.43864393
41	0x3e1fc4ce	0.15602419
42	0x3ec39776	0.38201493
43	0xbeae61b0	-0.34058905
44	0xbddb6dda	-0.10714312
45	0xbeb5d4a6	-0.355138
46	0xbe4fac6b	-0.20280616
47	0xbe9a46e9	-0.30132225
48	0x3e9cda81	0.30635455
49	0xbe774ca7	-0.24150334
50	0xbd249a04	-0.040185943
51	0xbe8478a2	-0.25873286
52	0x3d8cd833	0.06877174
53	0xbed78f5a	-0.42101556
54	0x3ee6ef0f	0.45104262
55	0x3e3c8196	0.18408808
56	0xbeef9d55	-0.46799722
57	0xbdc116f2	-0.094282046
58	0x3ebb4c89	0.3658183
59	0x3ef1b4b8	0.4720819
60	0x3e104f7d	0.14092822
61	0x3e0535df	0.13008831
62	0xbecc689e	-0.39923567
63	0x3ef409e7	0.47663805

bias f4 [2]
0	0xbce437b8	-0.0278586
1	0xbb17f38c	-0.0023185937
