trained_models/model7I.pt (torch_old, 198859 bytes, 12 tensors)

weight f4 [32, 1372]
00000000: ff6a a63d cc50 d53b d1ee 48bd 86ac f3bd
00000010: 2372 b63d d690 9a3e d808 44bc 131d 3dbd
00000020: 6094 91bd fb69 103d 8b97 c3bd 4723 aa3d
00000030: 7a06 953c 34a1 093e 05fc 0ebc 6993 1fbd
00000040: b98b 933d 16ae 133d 4fc8 6ebd 9317 6ebc
00000050: 8ce3 283c 0004 0d3c 4653 b43d b03c 17bd
00000060: 9431 ee3b 9db4 b93d 5dbf 843c 7d17 10bc
00000070: 9701 723d 1602 113d 3561 903c 978f 33bd
00000080: 2b3f 63bd 2eca b53d c013 693e b2f2 b93e
00000090: 3321 00bc 4c33 903e 67ed 2e3e 4850 d6bd
000000a0: 2866 4b3d b48e ea3d c57e 563c 1145 2f3d
000000b0: 315f b23c 4534 01be e12c 3cbd 60dd e13c
000000c0: 82a6 6c3d ed70 043c 6fd8 b33c 7ef6 b33d
000000d0: da97 1cbd 48ab 853d 091d 913e 5886 50bd
000000e0: e15d da3d 239f 6e3c 00a0 0939 ed11 cc3c
000000f0: f606 bf3c c75b 873d 4fbd 933c 6ca0 19bd
00000100: 0e4b 493e 6452 a63d 0aa6 a53c 2e2b 4ebd
00000110: 6ea8 503d 3faa 483c 1bdf a83c 9228 943c
00000120: 1a3a 92bc 7805 353d 63ee 2a3e 60bf 0b3b
00000130: 3084 653d a300 b43c c3a5 ae3d c06d e63d
00000140: 238d 003c 0cac e7bc 1d15 b4bc 89c3 d4bd
00000150: 2eed dc3d 8ffe 3d3d 19b4 b23a 901f 7fbe
00000160: ad59 f13d 02c1 b4bd e2b5 a93d 5cc5 f3bc
00000170: 16fd c6bd 330b 103d 6505 c03b a393 833d
00000180: c487 c4ba a5d2 9cbc 8024 d43d ca64 803e
00000190: fc26 45bd 6078 d8bc 2c2e d5bd 6dbf 9d3d
000001a0: 039a 46bd 0b96 6d3d 79ac a03b c71b db3c
000001b0: 5f9e a9bd bcd0 9dbd b2c0 b63b 94bc 5c3d
000001c0: 1f0b 453d a744 a2bd 27bb 9d3d f55c 853e
000001d0: b5eb 2abd 5c5a 0cbe 1d13 063d 919d 96bd
000001e0: e201 d1bd e32c 21be 19b6 4abd 30ed 533d
000001f0: edcb d23c 1a1a 0b3d 8f8b c93d 4637 bc3c
00000200: a679 c73c 383b 42bd 667e e83b 82ae 01be
00000210: f5da 00bd a5b2 8cbb 4d90 813d 3ba4 c9bd
00000220: 946d 57bd 9524 003d 52ff 85bd e1bf ca3d
00000230: 85c2 a7bc 40c5 5a3d 5c86 2d3c 57d2 3f3d
00000240: c31f dc3d 7259 19be 4639 33bd 3329 843c
00000250: a2fd 403d 4140 af3c 32b0 6a3c 85d3 353e
00000260: f941 8dbc 2e0d 09bd 9988 fc3d 266c 023d
00000270: a67c 2d3d 74c8 b33d 64eb f53d 7b57 473d
00000280: 5756 3ebc 6e2e 4ebd 0d3f 5b3d 6fb1 b6bc
00000290: a6bd 073e 8ae3 b9bc bb07 98bd 8c4a 15be
000002a0: ab89 db3d 5244 99bd 4638 ae3c 4710 a4bd
000002b0: d049 77bc d7db ed3c 00d5 a8bd 8eec 6abe
000002c0: 1a00 563d c8f0 fc3d 68f2 13bd bae7 9dbc
000002d0: 9851 323e 6b16 d13d b99a 803c 2d41 9b3d
000002e0: eae9 d23d b8be 983d 11b6 323d 3660 fa3c
000002f0: ac1b d73d db2f 753e b239 33bb 0c16 183e
00000300: 5ccd e73d 2b63 3b3d 9435 55bd 899b 80bd
00000310: 1bc3 75bd 22f9 bc3d a0aa 453e ed80 95bd
00000320: d46f 6d3d 75c0 633a c3b0 65bc b1bb 92bd
00000330: 774c cc3d 579b 72bc d4cd e8bd c30d 043e
00000340: 7a6a 073e b702 2cbd cc3d b5bd e22c 153d
00000350: d1db 883d 5a98 dfbc 5356 1c3e 7687 373d
00000360: 0eb8 433d e817 e83d 0c80 943d dfdf 3b3e
00000370: 40bf 4abd fe41 76bd b683 8e3c 6518 de3c
00000380: b5c8 30be 9616 3a3e a82c ff3d 0b09 9b3d
00000390: e3bf 543d 2301 c43d 4e6e 973d 0bf0 8dbd
000003a0: bdc0 1c3d 6e16 893d 1c4f bb3c 4768 babc
000003b0: 521e 2d3d 5d26 d6bc a61b a63d a1fb edbc
000003c0: 07f1 8c3e 0697 bd3d 0581 983c 66ed bd3d
000003d0: b2f7 c53d 5b18 043c 9a9f e1bd a8f6 06be
000003e0: d87f 0bbc a83c ab3d 9646 22be 889c 59bd
000003f0: ad09 713c 908b de3b e6fb 103e 92c1 a73d
0.08125877 0.006509876 -0.049055878 -0.118981406 0.089084886 0.30188626 -0.011964999 -0.046170305
-0.071083784 0.03525732 -0.09550389 0.0830751 0.018191565 0.134404 -0.008727078 -0.03895894
0.07204384 0.036054693 -0.058296498 -0.014531988 0.010308158 0.008606911 0.08804946 -0.03692311
0.0072690938 0.090676524 0.01620453 -0.008794663 0.059083547 0.03540238 0.017624477 -0.04383811
-0.055480164 0.08876453 0.2276144 0.36317974 -0.007820415 0.28164136 0.1708275 -0.10464531
0.04965797 0.11453 0.013091748 0.042790476 0.021773906 -0.12617595 -0.045941237 0.02757138
0.05777598 0.008083564 0.02195379 0.08787249 -0.038230754 0.0652681 0.28342465 -0.05090937
0.10662437 0.014564308 0.00013124943 0.024910891 0.023318749 0.06609302 0.018034605 -0.037506506
0.19657537 0.081211835 0.020220775 -0.050334148 0.050941877 0.012247621 0.020614197 0.018085752
-0.01784997 0.04419467 0.166925 0.0021323785 0.056034267 0.02197296 0.0852771 0.11251402
0.00784615 -0.02828028 -0.021982724 -0.10388858 0.10787426 0.046385344 0.0013633996 -0.24914384
0.117846824 -0.08825876 0.082866445 -0.029757194 -0.09716241 0.03516693 0.005860018 0.06424644
-0.0014994075 -0.019143412 0.10358524 0.25076896 -0.04813288 -0.026424587 -0.10409197 0.07702527
-0.04848672 0.05800442 0.004903373 0.026746644 -0.0828216 -0.077058285 0.0055771703 0.05389078
0.04810631 -0.07923251 0.07701712 0.26047483 -0.041728694 -0.13706344 0.03273307 -0.07354272
-0.10205437 -0.15739779 -0.049490068 0.05173987 0.025732005 0.03396044 0.09841072 0.022975575
0.024349999 -0.047419757 0.007095146 -0.12664226 -0.031458814 -0.004293757 0.06326351 -0.098457776
-0.052594736 0.031284887 -0.06542839 0.09899879 -0.020478496 0.05341077 0.010591116 0.046831455
0.107482456 -0.14975527 -0.043755792 0.016132927 0.047116883 0.021392943 0.014324235 0.1775647
-0.017243372 -0.033459835 0.123307414 0.03184142 0.042355202 0.08778468 0.12007788 0.048667412
-0.011617265 -0.050337248 0.053526927 -0.022301404 0.13255939 -0.022691507 -0.074233495 -0.14579219
0.107196175 -0.07483734 0.021267068 -0.08010917 -0.015093282 0.029035492 -0.082437515 -0.22941801
0.05224619 0.12350613 -0.03611985 -0.019275535 0.17413938 0.10209354 0.015698778 0.07580791
0.10298522 0.07458252 0.043630663 0.030563455 0.10503325 0.23944037 -0.0027347622 0.1485216
0.11318466 0.04574887 -0.05205305 -0.06279666 -0.06000052 0.09227206 0.1930337 -0.07299981
0.057967976 0.0008688041 -0.014019194 -0.071647055 0.09975522 -0.014807544 -0.113673836 0.12895875
0.13224211 -0.041994777 -0.088496774 0.036419757 0.06682552 -0.027294327 0.15267305 0.04480692
0.04778295 0.11332685 0.072509855 0.18347119 -0.049498796 -0.06012153 0.017396789 0.027111242
-0.17264064 0.18172678 0.124596894 0.07570084 0.05194081 0.09570529 0.07394086 -0.0693055
0.038269747 0.06693731 0.02286487 -0.022754801 0.042265244 -0.02614134 0.08110742 -0.02905065
0.2752764 0.09257321 0.018616209 0.09273796 0.09666385 0.008062447 -0.1101677 -0.1318003
-0.008514367 0.08361179 -0.15847239 -0.053127795 0.01471178 0.0067915395 0.14158592 0.081912175

bias f4 [32]
00000000: 5d58 053e 7e3b c23c a0b4 dc3c 18d5 6b3d
00000010: 5f35 60bd 8fb6 8c3d baa3 bfbc b563 0abd
00000020: 2413 bf3d 93a4 4e3d d966 b13d 53f9 793d
00000030: d285 643d 02cd 8db8 3381 0cbc b8d6 4a3d
00000040: ca7f 463a 3504 22bd 9e66 723d 206d a23d
00000050: 6cf0 d83c 4b3f d63c d972 82bb a67b f9bc
00000060: eecf 4d3d 7b33 afbb f2f6 853d 2b69 063c
00000070: 33f4 a33d 03b5 703d 5016 e0bc 27d2 d3bc
0.13021989 0.023710009 0.026941597 0.05757627 -0.0547384 0.06870758 -0.0233935 -0.033786494
0.09329823 0.05044992 0.08662195 0.06102879 0.055791683 -6.7615896e-05 -0.008575725 0.049521178
0.00075721426 -0.039554793 0.059179895 0.0793097 0.02648183 0.026153227 -0.003980976 -0.030454468
0.050247125 -0.005346713 0.06541242 0.008203785 0.08005562 0.058766376 -0.02735439 -0.025857044

weight f4 [32, 32]
00000000: 9a9c 66be de5c 23be 7dc3 13bc 7ca6 2c3e
00000010: 8ad2 babd a734 08be fec7 3f3e e09a 29be
00000020: b833 ca3c 53be 88be c239 aabe 6af0 69be
00000030: 19e2 adbd 51df d93d 0bcf d93c c168 1d3d
00000040: f10d 05bd 9723 033d 5c55 60be 0e83 173e
00000050: 9bd1 943c 8676 dbbd af42 87bd 91a7 75bc
00000060: 4df2 64be 3a07 dabd 6853 143c 0abb 5fbe
00000070: 7a04 6bbe 305a 82be 8a0d 733e 0ffb 893e
00000080: 09e5 0f3e e0dd 643c c849 3ebe d6d6 953e
00000090: e587 5f3d 1c44 50bd d40e 7fbd fa01 9fbe
000000a0: 87fb 99be c2ee 13be b3f8 7a3e 1b30 043e
000000b0: aee4 64be 4bdf 5f3c b390 fd3c d95b c4bd
000000c0: 53dd 873e b888 15be 0bd3 883e 15f8 7c3d
000000d0: 1a14 b3be 9ca6 c73d fd9b a5bc eeea ac3e
000000e0: 8d73 48be a5af 763e 4710 50be 4759 8ebb
000000f0: f39f 99be 925c 25be 6028 6ebe 9eb6 81bc
00000100: b163 663c 5a53 8ebe a781 a6be 2eb0 323d
00000110: 1af7 183e c820 2a3e c01b 0abe 9dd7 b13e
00000120: 10d3 87be 67e3 2ebe 3da9 0bbe 90a0 3e3e
00000130: fc68 8cbd 4851 a6be 5e99 913e f67f 7ebd
00000140: 4f38 ee3d 15f7 15be 6bf8 fd3d acb9 3c3e
00000150: db40 263c e527 e93d cb75 f13d dc2a af3c
00000160: 2ae4 e53d 3a6f e5bd 9ffd e43c 4d33 f83d
00000170: 38ff b53e 0bf5 29bc d707 f6bd 8cd4 16be
00000180: 1e4c ffbd 264d 9c3e 56ad d73d 91be 773d
00000190: 0939 5ebe e70b 6e3d 9aca 6dbe ded0 683e
000001a0: 8de9 8b3e 0e23 ac3e 40df 0d3e 5110 99be
000001b0: 2e87 013d 03aa 703e 8e74 7dbe e037 98bd
000001c0: c780 a93e a723 be3e 663d 82bd 24e9 313e
000001d0: f58a ad3e 7ea9 293e 6530 8fbe b24c 83bc
000001e0: 0187 f83d 0d4e 653e 0d9c bebc 2910 f2bd
000001f0: 4bad 3ebe 39a0 85bc 681d c6bd ff0a 30be
00000200: ca2e 3ebe b0fc 463e 0195 ab3e 9091 903e
00000210: 4cad 8cbe f5a3 4b3d 9937 7cbe 0265 12be
00000220: b1be 2bbd 2c0a 3e3d ac35 513e 1fc0 54bb
00000230: b8c4 b13e 69b3 cebd 3022 f7bd 94b1 5a3e
00000240: 60bc bc3d e542 44be 826b 823e ae3e 2d3e
00000250: a4a2 5f3e 4926 243d a977 11be 329d b93d
00000260: cc57 40bc b909 cf3d 57e6 893d 7ca3 8dbd
00000270: 7bd1 22be 3a00 873e defe 433d 2e8f 0abd
00000280: dd69 3b3e ea28 f0bd 6e58 79be 82db e0bc
00000290: 179c 17bd 1afd 263e 2b2b fbbd fab9 25be
000002a0: e0a3 79be 956a ab3e 9ea4 9d3e 6946 443e
000002b0: 7739 56bd d2e1 1abd df46 9c3e e60b 6d3e
000002c0: 6803 a23d 7ef9 893d 508f a73e 9882 f23d
000002d0: c8c1 d9bb cb8b 0d3e be87 09bd 9e65 91be
000002e0: 5aa7 3b3d 8fc0 fabd d37a b43e a328 b1bd
000002f0: 2b7a c4bd 35be 853e a736 98bc 76f2 2d3d
00000300: d66f 383e d49c 1fbd cbfc 50be 2c69 d13d
00000310: f546 133e 1d1f 50be b1fd 793e d91f f2bd
00000320: c19c ebbd 769c 9c3e daec 1d3e fff4 74be
00000330: 8e4b 27bd 41f9 213e a200 27be e390 ecbc
00000340: e0a2 41be df77 73be bacd 2f3e 7ff9 923e
00000350: 3d2e 7e3e 8a8d ed3b cf39 8cbe 08c4 5cbe
00000360: c4c1 5abd 912b 86be 6416 273e f6dd 5a3e
00000370: ba35 733e d51a 973e 604f 20be a703 53be
00000380: 6e19 a1be d989 33be 302b 503e 98e6 fdbd
00000390: 65be 9dbe bc1c 8c3e a4f3 313e 13d9 9d3e
000003a0: 0890 95bd 7dd6 81be 00fe 03be 9a5f 863d
000003b0: 6567 1b3e c673 2f3e cb92 2dbd 42b8 e3bd
000003c0: a3a7 54be a510 b03e 395c 983e a050 a9bc
000003d0: 76ae 24bd 7878 a9bd 40ab 233e b48b 91bd
000003e0: 2d7e ae3d 0893 0c3e 3217 0d3d 5996 1abb
000003f0: b056 193d 0901 a53d 3005 a2bd 165d ecbb
-0.22520676 -0.15953395 -0.009018776 0.16860384 -0.091221884 -0.13301335 0.18728635 -0.16562986
0.024682865 -0.26707706 -0.3324719 -0.22845617 -0.0849039 0.10638297 0.026587984 0.03842998
-0.032484 0.032016363 -0.21907562 0.14796087 0.018166354 -0.10715966 -0.06604516 -0.014993564
-0.22358055 -0.106459096 0.009053089 -0.21848693 -0.22950926 -0.25459433 0.23735633 0.26949355
0.14052214 0.013968915 -0.18582833 0.2926547 0.05457296 -0.050846204 -0.06227 -0.31056195
-0.30074713 -0.14446548 0.24508934 0.12908976 -0.2235286 0.013664077 0.030952787 -0.09587831
0.26536044 -0.14602935 0.26723513 0.061760027 -0.34976274 0.09748575 -0.020215983 0.33772987
-0.19575329 0.2409044 -0.2031871 -0.004344139 -0.30004844 -0.16148594 -0.2325759 -0.015834149
0.014061854 -0.27797967 -0.32520792 0.04362505 0.14938012 0.16614068 -0.13487148 0.34734812
-0.26528215 -0.17078935 -0.13638778 0.18615937 -0.06855962 -0.32483888 0.28437322 -0.06213375
0.11631834 -0.14645036 0.124008976 0.18430203 0.010147299 0.113845624 0.11790045 0.021382742
0.112251595 -0.112028554 0.027952967 0.1211916 0.3554628 -0.010373364 -0.12013214 -0.14729518
-0.1246569 0.3052761 0.10531108 0.060484473 -0.21701445 0.05811682 -0.23221818 0.22735927
0.27326623 0.33620495 0.13854694 -0.2989526 0.031623058 0.23502354 -0.24751493 -0.07432532
0.33106062 0.37136576 -0.06359367 0.17374092 0.33895078 0.16568562 -0.2796661 -0.016027782
0.12135125 0.22393055 -0.02326777 -0.118194886 -0.18620794 -0.016311752 -0.096735775 -0.17191695
-0.18572536 0.1943233 0.33512118 0.28236055 -0.27475965 0.04971691 -0.24630584 -0.14296344
-0.041929904 0.04639642 0.2043063 -0.0032463146 0.34720397 -0.100928135 -0.120670676 0.21356803
0.09215617 -0.19166143 0.25472647 0.16918442 0.21839386 0.040075574 -0.14205803 0.09063186
-0.011739682 0.10109276 0.06733387 -0.06915948 -0.15900223 0.2636736 0.047850482 -0.033827953
0.18302102 -0.11726554 -0.2435014 -0.02744842 -0.037014093 0.16307488 -0.12264093 -0.16184226
-0.2437892 0.33479753 0.30789655 0.19167484 -0.052300896 -0.037813015 0.3052282 0.2314907
0.07910806 0.0673704 0.32726526 0.11841315 -0.006645415 0.13822858 -0.03357672 -0.2839784
0.045813896 -0.12243759 0.35249957 -0.08650329 -0.09593614 0.2612168 -0.018580748 0.042467557
0.18011412 -0.038967922 -0.20408933 0.10225138 0.14382537 -0.20324369 0.24413182 -0.11822481
-0.11504508 0.3058812 0.15422383 -0.23921584 -0.04084354 0.15817739 -0.16308835 -0.028877681
-0.18909788 -0.23776196 0.17168322 0.28705975 0.24822326 0.007249539 -0.27387854 -0.21559155
-0.053407446 -0.26205114 0.16317135 0.21373734 0.23750964 0.2951266 -0.15655279 -0.20606862
-0.31464714 -0.17533053 0.20328975 -0.12397498 -0.30809322 0.27365673 0.17378098 0.30829677
-0.073028624 -0.25358954 -0.12889862 0.06561203 0.1517616 0.17134008 -0.04237632 -0.11119129
-0.20767073 0.343877 0.2975786 -0.020668328 -0.04020544 -0.08274931 0.15983295 -0.071067244
0.0852016 0.13727963 0.03444595 -0.002358815 0.037436187 0.08056838 -0.07911146 -0.007213245

bias f4 [32]
00000000: d792 b5bd 8a3b 6a3d 6c51 2c3e 4f27 0fbc
00000010: 1bbf 5b3e 431d 943d 0a1a 3f3e b5e9 a83d
00000020: 134b eabc 2e10 02bd 88a9 263e 399e a03d
00000030: e369 cdbc 0499 3c3d 05ee 763d cbb0 473d
00000040: dabf 933d 3ae4 803d 1ab7 003e 0fe4 a53d
00000050: 49bd 883c b7c9 b43d d2bf ef3d 2438 d9bd
00000060: c0de 283e 763f 6abc bcac 0e3e a58b 393d
00000070: 62bf 3dbd 49e7 2ebd 82bb eb3d 8d16 dbbd
-0.08865898 0.057185687 0.16827935 -0.008737399 0.2145962 0.07232144 0.18662277 0.08247701
-0.028600251 -0.03175371 0.16275609 0.078426786 -0.025074905 0.046044365 0.060285587 0.048752587
0.07214327 0.06293531 0.12569848 0.08100139 0.01669182 0.088275366 0.11706509 -0.10606411
0.16491222 -0.014297357 0.1393308 0.04529919 -0.046325095 -0.04270104 0.11510374 -0.106976606

weight f4 [32, 32]
00000000: d39a 8c3e cb84 2b3d 69ea 533e 6da9 ea3d
00000010: befe cebd d53a 5a3d 7629 bf3d d07c c93d
00000020: 2829 94bd 266a 383e 955e 1f3d 1296 03bc
00000030: bfa5 3f3e 6cba 853e 4130 9d3e 4a77 42be
00000040: bc48 42ba dcda 3cbe f84f 5e3e 9909 953d
00000050: 7a18 b6bd 34c3 893e f803 303e c741 a73e
00000060: 7ccc 5f3e feb2 3e3e e533 c5bd ce01 8abb
00000070: 6147 3bbe 5137 933e f08c 17be f2dd 79be
00000080: 5c70 df3c 6400 03be 20b1 643d e144 07be
00000090: d6df 5e3e 1c80 0f3d af6a 0e3e 87c4 393e
000000a0: b0a3 9b3e 8564 bd3e cecc de3d 2131 a93e
000000b0: c1f0 5bbd d855 65be 1817 c53e 3177 c0bd
000000c0: 6cdb 09be 3113 9a3e 9ea3 293e 1fc3 a13e
000000d0: 8279 1ebe b9b2 5b3d 6319 393d a500 7cbe
000000e0: 7a77 39be b2f5 9abe 8a7d 3c3e 4622 85be
000000f0: 89d2 223e f4e8 473e feb4 12be 1ecf 12be
00000100: 7ef3 8c3e 966f 743d 7ab9 8a3d d08c b4bd
00000110: a3d9 d03d 734f 293e a96a 8a3e aa3d c3bb
00000120: f46b 573d 73ed 453e 19da 8c3e d059 c93c
00000130: 201f c5be f5ea b63e d93f f03e 4813 c6be
00000140: 71e2 44be a097 df3d 3301 173e 9b4c d03e
00000150: c39d fd3d aad0 eb3d 9c52 23be 5b54 5abe
00000160: 0718 7cbd be7c 1a3c 32a2 bebd 1fa7 43be
00000170: ecc0 3cbe 8ca0 d73d 3c8e 04bd 8933 a6bd
00000180: 1311 34be aec3 723d 3419 0ebe 612e 10be
00000190: 3e6a b13e df6d a43d 2eba 6fbe a86c 20be
000001a0: dcc1 ef3d 5d05 ac3e 2cc4 823d d39d 54be
000001b0: b355 f7bd b3cc ccbd 0de3 e33e d926 98bd
000001c0: 3246 f7bd 7f6a 053e 829e f33d c891 b43e
000001d0: b3a9 ea3e d576 303e 8a1b 773e d153 76be
000001e0: 15ad 5c3d fe1e 4d3e 4cc1 993e 032f 1bbe
000001f0: 1c01 54be f826 b13d 6370 913d e86e 5bbe
00000200: 54fe 3e3d 22c9 efbd e6c7 c63d 1aa1 24bd
00000210: 9b99 ac3e 5b97 aabd 6427 d33c 9628 563e
00000220: 4eef 693e 6b6a 64bd d383 01be cdcf 1dbd
00000230: 25d7 9bbe 607c febc 9ce2 c4bb 35d5 25bd
00000240: f883 c6bd b335 703d 39db 3cbe 85e1 b23d
00000250: 36ae 85be dde1 9f3e 87db ac3e 57c9 163d
00000260: 7a6a 763e db94 013e 56c9 2bbe 3c67 423e
00000270: daea f03d 2881 443d 43c4 b9bd 7f94 b6be
00000280: ff18 34be 897d 98bc e168 88bc c421 c53d
00000290: d2ef b9bd 0ff4 c23d ba4f 913e ee6f 843e
000002a0: c96a 3fbe 9215 90bc 482f f3bd bff9 e43d
000002b0: ee06 ec3d c6af 6a3e 83fc 27bc 3c88 cabc
000002c0: 8e66 983e c21b 703e d8c4 193e c9ea 843e
000002d0: 9010 4a3e 4746 9a3d 05f8 5e3e 943e 94bd
000002e0: 9d2b 2bbd 6d69 153d 02a7 84bd 0a47 853d
000002f0: b77b 95bd 7e68 8ebe 6b5f 34be 4482 433e
00000300: 2fb6 2d3e 64ff 683e 0853 773e ef49 463e
00000310: db59 0c3e 9ade 1d3e 4d83 3ebe f974 773e
00000320: 4c97 0a3e bfd2 17be a3d8 5b3d 5e16 6e3e
00000330: 928c 093e d252 e63d b13b b23d 728c 943d
00000340: b532 1dbe 2c51 2fbe 2f3e 4cbc 6697 953d
00000350: f88a 913e a32e 9e3e 2a38 9d3e dc3c 9ebe
00000360: d26a 883e 311b ecbd 68f8 5bbe 517e 973e
00000370: 2b4a 3cbe 52e4 cd3c 0206 2fbe f55d 6bbe
00000380: 66e7 ed3d 3e63 743e 0d02 783c 9133 9e3e
00000390: 4f32 fe3d 4b02 f53d 69ef 083e 440b 26be
000003a0: 0abb 493d b422 12bd 2670 e3bd 7aac 34be
000003b0: d76d 58be fb25 11be 2eb0 5d3c ce73 503d
000003c0: 502b 8abe 02ab 81be 8a4d f3bd 2748 6ebe
000003d0: 342a 053e 9835 dabd 4e30 d83d 7f15 d6bd
000003e0: af4a 83be 0d35 f1bd e7db 29be e5a7 6f3d
000003f0: 0852 e03b ee8b 863e 904e 25be 8f7f 253e
0.27461872 0.041874688 0.20694889 0.11458097 -0.10107182 0.053278763 0.0933408 0.09838259
-0.072344124 0.18009242 0.03890856 -0.008031385 0.18715571 0.2611879 0.30700877 -0.18990818
-0.0007411351 -0.18442863 0.21710193 0.07277221 -0.08891387 0.2690674 0.17189014 0.32667372
0.21855348 0.18622968 -0.09629039 -0.004211641 -0.18288948 0.2875314 -0.14799857 -0.24401072
0.027275257 -0.12793118 0.055832982 -0.13209869 0.21765074 0.035034284 0.13907884 0.18141375
0.3039832 0.36990753 0.10878907 0.33045295 -0.053696398 -0.22396028 0.38494182 -0.09397734
-0.13462609 0.30092767 0.16566321 0.31594178 -0.15476039 0.05363724 0.045190226 -0.24609621
-0.18111983 -0.30265576 0.18407264 -0.2600271 0.15900625 0.19522458 -0.14326856 -0.14336821
0.2752952 0.05967673 0.06773658 -0.0881592 0.10197761 0.16534214 0.270345 -0.0059582787
0.052593186 0.19328861 0.27510145 0.024578959 -0.3850031 0.35726133 0.46923712 -0.38686585
-0.19227006 0.10917592 0.14746551 0.40683445 0.12383606 0.11514409 -0.15949482 -0.21321242
-0.06154635 0.009429155 -0.0930828 -0.1910672 -0.18432969 0.10528669 -0.032362208 -0.08115298
-0.17584638 0.059268646 -0.13876802 -0.14080192 0.3465137 0.08028769 -0.23410866 -0.15666449
0.117068976 0.33597842 0.06385073 -0.2076333 -0.12076893 -0.09999981 0.44509163 -0.074292846
-0.120739356 0.13028906 0.11895467 0.35267472 0.45832595 0.17232831 0.24131599 -0.24055411
0.053876 0.20031354 0.30030286 -0.15154652 -0.20703548 0.08650011 0.07101514 -0.21429026
0.046629265 -0.11708285 0.09706096 -0.0401927 0.33710942 -0.0832965 0.025775619 0.2091392
0.22845194 -0.05576555 -0.12647943 -0.038528252 -0.3043758 -0.031065166 -0.0060084593 -0.040486533
-0.0969314 0.05864496 -0.18443002 0.08734421 -0.26109475 0.31227008 0.33761236 0.036813106
0.24064055 0.1265444 -0.16776022 0.18984693 0.117635444 0.047974735 -0.09070637 -0.3566017
-0.1758766 -0.018614547 -0.016651573 0.09625581 -0.09078945 0.09519207 0.2838114 0.25866646
-0.18693079 -0.01758841 -0.118742526 0.11180448 0.11524759 0.22918615 -0.010253075 -0.024723165
0.29765743 0.23448089 0.15016496 0.25960377 0.1973288 0.075329356 0.217743 -0.07238498
-0.04178964 0.036477495 -0.06477167 0.0650769 -0.07298987 -0.27814096 -0.17614524 0.19092661
0.16964029 0.22753674 0.24152768 0.19364141 0.13706152 0.15416947 -0.18604775 0.24165715
0.13534278 -0.14826487 0.053673398 0.2325072 0.1343253 0.112462655 0.087027915 0.0725335
-0.15351374 -0.17120808 -0.012465998 0.073042676 0.28426337 0.30894956 0.30706912 -0.30905807
0.26643997 -0.11528624 -0.21481478 0.2958856 -0.18387668 0.025133286 -0.17092136 -0.2298506
0.116164014 0.23865983 0.015137208 0.30898717 0.12411939 0.11963328 0.13372578 -0.16215235
0.04925064 -0.035677627 -0.11105375 -0.1764392 -0.2113565 -0.14174645 0.013530774 0.05089169
-0.2698617 -0.2532578 -0.11880024 -0.23269711 0.1300438 -0.106547534 0.105560884 -0.10453319
-0.25642917 -0.11777697 -0.16587792 0.058509726 0.0068457164 0.26278633 -0.1614325 0.16161941

bias f4 [32]
00000000: 9af8 373d b4fe 833d 13c9 beb9 72c2 3abd
00000010: b4a1 acbc fa8c 063d acfd 173c 0efa 493e
00000020: 3cad 6c3c 8b51 b23d 3b2e fc3d e1a3 033e
00000030: d8c2 243d eb51 443e 834f b93d ae9d ab3c
00000040: 8a23 453e d164 8e3d 7d9a 3cbd 052a febd
00000050: 6695 d33d f3d0 553e 8ace de3c 90ef 153d
00000060: 1ecf d8bd a6cf cbbd 4435 cbbd 61c4 933e
00000070: 190d 1d3e ec64 21be 31cc 213e b1fe f6bd
0.04491482 0.06445065 -0.00036389436 -0.045595594 -0.0210732 0.03284929 0.009276789 0.19724295
0.014445599 0.08706959 0.12313505 0.12855484 0.04022488 0.19171874 0.09048369 0.020949211
0.19251838 0.06952823 -0.04604577 -0.12410358 0.1033123 0.20880489 0.027198095 0.036605418
-0.105863795 -0.09951715 -0.09922269 0.28860763 0.15337028 -0.15761155 0.15800549 -0.12060297

weight f4 [32, 32]
00000000: adc3 38bd dfb0 88be fe44 1c3d cc9a 38be
00000010: 47ba e33d 52e9 f43d a211 20be 7f86 28be
00000020: 8f06 80bd c787 483d 9262 9a3d 71d7 94be
00000030: 401b 88be 2852 4bbe 28c9 623e c934 56be
00000040: d466 683e 1fc3 573e ef20 74be 1b85 553e
00000050: 347d 293e 4a0a 76be e391 5dbe ddf4 27be
00000060: 9fef 453e 5af1 3cbe fc57 a63d ce66 45be
00000070: 62ae 80be ea33 84bd 50aa 613d a55e ff3c
00000080: 2b0d 7c3e 99b6 0f3e afe7 a13e 293e 9c3e
00000090: 0294 06bd 5167 573e 8e95 a73e b97a fabd
000000a0: 09cd 123e 2505 4b3e 60fe a53e 84e4 4dbe
000000b0: 46e3 1a3e 84b3 a83e 4923 78be 1876 75be
000000c0: f899 a73e 7a1b 30be 84a2 483d 21ca 51be
000000d0: b9e3 07be 73b1 5b3e ee35 4d3e 990d 23be
000000e0: 33e0 95be 07c7 0dbe 007e 96be ff06 d6be
000000f0: 5f68 bdbd 6673 543e cb4b 95bd 6139 3fbd
00000100: cc45 ab3e 3538 c3bd 0057 c5bc 71fb 2e3e
00000110: 28bc 46be 41f6 853d bc81 143e 7997 363e
00000120: e060 543e 6ec9 803d 0f86 773e 5c44 4a3d
00000130: 486b dcbd 13ad 71be 725e b63d 9de7 843e
00000140: d54c 26be 5f9d 2ebe 3b17 80be 6cb5 5abe
00000150: 81ac 3f3e 9711 993c 9b98 773e e605 1cbc
00000160: 8137 6b3c 5184 f43d 56c2 263e ec9b c63e
00000170: 3e2a 89be 7c10 78bc 5103 46be 8e84 83bd
00000180: 43eb 5bbd bcaa d53d 464a 343d f68e 893d
00000190: 57af a53e 4a67 923e d545 523e 43b0 b13d
000001a0: 3e39 dd3e 984b c1be b23f 48be 671a 993e
000001b0: fc1a a63e d540 4a3e f67e b43e a65f b5be
000001c0: 49ec 203e c9a6 75be e34b 403e d6d3 92be
000001d0: 9c0d 20bc a5d2 1b3e d5db 663e ac02 bbbe
000001e0: 2fdd 293d e1a4 813d dd3b 3bbe ca9c d3be
000001f0: d257 733e f18d 5f3e 3ccc 6ebe ca5e ba3e
00000200: de86 ae3c c593 933e f0c8 1e3e 0459 c03e
00000210: 7bc9 773e c80e 62bb c3da c03d 3309 36bd
00000220: bee5 4dbe 24ba 353b eb81 ab3c a22a c6bd
00000230: 67f2 a6bd 8fe8 223e a32c 42be e69c d73e
00000240: ae6a 7bbe bbd5 873e e05d 503d 4e06 343e
00000250: e8c1 52be d0c5 ed3d b56b 413e a183 ddbd
00000260: 974c 9eb9 41ec 163e c6a3 ff3d bdc5 af3e
00000270: f45b 093e 5a42 90be 976e f83d 0a71 8e3e
00000280: 1f45 25be 2a9c 52be 263a d63d 9e01 95be
00000290: 5b11 5b3e 3bd8 2abd ffac 0ebe 453d 09be
000002a0: 76dd 043c 468f 943c c558 503e 7f43 5bbe
000002b0: c6f2 6dbe 1a9e 82bd 54d0 d8ba 1346 d13d
000002c0: 4c55 8e3e 4b0f 383d f83e 1ebe 694c 203e
000002d0: 448f 4dbe 1a88 783d 97fa 253e fac2 80be
000002e0: 0777 45bd 0e7f bd3d 01a5 433d dfc7 55be
000002f0: 6407 303e 42d0 f1bd a54d 32bc dbcf 353c
00000300: 8677 f2bd 5f27 54be 2461 c8bd 3a2b 52be
00000310: bbe4 853e 613d 12be 049c 95bd c070 a23c
00000320: 7567 07be 30f4 923c e946 5cbe d0df 103d
00000330: e089 933d d2e1 96be f6dd 5a3e b175 18be
00000340: 7326 903e b4f0 84be ceff 663e d0a2 0bbe
00000350: 824a 1a3e 1417 58be f8e7 103d 54ca 0e3e
00000360: f000 5cbe 3808 e9bd 9193 4dbe 47cf 14be
00000370: b23f 2f3e 2e45 b5bd aa2b b4bd 7274 6a3e
00000380: ee76 e03d afce edbe dd0c 3fbe 71b9 a4be
00000390: a125 72be 1430 523e 9442 19be 8de3 ae3e
000003a0: 46f8 313f 872c 003f e403 373e 24a3 b8be
000003b0: be96 053e b3d7 cabe dc36 02bf d1ec a13e
000003c0: 4842 adbe 2c3c 223e 77c8 be3e 2200 d73c
000003d0: 5129 a3be 6af2 3c3e 89fa 793e 618c 883d
000003e0: 0fb7 19be 674d 143e 5de5 a93d 7328 2f3f
000003f0: df61 03be 68bd 43be 00b0 b33e 48ee 5cbe
-0.045108486 -0.26697442 0.038151734 -0.180278 0.11119514 0.11958565 -0.15631726 -0.16457556
-0.06251251 0.048957612 0.07538332 -0.2907062 -0.2658329 -0.19855559 0.22147048 -0.20918573
0.22695476 0.21070527 -0.23840688 0.20851557 0.16551667 -0.24027362 -0.21637683 -0.16402002
0.1932969 -0.18451443 0.081222504 -0.19277498 -0.25133044 -0.06455214 0.055094063 0.03117306
0.24614398 0.14034499 0.31622073 0.30516174 -0.032855995 0.21035506 0.3273129 -0.12230439
0.14336027 0.19826181 0.32420635 -0.20106703 0.1512576 0.3294946 -0.2423221 -0.2397083
0.32734656 -0.17197981 0.048983112 -0.20487262 -0.13270463 0.2145441 0.20040104 -0.15923156
-0.29272613 -0.13845454 -0.29393005 -0.41802213 -0.09248423 0.20747146 -0.07289847 -0.04668558
0.33451688 -0.09532205 -0.024089336 0.17088105 -0.19407713 0.0654111 0.14502615 0.1783122
0.2074008 0.0628842 0.24172233 0.0493816 -0.1076265 -0.23601179 0.08904733 0.25957957
-0.16240247 -0.1705222 -0.25017723 -0.2135827 0.18718149 0.018685145 0.24179308 -0.009522891
0.014356495 0.119393 0.16285071 0.38790834 -0.2679004 -0.015140649 -0.19337203 -0.06421767
-0.05369116 0.104329556 0.044016145 0.06716721 0.32360336 0.28594428 0.20534451 0.086761974
0.43207735 -0.37752986 -0.19555548 0.29902956 0.32442462 0.19751294 0.35253114 -0.35424536
0.15715136 -0.23989405 0.18778948 -0.28677243 -0.00976887 0.15217073 0.22544797 -0.36525476
0.041470703 0.06330276 -0.18284555 -0.41330558 0.2376397 0.2183149 -0.23320097 0.36400443
0.021304544 0.28823677 0.15506339 0.37567914 0.24197952 -0.0034493674 0.094167255 -0.044442367
-0.20107171 0.0027729357 0.020935973 -0.096761 -0.08151703 0.15909027 -0.1896234 0.42111892
-0.24552414 0.2653025 0.050870776 0.1758053 -0.20581782 0.11609995 0.18888743 -0.10816122
-0.00030193172 0.14738561 0.12482409 0.3433055 0.13413984 -0.28175622 0.12130468 0.27820617
-0.16139649 -0.20567384 0.1046031 -0.29102796 0.2139334 -0.04171012 -0.1393318 -0.13402279
0.008109441 0.018134724 0.20346363 -0.21412466 -0.23237142 -0.06377812 -0.0016541579 0.10218444
0.2779945 0.04493646 -0.15453708 0.15654148 -0.20074183 0.06067667 0.16208874 -0.25148755
-0.048209216 0.092527494 0.04776478 -0.20877026 0.1719032 -0.118073 -0.01088277 0.01109692
-0.118392035 -0.20718144 -0.09784153 -0.20524302 0.2615107 -0.14281227 -0.07305148 0.019829154
-0.1322306 0.017938703 -0.21511425 0.035369694 0.07204032 -0.29469162 0.21373734 -0.14888646
0.28154334 -0.25964892 0.22558519 -0.13636327 0.15067485 -0.21102554 0.035377473 0.1394437
-0.21484733 -0.11378521 -0.20075823 -0.14532195 0.17114142 -0.088510856 -0.08797391 0.22895983
0.10960184 -0.4644675 -0.1865725 -0.3217273 -0.23647167 0.20526153 -0.14966804 0.34157982
0.6951946 0.50067943 0.17872578 -0.36061966 0.13045785 -0.3961769 -0.5086496 0.3162599
-0.3383963 0.15843266 0.37262318 0.02624518 -0.3186746 0.18451849 0.24411978 0.066674
-0.15011238 0.14482652 0.08295701 0.68421096 -0.12830304 -0.19115222 0.35095215 -0.21575272

bias f4 [32]
00000000: bc78 19be 3d37 d7bd 9f14 323e d600 aabd
00000010: 3254 4d3c 4b49 2a3d 9659 1bbe d971 0bbe
00000020: bc1b bdbd 8190 d73c 6d8a 823d 4640 e43d
00000030: 9c1c 793c 02e2 1dbe 1eac 293e 1812 0fba
00000040: e897 753d 8ea4 693c 0fa7 0dbe 0223 d33d
00000050: 3f8c f7bc c05c 2e3d 3ec8 893c 9a03 753c
00000060: 9288 8dbd 0088 97bd 7710 2e3c abd9 38be
00000070: e3f9 2bbd 4ef5 6e3c f961 583d 2171 ba3c
-0.14987463 -0.10508583 0.17390679 -0.08300941 0.012532281 0.041573804 -0.15170893 -0.13617648
-0.092338055 0.026314022 0.06374059 0.11145072 0.015204575 -0.15418246 0.16569564 -0.0005457713
0.059959322 0.014260424 -0.13833259 0.103094116 -0.030218242 0.042568922 0.016819116 0.014954472
-0.06910814 -0.07398987 0.010624043 -0.18051784 -0.041986357 0.014584852 0.05282781 0.022759022

weight f4 [32, 32]
00000000: ed42 2fbe a338 8e3c 8696 11bf 18b0 80bc
00000010: 8976 babd 6c1f a73e d21e 90be 84a3 f63e
00000020: e687 06be 2d6f 7d3e 05f4 c3bd 7bdf 6b3d
00000030: 18b0 e73d afef 9e3d a6ea 96be 4065 00be
00000040: aae2 6cbe 4e99 443e 969f 37be 654d 473e
00000050: fd72 59be 377f e43e 163d 7a3e 08b0 853e
00000060: fa46 9f3d f65f 513e 2452 a03e bb17 3cbe
00000070: 4a25 30be 2905 0f3e 0090 cd3d 1f6f 51bc
00000080: a38b 42be aad2 2c3e 7801 423c eb60 a4be
00000090: 0513 993c 097b 963e 81b5 993e 58e2 11bf
000000a0: 42bf 813e b1c6 adbe d17e 71be 22ea 603e
000000b0: 8f30 5c3e 4e63 403e f094 c83c ab07 943e
000000c0: 5a06 243e 157a 75be 4e62 fcbd d368 5f3c
000000d0: 3116 003e b502 1c3e ac0b 46be 92a4 b43d
000000e0: 0f64 b5be 2b98 363e 86ca 54bd 197b 04be
000000f0: f32f 223c b2e7 093e 1949 973e c0b7 b43e
00000100: 302b 633d 80a1 243e 48bf 40be a04a 0b3c
00000110: 1ae5 393e cc18 9dbd 0090 7bbb 16b4 6d3e
00000120: 0007 363c 2b50 4fbe 80ab 2fbb 767e 7dbe
00000130: fe35 29be d65c a2bd b005 38bd 2e8a 53be
00000140: aa05 5bbe 0092 aa3d ade2 9a3e 7248 33be
00000150: 2486 ea3d 1b3c 853e e8c9 953d cfc4 96be
00000160: 9783 843e 6a67 e1bd e052 7bbd d0f0 603d
00000170: 6652 3abe 52ac 19be 40da edbb 5768 6cbe
00000180: f589 84be c175 803e 359e 91bd ce0d aebe
00000190: 0689 f1bd 98d2 4a3e 8043 6e3b 3503 ec3c
000001a0: a2b9 88bc 090f 89bc 5487 14be 4630 68bc
000001b0: 0efc 733e 0c6d cebd d64a 6b3e ffec 923d
000001c0: 6ea5 9dbe cc3f e0bd 28c2 623d 388c 6f3e
000001d0: 169b c83d d6e3 babd c479 533d ab69 95bd
000001e0: e610 6f3e 3707 3f3e 8703 413e e9c5 0ebe
000001f0: 4f4e 69be 93f0 ca3d 038f a2be b31b eabd
00000200: c255 1b3e f045 cd3d 08d3 f7be e414 d13e
00000210: a847 e13d 9375 0abe c23f 5e3e cbaa 0b3f
00000220: 590a b93c a681 393e 3bcd 313e 1c72 3fbe
00000230: e005 7d3d a5ca 593e bb58 28bd 90a9 0abe
00000240: b32b df3d ea0b 043f f532 52be b5c6 223d
00000250: 83ee 873e 4fa6 c43e ec15 ebbb b2c5 f7bc
00000260: 632e 1d3e 0324 9a3d 3954 763e a4d0 c63d
00000270: e02e 333e 9e26 cb3e 5c89 8cbe c9b1 08be
00000280: 5617 37be d87f 513e da20 53be d042 3cbe
00000290: ef8e 5cbe 76ce 79be 440a d2bd a5bd ba3c
000002a0: dc1b 4ebe 5433 83bd 93b6 7dbe 2f9d 74be
000002b0: 7011 a4bd 4373 fabd ca98 383e e21b 263e
000002c0: fcac 193e f58a 7ebe 3c47 2f3e 1192 583e
000002d0: b92e 85be ea7d 6bbe 6a23 89be 124c 8a3e
000002e0: 5a4b f73d 6103 dbbd a635 3cbe 5408 373e
000002f0: 6544 87be 2cb6 9bbd 0007 69bd 635b 3cbe
00000300: de48 87be c802 f03c 3ee3 51be 440f 86be
00000310: a2a2 1abe 9488 8d3e 84b6 75be ccba d7be
00000320: 45ac c13e b138 84be b149 5d3e c2ec 58be
00000330: b56d d7bd cddd 463d 0f95 7c3e 249e 3f3e
00000340: 1298 163e 2b5e 773e d64b 043e ceae d83d
00000350: 586f 703e 5d41 1f3d 61c6 6bbe 8f77 903e
00000360: 81d9 9ebe 82c5 45be f039 40be 1336 43bd
00000370: 26f1 5f3d a105 69be 17d2 513d b7c2 113e
00000380: 1402 47be dd35 2fbe 3eca 113e 6e4e 4c3e
00000390: 9a8d 8f3d dbe7 013e 22c5 05be f979 883e
000003a0: 0fa4 433e d029 e93d cf6b a63e ec17 b53d
000003b0: 6155 9d3c 338e 003e 9f4c a43d d931 9dbd
000003c0: 428c 403e 8536 9ebc b2df 393e 04ff 003d
000003d0: 7536 0d3d 8e71 c13e 3624 edbc 5f20 72bc
000003e0: 3abf a73a 65fb 55be 9bdd 09be 9b53 bcbd
000003f0: f682 1fbd 6f8c 1e3d 80f1 abbd 2d82 e3bd
-0.17115374 0.01736099 -0.56870306 -0.015708968 -0.0910464 0.3264116 -0.28148514 0.48171628
-0.13137779 0.24749441 -0.095680274 0.057586174 0.11312884 0.0776056 -0.29475898 -0.12538624
-0.2313334 0.19199106 -0.17931971 0.19463117 -0.21235271 0.44628307 0.24437365 0.26110864
0.077772096 0.20446762 0.31312668 -0.18368427 -0.17201725 0.13966812 0.100372314 -0.012782841
-0.1899858 0.16877237 0.0118411705 -0.32105193 0.018685827 0.29390743 0.3002129 -0.56986
0.2534123 -0.33940652 -0.23583533 0.21964315 0.21502899 0.18787882 0.024485081 0.289121
0.16018048 -0.23972352 -0.12323438 0.013635832 0.12508465 0.15235408 -0.1934039 0.08820452
-0.354279 0.17831485 -0.051950954 -0.12937583 0.009899127 0.13467291 0.29547957 0.3529644
0.05546111 0.16077232 -0.18822968 0.008501679 0.18153802 -0.07670745 -0.0038385391 0.23213229
0.011110067 -0.20245425 -0.0026805103 -0.24755272 -0.16524503 -0.07927863 -0.0449273 -0.2065818
-0.2138888 0.083286285 0.30251065 -0.17508104 0.114513665 0.2602242 0.07313901 -0.29447028
0.25881645 -0.11006053 -0.061358333 0.054917157 -0.18195495 -0.15007141 -0.0072586834 -0.23086677
-0.25886503 0.2508984 -0.07110254 -0.33994907 -0.11793713 0.19806898 0.003635615 0.028810123
-0.01669008 -0.016730802 -0.14504749 -0.014171666 0.2382662 -0.10079393 0.22977766 0.0717411
-0.30790275 -0.10949668 0.055360943 0.23393333 0.09795205 -0.091254875 0.051629797 -0.07295545
0.2334629 0.18655096 0.18849002 -0.13942684 -0.22783779 0.09909167 -0.31749734 -0.114310645
0.15169433 0.10023105 -0.48403192 0.4083625 0.109999955 -0.13521414 0.21704009 0.54557484
0.022587942 0.18115863 0.17363445 -0.18695873 0.06177318 0.21268709 -0.041100245 -0.13541245
0.10897007 0.5158068 -0.20527251 0.039740283 0.26549158 0.38408133 -0.007174244 -0.030245636
0.15349726 0.075264 0.24055566 0.09707764 0.1749835 0.396779 -0.27448547 -0.1334907
-0.17879996 0.20458925 -0.20618 -0.18384862 -0.215389 -0.24395165 -0.10255864 0.022795508
-0.20127815 -0.064062744 -0.24776678 -0.23888086 -0.080111384 -0.12229016 0.18027034 0.16221574
0.15007395 -0.24857695 0.17117018 0.2114947 -0.2601221 -0.22997251 -0.2678483 0.27011162
0.12074919 -0.10694004 -0.1837984 0.1787427 -0.26419368 -0.07603106 -0.05689144 -0.18394236
-0.2642278 0.029298201 -0.20496842 -0.26183522 -0.15101102 0.27643263 -0.23995405 -0.42134702
0.37826744 -0.25824502 0.21610142 -0.21184066 -0.10518972 0.04855137 0.24666236 0.1871267
0.14706448 0.24157016 0.12919554 0.10580216 0.23479974 0.038880695 -0.23024894 0.28216216
-0.31025317 -0.19313625 -0.18772101 -0.04765899 0.054673336 -0.22756054 0.051225748 0.14234434
-0.19434386 -0.17110391 0.14237306 0.19951794 0.0700943 0.12686102 -0.13063481 0.26655558
0.19105552 0.11384928 0.32504126 0.08842453 0.01920575 0.12554245 0.08022427 -0.07675523
0.18803504 -0.019313106 0.18151739 0.0314932 0.034475762 0.37781948 -0.02894793 -0.014778226
0.0012798079 -0.2089668 -0.13463442 -0.09195634 -0.038943253 0.038708147 -0.08395672 -0.111088134

bias f4 [32]
00000000: defd b5be 2e79 babc 0868 30be 6025 a83d
00000010: cbcc cbbe 6080 223e 7439 7f3d 5bc9 92bd
00000020: d1a4 07bd bfa6 ec3d 0697 47bd 77e1 333e
00000030: e2ad c3bd 5d12 013e a66c ffbd b699 56be
00000040: 048c aebd ec87 ab3d 3753 1d3e a85b 393d
00000050: 18e1 86bc f89f c33d f6ed e7bd d696 a03d
00000060: 3e77 d0bc 7b02 063e 99eb aebd bfe1 edbd
00000070: a2db 4bbe 621b f83c 45a1 113e 110e ce3d
-0.35545248 -0.022762861 -0.17227185 0.08210254 -0.39804682 0.15869284 0.06231065 -0.07167312
-0.033116166 0.11555242 -0.04872801 0.17566477 -0.0955465 0.12604661 -0.12471895 -0.20957074
-0.085227996 0.083755344 0.15363775 0.045253426 -0.016464755 0.09551996 -0.11324684 0.0784127
-0.025447484 0.13086884 -0.085410304 -0.11615323 -0.19908002 0.030286495 0.14221676 0.10061277

weight f4 [2, 32]
00000000: e686 e93e 5104 33be ceec c0be 4878 f6bd
00000010: b48f 483f 8c64 09be cdc5 0f3e 62bc e33e
00000020: 5da9 183e 573d c23e 0c9b a8be 3fdf 02be
00000030: 4076 b0be a938 b43e 8fc5 9c3e 821b f7be
00000040: d571 1dbb fe33 91be ebac c1be 5f7e 14bd
00000050: 8787 bcbe c53c a63e bb24 093e 4192 9c3e
00000060: bc11 983c 6749 f1bd 11bc a93d 2605 1abe
00000070: ead3 653e 66d8 83bc 7db4 8ebe a0c0 a2be
00000080: b3c8 01bf 06a8 d23e dfc7 a33e c11f 5e3e
00000090: 4145 803c fd1d 9bbe fc70 573e 6a45 2d3e
000000a0: bc4a a4be ea80 61bd 6d99 e0bd 1dce 9abe
000000b0: f608 2e3d ddb0 963e 5941 853e 4a06 b53e
000000c0: 4594 20be 6d29 cdbe 3587 1fbe 505e 733e
000000d0: 4d2a 68bd ed2b ecbd 4314 2fbd f6d8 00be
000000e0: 60df d33e 6195 a13e 0257 653e eca4 e0be
000000f0: 0432 f73e 155c af3e f63b a6be 9698 193f
0.45610732 -0.17482115 -0.37680668 -0.120346606 0.78344274 -0.13417262 0.14040299 0.44479662
0.14908357 0.37937424 -0.3293079 -0.12780474 -0.34465218 0.35199478 0.30619475 -0.48263174
-0.0024024148 -0.2835998 -0.37827238 -0.03625333 -0.3682215 0.32468238 0.13392918 0.30580333
0.018563144 -0.117815785 0.08287824 -0.15041026 0.2244412 -0.016094398 -0.27872077 -0.31787586
-0.5069687 0.41143817 0.31988427 0.216918 0.015658023 -0.30296317 0.21039194 0.1692101
-0.32088268 -0.055054583 -0.10966764 -0.30235377 0.042489015 0.2943181 0.2602642 0.3535636
-0.1568156 -0.40070668 -0.15578921 0.23766446 -0.056680966 -0.11531816 -0.042743932 -0.12582764
0.4138136 0.3155928 0.22396472 -0.43875825 0.48280346 0.3424994 -0.32467622 0.5999845

bias f4 [2]
00000000: 4cec 2a3d 8b5a 6dbd
0.041729257 -0.057947677
