finished_models/model7C.pt (torch_old, 37053 bytes, 22 tensors)

weight f4 [5, 1372]
00000000: adab 84bd 384a 9c3d 567a 933c 1282 a43e
00000010: d784 1a3d 905a afbe 7cac 573e 1715 013e
00000020: 4ca0 abbe 5fe4 5a3e 1a22 a33d 7ec3 06be
00000030: 0a1b 093e 9232 bfbe 0383 8e3d 737d 40be
00000040: bd1d f63d b7d5 a43e 7e31 8a3d 4c5c 3c3e
00000050: 8efe cb3c 75e3 ef3d 1962 803d b66a f6bd
00000060: 2ce6 a1bd ca98 34be ae87 c8bd 897f 7ebd
00000070: 9785 10bd 12a6 71bd 37fa b23d b682 1c3e
00000080: ecbf 613d 38a6 6dbd f652 463e 8f06 b5be
00000090: f399 a1bc c46e 0ebb ce8c 8e3e be95 6ebb
000000a0: 075d b73e 8a09 1fbe 6fc4 003e 71fd 893d
000000b0: 54a5 f0bd 27a1 79be cded 81be f3ed bbbd
000000c0: f769 6c3c c37a 39bd 8a63 d4bd 6cb3 61be
000000d0: 0c42 373e ed88 a6be d7ce 9cbe 38d6 b13d
000000e0: c97a a6bd 3419 f43c 62da 193e 4a94 933d
000000f0: 8bb1 21be ad8e 353e 6db3 cf3d 23c8 843d
00000100: 2ec3 04bc 1d17 d4bb bb48 afbe 58d6 883d
00000110: 985f b3bc 498d 3dbe 4495 39bd 5040 3a3e
00000120: 2c7d b7bd c6f2 aebe e67d cb3c 1322 ca3d
00000130: 939b ef3c ffc0 803d 102d a13d ec82 9ebd
00000140: 13d5 43bd 042c b23d f1f9 8b3c 9da6 b2be
00000150: fecb aa3d d580 2c3e ac81 7f3c 1214 2ebd
00000160: c915 98bd 9226 8ebe 2ce3 593e c708 66bd
00000170: 6c48 393e 3cce 3f3e 39a1 8e3c 7828 a83e
00000180: 6c4f f0bd ff79 88be 263d 163e adaa 023e
00000190: ff70 223e 0e7b ea3d e46e 483b 22c2 75be
000001a0: d822 29bd b5e8 8a3e 4153 2d3e 6056 af3d
000001b0: 08ad 2dbe 9724 913e d8fd d33d ed70 dc3d
000001c0: fb8e a9bd 3972 32be ac79 f23d 99c9 d93b
000001d0: 7f1c c33c 3772 8bbe 2173 3abc 65e3 8cbb
000001e0: 9413 37be 0eef 733d 5031 c3bc af2b 913d
000001f0: 80be 443e 48fb b9be a3c2 703d 95be 953e
00000200: ee5e 393d da43 1fbd 5908 a63d c2af f9bc
00000210: 3cc5 f23d b8ef 47be 0043 443e 268d 26bd
00000220: edd2 33be 4e45 083e c17f 16be f2b5 60bc
00000230: 1c49 2abc b133 bcbe 66d7 28be cec2 5b3d
00000240: a52d a7bd 5299 99bc fc3f c03d 5ba8 cfbd
00000250: 5843 153e 9469 b43d c318 b1bc b02a 613e
00000260: 229b 4ebe 962b 843e b460 3cbd 0477 ba3c
00000270: 4070 903d ea85 42be 6b17 b1be 3521 6a3c
00000280: cdb8 efbd d7e2 dbbd a369 043e 00e8 1d3e
00000290: 50a3 39bb 981b b1bd 408d cb3e 98f2 6dbd
000002a0: 7ccd c93d 0eb9 32be 9581 dabc 1239 80be
000002b0: 3dce 7a3d 3e46 89bb 1958 42be edf2 34be
000002c0: e34a ccbd 33b4 03be 32ff a93c 4341 15be
000002d0: cedb 483e effd 4ebd f21b 19be 3a4b e5bc
000002e0: a5ae 443c c51c 3bbe 3b0f a73d 00e2 96bd
000002f0: 1aa6 a83d c0b9 a0be d2a0 22be 2bd9 84be
00000300: 8264 d7be 35eb 9dbd afaa 3cbe 965c 2a3d
00000310: 5e33 8bbd 588a eb3d bb6e adbb 8bbb f7bd
00000320: 0dd5 53bd 43b3 763e 15c3 503d 3c09 263e
00000330: 1f00 89be f290 64bd c364 c03d 1e69 79be
00000340: f61e 6ebd a80e a33d 5b14 103e cb04 05be
00000350: 7f1c e83d 3a73 fc3c a199 c3bb b05d 86bc
00000360: b680 8d3d 6dab 1e3d cab0 5fbe e74f 253e
00000370: 2ad1 0dbc bcb9 16be 43f0 d8bd f220 10be
00000380: 2c1a 04be 616b b7be 5146 d33d 6c3f acbd
00000390: 562e 233e 60cc f4bd 64ff 393d 32e5 813e
000003a0: fa03 053e 30e5 f1bb c6f1 b1bd 117e 09be
000003b0: 099a 99be ece5 87be 0397 f3bd ef36 a73d
000003c0: eed7 623c 63b3 33bd 0c65 8ebe c231 8fbc
000003d0: 94b7 2f3d 0a1a c5bc 8d59 dabe b4a4 1dbd
000003e0: 7e48 94bd 84fb f43c 1e86 7b3c cf9f a5be
000003f0: df3b 27bd 198f abbd 02ef 833e a681 4f3e
-0.06478057 0.076313436 0.01800267 0.32130486 0.037724342 -0.3424878 0.21061891 0.12605701
-0.33520734 0.21376179 0.07965489 -0.13160512 0.13389221 -0.3734327 0.06958582 -0.18797855
0.12017391 0.321943 0.06747721 0.18394583 0.024901655 0.11713306 0.06268711 -0.12032072
-0.0790523 -0.1763641 -0.09791504 -0.062133346 -0.03528365 -0.058996268 0.08739131 0.15284237
0.05511467 -0.058019847 0.19367585 -0.35356566 -0.019726729 -0.0021733502 0.278418 -0.0036405171
0.35813162 -0.15530983 0.12574933 0.06737793 -0.11750284 -0.24377881 -0.2537674 -0.091762446
0.014429561 -0.04528309 -0.10370548 -0.220411 0.17896289 -0.3252634 -0.30626556 0.08683437
-0.08128888 0.029797174 0.15024713 0.07206018 -0.15790384 0.17730208 0.101416446 0.064834855
-0.008103175 -0.006472482 -0.34235176 0.06681508 -0.021896169 -0.18510927 -0.045308366 0.18188596
-0.089594215 -0.34169596 0.024840306 0.098697804 0.029248988 0.06286811 0.07869923 -0.07739815
-0.047810625 0.086998016 0.017086955 -0.3489274 0.0833969 0.1684602 0.015594881 -0.04249961
-0.0742603 -0.27763802 0.21278065 -0.056160714 0.18094033 0.18731016 0.017410861 0.32843375
-0.117338985 -0.26655576 0.14671764 0.1276042 0.15863417 0.11449252 0.0030583674 -0.23999837
-0.041292995 0.27130666 0.1692629 0.085613966 -0.16960537 0.28348228 0.10351151 0.107637264
-0.082792245 -0.17426385 0.11839613 0.0066463468 0.023817299 -0.27235577 -0.011379988 -0.0042995685
-0.17878562 0.059554152 -0.023827225 0.0708841 0.19213295 -0.36324525 0.05877937 0.29246965
0.045256548 -0.038883068 0.08107061 -0.030479316 0.11854026 -0.19525039 0.19166183 -0.040661953
-0.1756093 0.13307688 -0.14697172 -0.013715254 -0.010393407 -0.36758187 -0.16488418 0.053652577
-0.08163003 -0.018749867 0.09387204 -0.10139533 0.14576471 0.088092 -0.021618253 0.2198894
-0.20176366 0.25814503 -0.04599066 0.02276183 0.0705266 -0.18996397 -0.3458818 0.014290144
-0.1170517 -0.10736626 0.12930922 0.15420532 -0.0028326102 -0.08647841 0.39756203 -0.058092684
0.09853646 -0.17453405 -0.026673118 -0.2504354 0.06123184 -0.0041892817 -0.18978919 -0.17670794
-0.09975221 -0.1286171 0.02075157 -0.14575677 0.19615099 -0.05053514 -0.14952067 -0.027989972
0.012004529 -0.18272693 0.08157202 -0.07367325 0.08234806 -0.31391716 -0.1588166 -0.25946936
-0.4206887 -0.07710878 -0.18424486 0.041592203 -0.06796907 0.11500996 -0.005292741 -0.12096318
-0.051716853 0.2409182 0.050967295 0.1621446 -0.26757905 -0.055802293 0.09394219 -0.24356505
-0.058134995 0.0796178 0.14070265 -0.1299011 0.1133356 0.030816663 -0.0059692417 -0.016402096
0.06909315 0.038737703 -0.21844783 0.16143762 -0.008655826 -0.1471929 -0.10592701 -0.14075068
-0.12900609 -0.3582411 0.10316146 -0.08410534 0.15935645 -0.11953044 0.045409575 0.25370175
0.12989798 -0.0073820576 -0.08688693 -0.13426997 -0.30000332 -0.26542604 -0.118940376 0.081647746
0.013845427 -0.04387225 -0.27811468 -0.017479781 0.042899683 -0.024060268 -0.42646447 -0.03848715
-0.07240389 0.029905088 0.0153518 -0.32348487 -0.040828582 -0.08376903 0.25768286 0.202643

bias f4 [5]
00000000: 18ff 0e3e 76b5 803e 8c1f 4cbe 79f0 debc
00000010: f51a 453e
0.13964498 0.25138444 -0.19933909 -0.027214276 0.19248565

weight f4 [5, 5]
00000000: 0232 6fbf 5bab d33e 8b77 1abf 0a70 083f
00000010: 8041 82be c463 2b3f 8090 ff3e e1b8 3a3f
00000020: d87e 113f 229a ca3e 8441 993e 3d11 cfbe
00000030: 4259 a73e 5c93 d1be 27a3 9fbe 093c f83d
00000040: 2db7 083f 4d72 8fbd 4b36 16bf d229 aa3e
00000050: 6ff2 b6be b7ee 023f 7cf1 12bf a1db 543f
00000060: 712d 81bf
-0.9343568 0.4134167 -0.6033866 0.5329596 -0.25440598 0.66949105 0.49914932 0.7293835
0.56834173 0.3957072 0.29932797 -0.4044284 0.32685286 -0.4093274 -0.31179163 0.12120826
0.53404504 -0.07004223 -0.58676594 0.3323503 -0.35731837 0.511455 -0.57399726 0.8314763
-1.0091993

bias f4 [5]
00000000: d730 b53e 46c1 c5be 1db6 21be 6e08 973e
00000010: 06ac 5a3e
0.35388824 -0.38624018 -0.15792127 0.2949862 0.21354684

weight f4 [5, 5]
00000000: 55e9 0f3f d6bd fabe cf63 08bf 70e1 97be
00000010: a338 0ebf 1b70 3fbe 49a1 423f bc81 9fbe
00000020: c7e1 513f b071 28bf 5317 7d3f 373d 053f
00000030: 2821 ed3d f978 ca3e ee16 123f 4d28 babe
00000040: a8b0 89bd 0620 2cbf c03a 06bd 4cfc 1cbf
00000050: 6347 5ebe 4cd5 04bf b0d9 0e3f d8f3 933f
00000060: 260b cb3e
0.5621541 -0.48972958 -0.53277296 -0.29664183 -0.5555517 -0.18695109 0.7602735 -0.31153667
0.81985134 -0.65798473 0.98863715 0.5204653 0.1157859 0.3954542 0.5706624 -0.36358872
-0.06723148 -0.67236364 -0.032770872 -0.61322474 -0.2170692 -0.51887965 0.55800915 1.155879
0.39656943

bias f4 [5]
00000000: d006 203f e4a2 d03e 6a8d 24be 2595 a4be
00000010: 350a 383e
0.62510395 0.40749276 -0.1606957 -0.32145038 0.17972644

weight f4 [5, 5]
00000000: 4edb 3d3f 8688 693f 780a 8e3d 3c8c 68be
00000010: ce6c 4f3f c400 ab3d 3263 42bf 41ac cb3e
00000020: 6cb9 39bf d453 543d 8b9f 863e 5922 e83e
00000030: efb6 f5be 92be 00bf 6312 553f e86d f73d
00000040: 7422 8dbe 7186 5abe 4289 333f 0603 4f3f
00000050: 8c30 223f a804 033f 573e bc3e b8b2 52be
00000060: e365 af3e
0.7416276 0.91223943 0.069355905 -0.22709745 0.810254 0.083497554 -0.7593261 0.39779857
-0.72548556 0.051837757 0.26293597 0.45338705 -0.4799113 -0.5029079 0.8323118 0.1208151
-0.27565348 -0.21340348 0.70131314 0.8086399 0.63355327 0.5117898 0.36766312 -0.20575988
0.3425742

bias f4 [5]
00000000: 693b 0a3f 183e a13e dada babd ae08 59be
00000010: 92de 243b
0.539969 0.31492686 -0.09123774 -0.21194717 0.0025157076

weight f4 [5, 5]
00000000: 6a5c 84be 403c c53e f882 943e 0d52 0c3e
00000010: 8461 e83d 7fe2 443f 949d 523d aa05 1f3f
00000020: deac 9a3d 668a dc3e 3556 9ebe dd51 523d
00000030: 64bb 163f 28a1 483e a695 48bc 3554 6c3e
00000040: 2f21 663f b410 3abf 8277 89bf 6eac 8c3e
00000050: 4a34 7dbe 0e4b 143f 5f5f 48bf 1150 21bf
00000060: ba8b 4a3e
-0.25851756 0.3852253 0.2900617 0.13703175 0.11346725 0.76908106 0.05141981 0.6211802
0.07552503 0.4307434 -0.30925146 0.051347602 0.58879685 0.19592726 -0.01224271 0.23078997
0.89894384 -0.72681737 -1.0739596 0.27475303 -0.24726978 0.57927024 -0.78270525 -0.63012797
0.19779864

bias f4 [5]
00000000: a929 033e 0c32 633e 71ec 91be 31d2 49be
00000010: 94de 973d
0.12808861 0.2218706 -0.28500703 -0.19709088 0.074155

weight f4 [5, 5]
00000000: 6f64 dbbc 3fb5 b83e 576a 16bf e981 2f3f
00000010: 68dc 223f e729 fbbe f7a5 c8be d961 0abf
00000020: 4ceb a1be 8b3c 9fbe fe5c 88be d2f5 1f3f
00000030: 320b f7be 3a10 f6be 3533 29bf 4885 fbbe
00000040: acbd 03bf 2c2c 483e b899 2cbf d083 22bf
00000050: a3fc ec3e 8da2 8f3e 9a5e 01bf 426e 71bf
00000060: cbb1 fbbd
-0.026781289 0.3607578 -0.5875601 0.685576 0.63617563 -0.49055406 -0.3918912 -0.54055554
-0.3162483 -0.31100878 -0.26633447 0.6248447 -0.4825073 -0.48059255 -0.6609376 -0.49125123
-0.5146129 0.195481 -0.67422056 -0.6348238 0.46286497 0.28053704 -0.50534976 -0.94308865
-0.12289771

bias f4 [5]
00000000: ac96 40be 50e7 fd3d de0f c63e 2cc4 6cbe
00000010: abc5 f53e
-0.18807477 0.12397635 0.3868398 -0.23121709 0.4800237

weight f4 [5, 5]
00000000: 0b2e 1bbf 9260 81be bace 663f dea3 253f
00000010: 4ec2 513e 1671 8a3d bd40 0dbf 774f fcbe
00000020: 40a7 f7bc 5cb9 a83e 5725 3a3f 16e9 13bf
00000030: bfd3 57bf f47b 293f cb77 bb3e 00e6 2ebe
00000040: 987f 433f ac04 033f 608f 453f 5ce1 5e3e
00000050: 7895 22bf 340c 433e d074 9fbd e006 4bbd
00000060: f8e1 32bf
-0.6061713 -0.2526899 0.9015919 0.64703166 0.20484278 0.06759851 -0.5517691 -0.49279377
-0.030231118 0.32953918 0.72713226 -0.57777536 -0.84307474 0.6620476 0.36614832 -0.17079926
0.7636657 0.51179004 0.771719 0.21765655 -0.6350932 0.19047624 -0.07785952 -0.049567103
-0.6987605

bias f4 [5]
00000000: 72a6 ee3e ae29 eebe 8963 d6be 9c4a 233f
00000010: e4fc 52be
0.46611363 -0.46516174 -0.41872814 0.6378572 -0.20604283

weight f4 [5, 5]
00000000: 89de 933e 6119 34bf ef88 48be 4a1c 493f
00000010: 9077 b3bd c7e4 03bf 9dde 4bbe ca4a c03e
00000020: 1ba4 0d3f 8521 2ebf d55c 083f a294 363f
00000030: 0606 1ebe 7ad1 5b3f 62ce 113f aef7 86be
00000040: 68d6 153f 1e28 93be 409d 4a3e 85ed e0be
00000050: 6f59 5e3d d2a4 193f 450a ab3c 7f39 c83e
00000060: c84c 253f
0.28880718 -0.70351225 -0.19583486 0.7855879 -0.08763039 -0.5152096 -0.19909139 0.3755706
0.5532853 -0.68019897 0.5326665 0.71320546 -0.15431985 0.8586651 0.5695554 -0.2636084
0.5853028 -0.28741544 0.19786549 -0.43931213 0.05428451 0.6001712 0.02087892 0.39106366
0.64570284

bias f4 [5]
00000000: 8f82 253e 52d6 743d 2db1 77be 27fa f7bd
00000010: 2966 a23e
0.16163085 0.059774704 -0.24188681 -0.1210826 0.31718567

weight f4 [5, 5]
00000000: 2558 53bf a431 92be dedb c1be d8fe 0bbe
00000010: 48f7 fa3d 2d98 fc3d 879d 39bf d104 053f
00000020: 454a 313f a2ab 513f d5f4 753f 8827 21bf
00000030: 6bf2 143d f0a3 91be 518b 853e 05f5 a13e
00000040: 29b1 49bf eefe 7dbe 3819 3dbe 69b3 1dbf
00000050: ebcd 113f e7a5 25bf e0f3 04bf 8a21 38bf
00000060: 5a0a 54bf
-0.8255637 -0.28553498 -0.37863058 -0.13671434 0.122541964 0.12333713 -0.7250599 0.51960474
0.6925395 0.81902516 0.9607671 -0.62950945 0.036364 -0.28445387 0.26082852 0.31632248
-0.7878595 -0.24804279 -0.18466651 -0.61601883 0.5695483 -0.6470627 -0.51934624 -0.71926177
-0.82828295

bias f4 [5]
00000000: 6669 7f3d 9ef0 303e e6a9 b73e 87fb 343e
00000010: 5252 233e
0.062356375 0.17279288 0.3587181 0.17674075 0.15949371

weight f4 [5, 5]
00000000: 3a49 0e3f a022 64bd 9299 3dbf d217 efbe
00000010: a05b c83c 4746 3dbf 0ee5 f63b bbb0 ee3e
00000020: 15c9 473d 9205 823d d388 2cbf 8a68 39bf
00000030: 5448 c93e 114c b7be c3a6 17be 4cd7 b73e
00000040: 9d81 193f cb8a 423f 2bab 95be f73a 23bf
00000050: 4951 29bf c98b 4bbe 81de 033f 10ef 6cbe
00000060: 0f40 e0be
0.55580485 -0.055697083 -0.74062455 -0.4669786 0.024457753 -0.7393536 0.0075346297 0.4661921
0.04877575 0.06348719 -0.6739628 -0.7242514 0.39312994 -0.35800222 -0.14809708 0.35906446
0.599634 0.7599303 -0.29232153 -0.6376185 -0.66139656 -0.19877543 0.5151139 -0.2313807
-0.43798873

bias f4 [5]
00000000: f075 00be 70e7 173d a208 27be 786f 8f3e
00000010: f2fa 993c
-0.1254499 0.03708595 -0.16311887 0.2801473 0.018796418

weight f4 [2, 5]
00000000: f837 833e bd05 043f 4dcd b8bb ff8c 063f
00000010: 21ef 593d 206d bebd fd9f 3cbd 6565 b83e
00000020: cf2a 53be 02b1 913e
0.25628638 0.51571256 -0.005639708 0.5255889 0.053206567 -0.09298158 -0.046051014 0.36014858
-0.20621799 0.2845536

bias f4 [2]
00000000: 2230 9e3e 29aa 1e3e
0.30896097 0.15494598
