finished_models/model7D.pt (torch_old, 184981 bytes, 6 tensors)

weight f4 [32, 1372]
0	0x3d4c24e6	0.049839877
1	0x3d725129	0.05915943
2	0xbd064cb5	-0.032787997
3	0x3dc51cf9	0.09624667
4	0x3b3bb879	0.002864389
5	0xbe0831b1	-0.13300206
6	0x3e4467f3	0.19180278
7	0xbcc51a9b	-0.024060538
8	0xbde6e8bc	-0.11274859
9	0xbd0ad694	-0.033896044
10	0x3d973100	0.07382393
11	0xbc04d8d8	-0.00810834
12	0xbde49ee6	-0.1116312
13	0x3d03ee7a	0.03220985
14	0xbbe4662b	-0.006970187
15	0x3d4e91e6	0.05043211
16	0xbcebf197	-0.028801722
17	0x3e6937e2	0.22775224
18	0x3d649a41	0.05581117
19	0xbd61228c	-0.054964587
20	0x3becda3b	0.0072281635
21	0xbc60dfd9	-0.013725244
22	0xbd234de3	-0.0398692
23	0xbd656124	-0.056000844
24	0xbc22e913	-0.009943265
25	0xbda5f1cf	-0.08102762
26	0xbd9b6349	-0.075872965
27	0x3d45d6bd	0.048300494
28	0xbe45d760	-0.1932044
29	0xbd86b85d	-0.06578133
30	0xbc702211	-0.01465656
31	0xbe0167c8	-0.12637246
32	0x3d055dda	0.032560207
33	0x3ce0ee7e	0.027457472
34	0xbe139fe8	-0.14416468
35	0xbe400cfd	-0.18754955
36	0xbc806381	-0.015672447
37	0x3d88ded7	0.06683128
38	0x3e656251	0.22400786
39	0x3d766880	0.060158253
40	0xbdadeb33	-0.08492126
41	0x3b9c38fa	0.0047675343
42	0xbde533cf	-0.11191522
43	0x3cecd67f	0.028910873
44	0xbc12867c	-0.008943196
45	0xbe0dfa42	-0.13864997
46	0xbe007f06	-0.12548456
47	0xbc104315	-0.008805056
48	0x3d442a83	0.047892105
49	0x3dcf7cec	0.10131249
50	0xbd646ab6	-0.05576583
51	0xbd9a465a	-0.0753295
52	0xbce53d74	-0.027983405
53	0x3dbd759e	0.09250949
54	0xbd7d2d4a	-0.06181077
55	0x3d397a35	0.04528256
56	0x3d5278ff	0.051384922
57	0x3ccbd082	0.024879698
58	0xbd0e0f6e	-0.034682684
59	0xbd7c7da2	-0.06164325
60	0x3d81e76b	0.063429676
61	0xbb2a0bae	-0.0025946903
62	0xbdd9ec23	-0.10640743
63	0xbcf14f7d	-0.029456848
64	0xbda2ec65	-0.07955245
65	0xbcef3a49	-0.029202597
66	0xbe491ccb	-0.1963989
67	0x3db40a4b	0.08791026
68	0x3d3f0469	0.046635065
69	0xbdbf7b54	-0.09349695
70	0xbd247840	-0.04015374
71	0xbcb58817	-0.02215962
72	0x3ba373cc	0.0049881693
73	0xbe545e40	-0.20739079
74	0xbe4bac39	-0.19889916
75	0x3ca2d367	0.019876195
76	0xbd589deb	-0.052884977
77	0x3be90b74	0.007111961
78	0xb9c7001c	-0.0003795632
79	0x3d6b9de3	0.05752362
80	0x3d3fcfe4	0.04682912
81	0x3bd34f34	0.0064486507
82	0xbd4e2f61	-0.050338153
83	0x3e2c1da0	0.16808176
84	0x3e19c145	0.15015133
85	0x3de2a857	0.110672645
86	0x3d7c1f49	0.061553273
87	0xbc3e81ac	-0.011627596
88	0x3c40f1c7	0.011776394
89	0x3c11018e	0.008850468
90	0xbe738cd5	-0.23784192
91	0xbe3a741f	-0.18208359
92	0x3c856132	0.016281698
93	0x3e224757	0.15847526
94	0xbd5a83ae	-0.053348236
95	0xbc83b763	-0.016078657
96	0x3ce0e81d	0.02745443
97	0xbce1611f	-0.027512131
98	0xbc880699	-0.016604709
99	0x3e20d393	0.15705709
100	0x3dbd9b02	0.09258081
101	0xba039c10	-0.00050205085
102	0x3e626cd6	0.2211183
103	0x3d9920af	0.07476937
104	0x3db9ce98	0.09072608
105	0x3cf102cc	0.029420279
106	0xbdb0977a	-0.08622642
107	0x3c8313d7	0.016000671
108	0xbc32ae52	-0.010905819
109	0xbdb05acc	-0.08611068
110	0xbd358add	-0.044321883
111	0xbe976f01	-0.29576877
112	0x3e204006	0.15649423
113	0x3d39d272	0.045366712
114	0xbd7b7517	-0.061390962
115	0x3d8350e5	0.06411914
116	0xbdcb2e64	-0.09920958
117	0xbe778c4d	-0.24174614
118	0xbd1b713e	-0.037949793
119	0x3e667e14	0.22509032
120	0xbe08ef77	-0.13372599
121	0xbdd59487	-0.1042872
122	0x3d439248	0.047746927
123	0xbc081c77	-0.008307568
124	0xbe1b004d	-0.15136833
125	0xbe3b1c55	-0.18272527
126	0xbe2fd306	-0.17170343
127	0xbd55bbb2	-0.052180953
128	0x3c732052	0.014839249
129	0x3d992e7d	0.0747957
130	0x3c350938	0.011049561
131	0xbd361428	-0.044452816
132	0x3d6fad5f	0.05851495
133	0xbccdbcd8	-0.025114462
134	0x3c930acb	0.017949482
135	0xbb24162c	-0.002503763
136	0xbe0ee7be	-0.1395559
137	0xbd3f1cf3	-0.046658468
138	0x3daf4d4e	0.085596666
139	0x3db0516b	0.08609279
140	0xbcdcd8ea	-0.026958901
141	0xbe8be8ae	-0.27325958
142	0x3d438f94	0.04774435
143	0xbb882ca0	-0.0041557103
144	0x3b20a385	0.0024511528
145	0x3e3a123a	0.18171015
146	0x3d3eb64f	0.04656058
147	0x3cb64aa2	0.022252385
148	0xbdf80092	-0.12109484
149	0x3c3809b8	0.011232786
150	0x3cbcab2b	0.023030838
151	0x3bc74933	0.006081724
152	0x3cf5a0da	0.029983927
153	0xbcc09c3b	-0.023511996
154	0xbca164e7	-0.019701434
155	0x3cef99a7	0.029248072
156	0xbd22d00d	-0.039749194
157	0x3d4e71c2	0.050401457
158	0xbdaabc5e	-0.083367094
159	0x3c0ce944	0.008600537
160	0xbd606acc	-0.05478935
161	0x3e0034e5	0.12520178
162	0xbdd459aa	-0.103686646
163	0x3ddc294a	0.10750063
164	0xbd770e09	-0.06031612
165	0xbe2be5c6	-0.1678687
166	0x3cf7f9f6	0.030270558
167	0x3e035f12	0.12829235
168	0x3d2fa36e	0.042880468
169	0xbd92312b	-0.07138284
170	0xbb8366d6	-0.0040100617
171	0xbe9de49f	-0.30838487
172	0xbd81ffa8	-0.06347591
173	0xbbdfe994	-0.0068332646
174	0x3bdc1f4e	0.006717599
175	0x3e9b56b9	0.30339602
176	0xbcd44359	-0.02591102
177	0xbde3d598	-0.11124724
178	0xbddc3c04	-0.107536346
179	0xbe122f76	-0.14275917
180	0xbde51f0f	-0.111875646
181	0xbe1429cc	-0.14469069
182	0xbc50c0cf	-0.012741282
183	0x3e042cbc	0.1290769
184	0x3cbeab6f	0.023275105
185	0x3c39973b	0.01132756
186	0xbde3ac9f	-0.11116909
187	0x3ddf9bac	0.10918364
188	0x3d0638e6	0.032769106
189	0xbe676cf8	-0.22600162
190	0xbdb5cd9b	-0.08877107
191	0xbe7122b9	-0.23548402
192	0xbcdac907	-0.026707185
193	0xbbaf1362	-0.005342887
194	0xbe5f419c	-0.21802372
195	0xbe4bc20d	-0.19898243
196	0xbe19df94	-0.15026695
197	0x3d3eeb98	0.0466114
198	0x3dbd99f6	0.09257881
199	0xbdf45bd3	-0.119315766
200	0xbc34727e	-0.011013625
201	0xbd89aad0	-0.06722033
202	0xbe0114b9	-0.12605561
203	0x3d7d9884	0.06191303
204	0xbe64c3db	-0.22340338
205	0x3d2ea2db	0.04263578
206	0x3d1716c5	0.03688695
207	0xbda918f0	-0.082567096
208	0xbc834629	-0.016024666
209	0x3d4872f7	0.048937764
210	0xbdfeb06d	-0.12435994
211	0xbd87cddf	-0.06631064
212	0x3b6a4e0a	0.0035752081
213	0x3d72b4a9	0.059254322
214	0x3b826f84	0.003980579
215	0xbc018c6d	-0.007907015
216	0x3d8a6966	0.067583844
217	0xbd56b8ca	-0.052422322
218	0x3d9a048f	0.07520401
219	0x3e17e3b6	0.14832959
220	0x3d678a8a	0.056528606
221	0x3dea1f13	0.11431708
222	0xbcef8d40	-0.029242158
223	0xbd0e305b	-0.034714084
224	0xbe73dbf0	-0.23814368
225	0xbd5cb416	-0.05388268
226	0xbe3c953e	-0.18416306
227	0x3d738167	0.05944958
228	0xbdbcc5aa	-0.09217389
229	0x3d390196	0.045167528
230	0xbd435cb2	-0.047695823
231	0xbd04e428	-0.03244415
232	0xbbae20e6	-0.0053139804
233	0xbe08935b	-0.13337462
234	0xbd82b608	-0.06382376
235	0x3c1960fe	0.009361504
236	0x3e042f0b	0.1290857
237	0xbe218a6c	-0.1577546
238	0x3dbc4309	0.091924734
239	0xbe081cc1	-0.13292219
240	0xbce9c983	-0.028538471
241	0xbba88850	-0.005143203
242	0x3e38f985	0.18063934
243	0xbe2190d7	-0.15777908
244	0x3cfe60e3	0.031052059
245	0xbd87faa7	-0.06639605
246	0xbc887317	-0.016656442
247	0x3e32dea1	0.17467739
248	0x3e064f67	0.13116227
249	0xbe085a0f	-0.13315605
250	0xbd7d0670	-0.061773717
251	0xbda48c59	-0.08034582
252	0xbc165c7c	-0.009177323
253	0x3e1b5771	0.15170075
254	0xbddc9ea3	-0.10772445
255	0xbe2561b2	-0.16150549

bias f4 [32]
0	0x3e4f518f	0.20245956
1	0xbc8fe526	-0.017565321
2	0x3cc730d0	0.024315268
3	0x3db2c7e0	0.087295294
4	0x3d91af49	0.07113511
5	0x3d1113d9	0.03541932
6	0x3db09d4b	0.08623751
7	0x3ddb7bef	0.10716998
8	0xbdc01cc0	-0.093804836
9	0x3e04df56	0.12975821
10	0xbccdeea3	-0.025138205
11	0x3ddaff9d	0.106932856
12	0x3dd36a73	0.10323038
13	0x3e34b117	0.1764568
14	0x3dc15f0f	0.09441959
15	0x3e3ec5e2	0.18630174
16	0x3de9300f	0.113861196
17	0x3e174bd0	0.14775014
18	0xbc7dcba9	-0.015490451
19	0xbbac4cdb	-0.0052581853
20	0xbcd7afa2	-0.026328865
21	0xbb9af57f	-0.0047289724
22	0xbcb8952f	-0.022532074
23	0x3e06fbf2	0.13182047
24	0xbce9ecf7	-0.028555376
25	0x3dd8904d	0.10574398
26	0x3ddc7acf	0.107656114
27	0x3d1faada	0.038981296
28	0x3e5d1e20	0.21593523
29	0x3e0d55ac	0.13802212
30	0xbcb507ef	-0.02209851
31	0x3e268c69	0.162645

weight f4 [32, 32]
0	0x3e9229a6	0.285474
1	0x3c3983f4	0.011322964
2	0x3d8d6135	0.069033064
3	0x3e2cd95e	0.16879794
4	0xbe50a9cd	-0.20377274
5	0xbe65b38a	-0.2243177
6	0x3e7cfd37	0.24705969
7	0x3e7fde0c	0.24987048
8	0xbe82a45c	-0.2551602
9	0x3e678292	0.22608402
10	0xbccd525e	-0.02506369
11	0xbdad0f56	-0.08450191
12	0x3e811740	0.2521305
13	0x3e349ace	0.17637178
14	0xbc7b7d2c	-0.0153496675
15	0x3e2e2af6	0.17008576
16	0x3e37bbbb	0.17942707
17	0x3e53fddb	0.20702307
18	0xbd778796	-0.06043204
19	0xbe68926e	-0.22712108
20	0xbe507a47	-0.20359145
21	0xbe579fec	-0.21057099
22	0xbe70e689	-0.23525442
23	0x3e86c3b4	0.26321185
24	0xbead3517	-0.33829567
25	0x3e0eb8ad	0.13937636
26	0x3e3686c9	0.17824854
27	0xbe367cd5	-0.17821057
28	0xbc05b7e2	-0.008161517
29	0xbcccc4c1	-0.024996163
30	0xbd3894ba	-0.04506371
31	0x3e68a561	0.22719337
32	0xbe3422ce	-0.17591402
33	0x3d9e7ff8	0.07739252
34	0x3df8220b	0.12115868
35	0xbe0986c2	-0.13430312
36	0x3db70fe5	0.089385785
37	0xbe97fdaa	-0.29685718
38	0xbe26b472	-0.16279772
39	0xbeac677d	-0.33672705
40	0x3be4f6a1	0.0069874083
41	0x3acb08b8	0.0015490269
42	0xbea2c0d5	-0.31787744
43	0x3e82fe12	0.25584465
44	0x3d9ffec8	0.078122675
45	0xbe6bea6d	-0.23038645
46	0x3d980ab2	0.07423915
47	0xbd1a06f5	-0.03760429
48	0xbdb0ff04	-0.0864239
49	0xbea4adc7	-0.32163832
50	0x3e39cb54	0.1814397
51	0xbe42c2a4	-0.19019562
52	0xbe9c4bed	-0.30526677
53	0xbe04baac	-0.12961835
54	0xbe441ad6	-0.19150862
55	0xbbd593f5	-0.006517882
56	0xbd7d8a6f	-0.0618996
57	0xbd56fa82	-0.052484997
58	0x3c1ea191	0.009682075
59	0xbe6a5fb3	-0.22888069
60	0x3d891c48	0.06694847
61	0x3e0f2305	0.13978203
62	0x3e86a2db	0.26296124
63	0x3d414281	0.047182564
64	0x3eb8a0e9	0.36060265
65	0xbe4d1817	-0.20028721
66	0xbd0d17c2	-0.034446485
67	0xbe60eea7	-0.21966039
68	0xbd5a25c3	-0.05325867
69	0xbd63ea2e	-0.055643253
70	0x3e336bb8	0.1752156
71	0xbe5f4d5f	-0.21806858
72	0x3ce7cf42	0.02829707
73	0x3e3d70a9	0.18500008
74	0x3d4b45de	0.049627177
75	0x3e8d61ec	0.2761377
76	0x3d98ea07	0.07466512
77	0x3ea02fac	0.3128637
78	0x3e8883e8	0.26663136
79	0x3ef39bca	0.47579795
80	0xbdf56459	-0.119820304
81	0x3d8c3b28	0.06847221
82	0xbe250857	-0.16116463
83	0xbdf500aa	-0.11963017
84	0xbea0954e	-0.3136391
85	0x3d8e691b	0.06953641
86	0xbd2c78c5	-0.042107362
87	0x3e9aec93	0.30258617
88	0xbe82ad04	-0.25522625
89	0xbde15386	-0.11002259
90	0x3d274515	0.040837366
91	0x3dbd9013	0.092559956
92	0x3e8a9338	0.27065444
93	0x3e312eeb	0.17303054
94	0xbe409492	-0.18806675
95	0x3dfe78c0	0.12425375
96	0x3e143866	0.1447464
97	0x3df92d55	0.121668495
98	0xbe594373	-0.21217136
99	0xbe08a9bf	-0.13346003
100	0xbe3162b3	-0.17322807
101	0x3e469ffd	0.19396968
102	0x3e0bf4c5	0.13667591
103	0x3dd87257	0.105686836
104	0xbe97e770	-0.2966876
105	0x3d83668f	0.06416046
106	0xbe6b113d	-0.22955795
107	0x3e95e835	0.29278722
108	0x3eba8db4	0.36436236
109	0x3bb982e1	0.005661354
110	0x3dec98ac	0.11552557
111	0x3e8ee127	0.27906153
112	0x3e9fd82a	0.31219608
113	0xbe3e21e4	-0.18567616
114	0xbe2720c1	-0.16321088
115	0xbe8c1af9	-0.27364329
116	0x3e80440a	0.2505191
117	0x3ddb4fd4	0.107085854
118	0xbddb4298	-0.10706061
119	0xbd8e03d1	-0.06934322
120	0x3c6a7f70	0.01431261
121	0xbdd099a6	-0.10185556
122	0x3e7e3bae	0.24827453
123	0xbe4a2f8c	-0.197447
124	0x3e8aa45a	0.27078515
125	0xbc8aee59	-0.016959356
126	0x3e95547f	0.29166028
127	0xbb983ad1	-0.0046456833
128	0xbe962e85	-0.29332367
129	0xbde33545	-0.11094145
130	0xbe1a6e6b	-0.15081184
131	0xbe9697f0	-0.29412794
132	0x3e626a16	0.22110781
133	0xbde1586b	-0.110031925
134	0x3c37bb54	0.011214096
135	0x3e79f8c5	0.24411304
136	0xbd18c59b	-0.037297826
137	0x3de5da7b	0.112233125
138	0x3d8e1c82	0.06939031
139	0xbdb2253d	-0.08698509
140	0xbdf565a8	-0.1198228
141	0x3e17cb00	0.14823532
142	0x3cecd747	0.028911246
143	0xbd9f52c7	-0.077794604
144	0xbe0a60af	-0.13513444
145	0x3e701d7a	0.23448744
146	0x3da910ae	0.082551345
147	0xbcde1760	-0.027110755
148	0x3e884dcc	0.26621854
149	0x3e90f8d7	0.2831485
150	0x3e2a2f09	0.16619505
151	0xbe703c93	-0.23460607
152	0x3e24cabb	0.1609296
153	0x3e2d0a73	0.16898517
154	0x3e17dcbd	0.14830299
155	0xbd5c76a3	-0.05382408
156	0xbe44e8e8	-0.19229472
157	0xbe27915b	-0.16364042
158	0x3e456936	0.19278416
159	0xbe641f75	-0.22277625
160	0x3e7527bb	0.23940937
161	0xbe33f503	-0.17573933
162	0x3d7b7493	0.06139047
163	0x3eba11ce	0.3634171
164	0x3e01d233	0.12677841
165	0x3dbbd770	0.09171951
166	0x3eb99104	0.3624345
167	0x3eb02eaf	0.34410617
168	0x3e12f47e	0.14351079
169	0x3e2432b6	0.1603497
170	0x3e904223	0.28175458
171	0xbe4e2581	-0.20131494
172	0xbe167371	-0.14692475
173	0xbe2fbd57	-0.17162071
174	0xbc2008db	-0.009767736
175	0xbde9062f	-0.113781326
176	0x3bfc0a5d	0.007691665
177	0x3e241dd7	0.16027008
178	0x3da4510f	0.08023273
179	0xbd09cd45	-0.033643026
180	0x3e0cead2	0.13761452
181	0x3e40c1dd	0.18823953
182	0xbe1e3ee4	-0.15453678
183	0x3c54607d	0.012962458
184	0x3dce3033	0.10067787
185	0x3cb3544d	0.021890784
186	0x3deeb179	0.11654944
187	0x3d8440de	0.06457685
188	0x3dddb107	0.10824781
189	0x3e8d95a2	0.27653223
190	0xbe367978	-0.17819774
191	0x3d57210a	0.052521743
192	0xbe893fae	-0.26806396
193	0x3da1ce60	0.07900691
194	0xbd886f13	-0.06661811
195	0x3c125195	0.0089305835
196	0xbe5c51f2	-0.21515635
197	0xbd9d0c97	-0.07668417
198	0xbe3eb0d2	-0.18622139
199	0x3d1d673d	0.038428534
200	0xbe113c9d	-0.14183278
201	0xbe380aa4	-0.17972809
202	0x3cac63db	0.021043709
203	0xbea0b2f6	-0.31386536
204	0x3e215e2d	0.15758581
205	0x3e0f7b5f	0.14011906
206	0xbd79f047	-0.061020162
207	0x3d26c1be	0.04071211
208	0xbe2b185b	-0.1670851
209	0xbe26d7f8	-0.16293323
210	0x3d0c579e	0.034263246
211	0xbdf17364	-0.11789587
212	0x3e0e15e8	0.13875544
213	0xbd1eea39	-0.03879759
214	0xbe9c65f6	-0.3054654
215	0x3dd19dbc	0.102351636
216	0xbd82595f	-0.063647024
217	0xbe69f9e1	-0.22849227
218	0xbe5e5d60	-0.21715307
219	0x3e33e040	0.17566013
220	0x3e24fe87	0.1611272
221	0xbe688720	-0.22707796
222	0xbe580f0e	-0.21099493
223	0x3aaf7e6b	0.0013389116
224	0x3e4b2947	0.19839965
225	0x3dca1d48	0.09868866
226	0x3c38d7b0	0.011281893
227	0xbd14eb51	-0.036357228
228	0x3e034f70	0.12823272
229	0x3e428096	0.18994364
230	0x3e30175c	0.17196411
231	0xbdf11392	-0.11771311
232	0xbe8b5109	-0.27210262
233	0xbda82907	-0.0821095
234	0xbe860d57	-0.26182052
235	0xbe9b486f	-0.303287
236	0xbe3e572a	-0.18587938
237	0xbe2a0c7c	-0.16606325
238	0xbe424c9b	-0.18974535
239	0x3d8831be	0.066501126
240	0xbdce3d1c	-0.100702494
241	0x3d874a0c	0.0660592
242	0xbe7dddb9	-0.24791612
243	0xbc848d89	-0.01618077
244	0x3e979c72	0.29611546
245	0xbc64ba57	-0.0139604425
246	0x3e21f699	0.15816726
247	0x3d9de45d	0.077095725
248	0x3d8a6f8d	0.06759558
249	0x3e5bc307	0.21461116
250	0x3db39c5c	0.087700576
251	0xbd997572	-0.07493104
252	0x3e01233b	0.12611096
253	0xbe3cb72f	-0.18429254
254	0xbdbf3bbb	-0.093375646
255	0xbe11e649	-0.14248003

bias f4 [32]
0	0x3db44436	0.08802073
1	0x3e004888	0.12527668
2	0x3e4c2014	0.19934112
3	0x3e1040ca	0.14087215
4	0x3d00f96e	0.031487875
5	0x3e0f34f4	0.13985044
6	0x3dc04680	0.09388447
7	0xbda8cfad	-0.08242736
8	0x3e32cd73	0.17461185
9	0xbe2eea48	-0.17081559
10	0xbe40e526	-0.18837413
11	0x3dcfb9c3	0.10142853
12	0xbd37a279	-0.04483268
13	0x3d97e282	0.0741625
14	0x3ddc2c5b	0.10750648
15	0x3d7b84b2	0.061405845
16	0x3d20ba89	0.039240394
17	0x3e01165d	0.12606187
18	0x3cd8e404	0.026475914
19	0x3e12ae19	0.14324225
20	0xbb86645a	-0.0041013183
21	0xbe1abfb3	-0.1511219
22	0xbd43f94e	-0.047845177
23	0x3e1ebcc5	0.15501697
24	0xbd182178	-0.037141293
25	0xbe4afc1a	-0.19822732
26	0xbe7d7666	-0.24752197
27	0x3e6300cc	0.22168273
28	0x3e0de41e	0.13856551
29	0x3e05ad97	0.130545
30	0x3d9a2ba9	0.07527859
31	0x3e27a0b6	0.163699

weight f4 [2, 32]
0	0x3e1ceceb	0.15324752
1	0xbe91c120	-0.28467655
2	0xbcd01f62	-0.02540559
3	0x3cc55788	0.02408959
4	0xbea58daa	-0.32334644
5	0x3eee2679	0.46513727
6	0xbc974d36	-0.018469434
7	0xbe5bc919	-0.21463431
8	0x3ed8a193	0.4231077
9	0xbf062e4c	-0.52414393
10	0xbeb5d1d0	-0.35511637
11	0x3e90eae0	0.28304195
12	0xbec4d475	-0.38443342
13	0x3e8587e0	0.26080227
14	0x3e12b8e9	0.1432835
15	0xbece06c1	-0.40239528
16	0xbebc8498	-0.3681991
17	0x3f0d33dd	0.5515726
18	0x3e317342	0.17329124
19	0x3eb0ac58	0.34506488
20	0xbe58b833	-0.21164016
21	0xbf0ae694	-0.54258084
22	0x3bcbea01	0.006222964
23	0x3e96c038	0.29443526
24	0x3ef25593	0.47330913
25	0xbeb364bf	-0.350378
26	0x3d12c661	0.03583372
27	0x3ed6f72b	0.4198545
28	0x3e8864e5	0.26639476
29	0x3ed8a77a	0.42315274
30	0x3ea7b908	0.32758355
31	0x3eed747f	0.46377942
32	0xbeaf2610	-0.34208727
33	0x3c466395	0.012108703
34	0xbe8f35df	-0.27970788
35	0xbe965f1a	-0.29369432
36	0x3e67b5c2	0.22627929
37	0x3df8a37f	0.121405594
38	0x3c588ec3	0.013217631
39	0x3e7eafd3	0.24871759
40	0x3e6f30b9	0.2335843
41	0xbe865a7c	-0.2624091
42	0x3eba62d1	0.36403516
43	0xbf0aa90e	-0.54164207
44	0x3db35415	0.08756272
45	0xbed6e6b9	-0.41972902
46	0xbe6fd327	-0.23420392
47	0xbd79db5b	-0.06100021
48	0x3eaa1695	0.33220354
49	0x3e821ec9	0.25414112
50	0xbe3acfa4	-0.18243271
51	0xbca83613	-0.020533597
52	0x3e119c7d	0.14219852
53	0x3e913797	0.28362724
54	0xbde137b2	-0.10996951
55	0x3e9347e4	0.28765786
56	0xbdbccb04	-0.0921841
57	0x3e8e5a9e	0.2780351
58	0x3eaf9508	0.3429339
59	0x3d9ae7a6	0.07563715
60	0x3eb7c6d2	0.35893875
61	0xbee26ced	-0.4422373
62	0xbe834214	-0.2563635
63	0x3e74de14	0.23912841

bias f4 [2]
0	0xbd04bb07	-0.032404926
1	0x3bf68196	0.007522772
